training/models/curriculum_stage_1_weights.pth (torch, 274421 bytes, 13 tensors)

shared_layers.0.weight f4 [128, 2]
0.43575698 -0.23357219 0.7452371 0.22833882 -0.08104375 0.15449323 -0.0410748 0.56193686
0.12861596 -0.66990477 0.71800345 -0.32251567 -0.26440993 0.52953655 -0.43851367 0.009694028
0.5235955 0.29301038 -0.056457724 0.06752384 -0.25972557 0.45199603 -0.28405762 0.3882963
0.7497601 0.30282688 -0.31234768 0.27232254 0.62776464 0.12223985 -0.67030364 -0.6408922
-0.40571433 0.40231282 -0.2527727 -0.15959266 -0.6395528 -0.48909554 0.36828744 -0.15289046
0.04025513 -0.08793156 -0.034212872 -0.529086 0.4499342 -0.3967747 -0.171099 0.3365108
-0.54924965 -0.21066798 -0.6092049 -0.21978965 -0.40855485 0.5409819 0.4095383 -0.15393832
-0.3215974 0.18289424 -0.29965794 -0.29394966 -0.28151962 -0.22796167 -0.6094601 -0.209455
-0.12821552 -0.30868655 0.6992086 0.51323926 -0.025571756 -0.08264036 0.27232516 -0.2787915
0.7134363 -0.5488027 0.3647527 0.0077622966 0.14322789 0.6003916 0.4299458 -0.23603693
0.073137596 0.73988855 -0.022432776 0.61258733 -0.13892443 -0.10769793 -0.26316735 0.17614895
0.101299524 0.4103826 -0.2848188 0.47523615 0.68633735 -0.3617377 0.042917207 0.059240457
0.3487269 0.04267748 0.17882453 -0.5265139 -0.2499867 -0.31678632 -0.29226512 0.75130343
-0.39851317 -0.35950342 -0.3537933 0.5722058 0.62517524 0.49606553 0.2126333 -0.635804
0.5684414 -0.67918915 0.31141812 -0.41527796 -0.48498538 -0.6685867 0.6144367 0.33360302
0.5615653 -0.5696019 0.26038998 0.42833647 0.7325589 -0.34361166 0.12552385 -0.24059975
0.42087322 -0.32769182 -0.40147704 0.6670898 -0.46972233 0.33682463 -0.48997068 0.7142494
-0.4166576 -0.17173289 0.18061222 0.080669485 -0.53745633 -0.48491752 -0.20439164 0.64448327
0.13849543 0.19758852 0.027994053 0.5659302 -0.081438646 -0.63287866 -0.37683538 0.75986165
-0.24754176 0.4968488 -0.23752253 0.075353675 -0.62595046 -0.22848228 -0.23811999 -0.12066651
0.14435628 0.11226751 -0.19026522 -0.33125827 -0.16068277 0.63812923 -0.2242509 -0.41829708
0.1049454 -0.65501875 0.07111033 -0.66830105 -0.22906323 -0.7011639 0.62467897 0.029212316
-0.5179141 0.53449416 0.4075076 0.54847276 -0.646374 -0.23497479 -0.047938332 0.7075285
-0.606935 -0.58750504 -0.56567323 0.6006425 -0.38857496 -0.26721767 0.1851726 0.015594924
-0.17825243 -0.5224111 -0.097995244 -0.61250234 0.26409847 -0.41032636 -0.5504231 -0.35997277
0.28029114 0.49381146 -0.037645333 -0.34797296 -0.5088083 0.37210274 -0.45730206 0.17177953
0.2774286 0.6912895 -0.3459944 -0.43121243 0.528668 -0.43944606 0.36433157 0.13897878
-0.24767974 0.76268476 0.20088364 -0.4811808 0.07271703 -0.5071415 0.31973982 -0.43537027
0.1233091 0.36382502 -0.414662 -0.35281354 -0.50218016 0.6245825 -0.56847364 0.1478406
0.2892381 0.4814315 -0.36493185 0.058405586 -0.1652507 0.11976862 0.039146584 -0.61415553
0.19212565 -0.52919877 0.09869454 -0.6722239 0.35446116 -0.6770712 0.032456223 -0.44934705
-0.21458368 -0.2004263 -0.23722394 -0.2750327 -0.4888042 0.047080714 -0.5324342 0.5428455
00000000: 8a1b df3e 8c2d 6fbe dcc7 3e3f a7d1 693e
00000010: 44fa a5bd 7933 1e3e 0d3e 28bd 18db 0f3f
00000020: e7b3 033e e17e 2bbf 13cf 373f c620 a5be
00000030: bd60 87be b58f 073f dd84 e0be b3d3 1e3c
00000040: 5b0a 063f 7505 963e 3740 67bd f049 8a3d
00000050: c0fa 84be 066c e73e 0070 91be c6ce c63e
00000060: 47f0 3f3f 200c 9b3e 09ec 9fbe dc6d 8b3e
00000070: 2fb5 203f e358 fa3d 0599 2bbf 8311 24bf
00000080: cab9 cfbe f2fb cd3e 6c6b 81be 426c 23be
00000090: bbb9 23bf bb6a fabe 2c90 bc3e 518f 1cbe
000000a0: 90e2 243d 7615 b4bd cc22 0cbd 2e72 07bf
000000b0: c75d e63e 0e26 cbbe 9434 2fbe 254b ac3e
000000c0: a09b 0cbf 59b9 57be daf4 1bbf 8a10 61be
000000d0: 1a2e d1be ca7d 0a3f 01af d13e 02a2 1dbe
000000e0: 6aa8 a4be a148 3b3e c46c 99be 9280 96be
000000f0: 5723 90be c96e 69be 9405 1cbf 5f7b 56be
00000100: ee4a 03be 2a0c 9ebe 56ff 323f a663 033f
00000110: dc7b d1bc 593f a9bd 346e 8b3e c2bd 8ebe
00000120: c3a3 363f 557e 0cbf dec0 ba3e dd5a fe3b
00000130: 55aa 123e 44b3 193f db21 dc3e aab3 71be
00000140: 2ac9 953d 5669 3d3f f1c4 b7bc 86d2 1c3f
00000150: 3542 0ebe bb90 dcbd dfbd 86be 6460 343e
00000160: 2076 cf3d ab1d d23e c5d3 91be 2752 f33e
00000170: ceb3 2f3f af35 b9be f4c9 2f3d 1fa6 723d
00000180: 558c b23e 95ce 2e3d c71d 373e 9dc9 06bf
00000190: 83fc 7fbe d131 a2be c6a3 95be 6c55 403f
000001a0: eb09 ccbe d510 b8be 6524 b5be 147c 123f
000001b0: 7c0b 203f 4dfc fd3e 8bbc 593e 0dc4 22bf
000001c0: 6085 113f 57df 2dbf 3272 9f3e 509f d4be
000001d0: 0150 f8be 7f28 2bbf b94b 1d3f 04ce aa3e
000001e0: bec2 0f3f 6ed1 11bf d651 853e eb4e db3e
000001f0: fb88 3b3f deed afbe 5389 003e c85f 76be
00000200: b27c d73e 39c7 a7be 668e cdbe 66c6 2a3f
00000210: 727f f0be 4774 ac3e 70dd fabe 0cd9 363f
00000220: 2554 d5be bfda 2fbe 69f2 383e 0b36 a53d
00000230: bd96 09bf 1c47 f8be 0b4c 51be dbfc 243f
00000240: bfd1 0d3e a554 4a3e c953 e53c cde0 103f
00000250: 4ec9 a6bd 5604 22bf 91f0 c0be 4b86 423f
00000260: 967b 7dbe f762 fe3e 1b39 73be 0753 9a3d
00000270: 4a3e 20bf 42f7 69be bad5 73be 0120 f7bd
00000280: 22d2 133e 82ec e53d e3d4 42be af9a a9be
00000290: 068a 24be 705c 233f 07a2 65be 092b d6be
000002a0: 9ded d63d 4faf 27bf 4ba2 913d c715 2bbf
000002b0: 8d8f 6abe 7a7f 33bf f6ea 1f3f ab4e ef3c
000002c0: 0596 04bf 9cd4 083f d6a4 d03e b668 0c3f
000002d0: c478 25bf 3b9d 70be fc5a 44bd 9620 353f
000002e0: 1860 1bbf bb66 16bf f6cf 10bf b5c3 193f
000002f0: 4cf3 c6be c1d0 88be e39d 3d3e da81 7f3c
00000300: ce87 36be bcbc 05bf bbb1 c8bd f4cc 1cbf
00000310: ea37 873e 4c16 d2be 87e8 0cbf 5a4e b8be
00000320: 5282 8f3e dbd4 fc3e fe31 1abd 8329 b2be
00000330: 4341 02bf 4084 be3e 7f23 eabe f9e6 2f3e
00000340: 1f0b 8e3e 59f8 303f 2e26 b1be e0c7 dcbe
00000350: c956 073f 13ff e0be ab89 ba3e 7450 0e3e
00000360: c29f 7dbe 4f3f 433f 71b4 4d3e 545d f6be
00000370: abec 943d 06d4 01bf f0b4 a33e dae8 debe
00000380: 7b89 fc3d 4647 ba3e 944e d4be faa3 b4be
00000390: e18e 00bf a4e4 1f3f 7d87 11bf 8763 173e
000003a0: 0417 943e 317e f63e 59d8 babe b23a 6f3d
000003b0: 7b37 29be 4049 f53d 2b58 203d 4c39 1dbf
000003c0: 96bc 443e 9279 07bf 5d20 ca3d de16 2cbf
000003d0: ef7b b53e 8a54 2dbf d1f0 043d d110 e6be
000003e0: d3bb 5bbe 8d3c 4dbe d5ea 72be 16d1 8cbe
000003f0: 8b44 fabe b5d7 403d 9c4d 08bf ecf7 0a3f

shared_layers.0.bias f4 [128]
-0.052383777 -0.21676995 0.0010791422 -0.016829949 0.40302303 0.40767533 -0.035874844 -0.5538253
-0.27662438 0.0016489755 -0.501968 0.09373602 -0.5544886 0.031023756 -0.65774345 -0.57392585
-0.60349715 -0.0017733622 0.18365793 0.12136254 -0.35726786 -0.21135987 0.019252978 -0.41867465
0.51502025 -0.4597384 -0.54507226 -0.41863135 0.4390498 -0.5063038 -0.009660984 -0.32256854
-0.2162033 -0.5501435 -0.62868834 0.18818212 -0.6241891 0.4487268 -0.6199259 -0.4374327
-0.14791246 0.39797544 -0.22591452 -0.4676691 -0.5496119 0.0069153137 -0.07476545 -0.06350307
-0.07400928 -0.35619742 -0.6465331 -0.06778814 0.35714936 0.20001665 -0.19492015 0.026645822
0.2894204 0.27591714 0.3968346 0.16736494 -0.25724423 -0.020365229 0.28119755 -0.18822487
-0.010334472 0.25404522 -0.52858025 -0.17938821 -0.1657198 -0.42292583 -0.6885719 -0.50566655
0.15635301 0.006226017 0.009711769 -0.2087528 -0.51257706 -0.3515231 -0.5727975 0.3820437
0.121199206 0.3111655 0.09202651 -0.6188394 -0.19691539 -0.6453323 -0.45551193 -0.47786832
-0.059942186 -0.61841893 0.31842247 -0.16252841 0.11175271 0.5542173 -0.0012800625 -0.27979708
-0.47478104 0.13330574 -0.31332454 0.26757348 0.32787138 0.10076371 0.14811012 -0.18142395
-0.43630847 0.48138097 0.31478518 0.13001056 -0.053861883 -0.20789416 0.34634635 -0.49436262
-0.12766494 0.053879894 0.56981975 0.5374988 -0.29083526 -0.24011421 0.078078695 -0.45902368
-0.6018822 0.27421233 0.16952114 0.27353582 -0.042826846 0.38905942 0.54944533 0.054112572
00000000: 5f90 56bd f1f8 5dbe 0172 8d3a f6de 89bc
00000010: 0959 ce3e d2ba d03e 80f1 12bd 7fc7 0dbf
00000020: b6a1 8dbe 7022 d83a fa80 00bf acf8 bf3d
00000030: f7f2 0dbf 8825 fe3c e061 28bf ceec 12bf
00000040: ca7e 1abf 2970 e8ba d310 3c3e ec8c f83d
00000050: d0eb b6be b96e 58be 6cb8 9d3c 865c d6be
00000060: 5ed8 033f d562 ebbe db89 0bbf d956 d6be
00000070: 23cb e03e 209d 01bf 1b49 1ebc b427 a5be
00000080: 6664 5dbe 34d6 0cbf b8f1 20bf d0b2 403e
00000090: dbca 1fbf 85bf e53e 77b3 1ebf 2ef7 dfbe
000000a0: 5d76 17be 70c3 cb3e 2356 67be 5372 efbe
000000b0: 5eb3 0cbf db99 e23b a11e 99bd e60d 82bd
000000c0: 2d92 97bd 825f b6be 3183 25bf 82d4 8abd
000000d0: 48dc b63e 2ad1 4c3e 2699 47be 5748 da3c
000000e0: e92e 943e 0345 8d3e e82d cb3e b761 2b3e
000000f0: 84b5 83be fbd4 a6bc 20f9 8f3e 05be 40be
00000100: eb51 29bc 3712 823e 0951 07bf 8bb1 37be
00000110: 74b2 29be bc89 d8be 3f46 30bf 5d73 01bf
00000120: 011b 203e 9e03 cc3b 1d1e 1f3c 4bc3 55be
00000130: 4038 03bf d6fa b3be dba2 12bf 3b9b c33e
00000140: 4a37 f83d 1651 9f3e 6578 bc3d 426c 1ebf
00000150: 30a4 49be 7f34 25bf dc38 e9be 28ab f4be
00000160: f085 75bd b450 1ebf 4508 a33e d96d 26be
00000170: 9bde e43d 2fe1 0d3f c5c7 a7ba 9041 8fbe
00000180: 8016 f3be 4d81 083e 136c a0be 64ff 883e
00000190: c2de a73e 345d ce3d 2eaa 173e 33c7 39be
000001a0: d363 dfbe 9177 f63e 862b a13e 7d21 053e
000001b0: 479e 5cbd 35e2 54be 4f54 b13e 191d fdbe
000001c0: 99ba 02be 2ab1 5c3d b5df 113f 8599 093f
000001d0: 5ce8 94be 80e0 75be b9e7 9f3d 2705 ebbe
000001e0: f414 1abf 8f65 8c3e f396 2d3e e30c 8c3e
000001f0: 346b 2fbd cc32 c73e 73a8 0c3f 25a5 5d3d

shared_layers.2.weight f4 [128, 128]
-0.07831637 -0.08756076 -0.03903508 0.026876971 0.01739223 0.030088328 -0.075705886 0.029745137
0.05959286 -0.03331595 -0.0017859094 -0.05793735 0.0061680316 -0.098909326 0.005009996 -0.07526609
0.0766378 0.0007447717 0.02058412 -0.11354004 -0.0012739939 -0.071282804 -0.0844065 -0.010939773
0.017897988 -0.07034735 0.009880897 -0.09402145 -0.09293434 -0.03865298 0.045228016 0.00891703
-0.07173824 0.06424311 -0.058802754 0.04742742 0.057087105 0.027228374 -0.050754234 0.043495428
-0.04832489 0.04712471 -0.045979746 0.025920343 -0.0717523 0.049056433 -0.04887583 0.07642623
-0.018806722 -0.024131663 0.038514033 -0.08346728 0.06635517 0.043919362 0.020499084 -0.0968505
0.057961136 -0.009322254 -0.021395283 -0.046812784 -0.04315784 -0.030722402 0.060050722 -0.006066354
-0.02185735 0.008992811 0.015888825 -0.023883386 -0.05651474 -0.05347255 -0.019725114 -0.07001074
-0.07618208 -0.052734543 0.003924091 0.047314126 0.03281817 -0.017675208 0.004921329 -0.030348705
-0.032024767 -0.07667058 0.023795146 0.08050344 0.05326316 -0.05996683 -0.028626971 -0.100494936
-0.08804025 -0.022178315 0.058979668 -0.03822028 0.035562664 -0.10486592 -0.050730444 0.055111766
-0.017104298 0.0079661505 0.056757875 -0.09814196 -0.049547963 -0.059620544 -0.05622453 0.0574361
-0.060670324 0.010793729 -0.031930227 -0.0060034515 -0.07748801 -0.05056351 -0.032429244 0.033758752
-0.10098388 0.07241694 0.021114703 0.036418527 -0.053537995 0.0337562 0.024293274 -0.022798683
-0.024979088 -0.008852199 0.020348996 -0.10864519 -0.07081101 0.013839762 0.0023502412 -0.036951415
-0.03960116 -0.043221824 -0.004025698 -0.081768446 -0.07911312 0.06153953 -0.014152027 -0.04416172
0.029090313 -0.002807844 -0.015039207 -0.0854764 0.053253595 -0.033606716 -0.0870117 -0.018922407
-0.027567262 0.028180594 -0.06640959 -0.026497185 0.068202265 0.06691189 0.0102346875 -0.03216557
-0.01096132 -0.049652684 0.014765674 0.06308746 -0.01372097 0.031405713 -0.01887928 0.07815997
0.029757224 -0.038116522 0.034745723 -0.02745549 0.08206535 -0.07157981 0.03142526 -0.029529957
0.0022589657 0.07329176 0.042745344 -0.053563964 0.06797312 0.0073019415 0.06467246 0.0023450928
-0.014384287 -0.033784322 -0.032141197 -0.020207928 -0.021320151 0.085601546 -0.043560274 0.024974242
0.0049353326 -0.0024462135 0.061749063 -0.07284858 0.062138826 -0.085712895 0.0074545234 -0.057005297
0.010674269 -0.04749855 -0.031953465 -0.022505542 -0.05263605 0.07116769 0.023762573 -0.07914908
-0.015045065 -0.07795195 -0.051698986 0.017268913 -0.054497603 -0.0657278 0.06261522 -0.061561637
-0.03974824 -0.054699223 -0.039745543 0.048658725 0.0539577 -0.08816898 -0.085651256 -0.05432556
0.040885974 0.031385936 -0.0023759864 0.079981655 -0.026941992 0.0002766835 0.050409853 -0.051537134
-0.021674806 -0.078430966 0.044306748 0.062240988 -0.07695581 0.03498639 0.009116922 -0.0685424
-0.047350887 -0.049888857 -0.06553971 -0.0037160243 -0.050202005 0.07677488 0.07816837 -0.038177744
0.0876098 0.02344685 -0.05212835 -0.054863375 0.06662368 0.017497633 -0.042719517 -0.083481126
0.045581616 0.04217907 -0.00455619 0.07386416 0.019233566 0.0003296305 0.01762774 -0.01701402
00000000: 5564 a0bd 0e53 b3bd 3fe3 1fbd 182d dc3c
00000010: 267a 8e3c cc7b f63c b00b 9bbd 13ac f33c
00000020: a517 743d 4e76 08bd 2d15 eaba b74f 6dbd
00000030: 331d ca3b f990 cabd e42a a43b 1c25 9abd
00000040: 47f4 9c3d c83c 433a 07a0 a83c ae87 e8bd
00000050: 24fc a6ba b8fc 91bd 51dd acbd bc3c 33bc
00000060: cd9e 923c 4512 90bd 7ce3 213c 518e c0bd
00000070: 5c54 bebd 9652 1ebd 0341 393d bc18 123c
00000080: 80eb 92bd e491 833d 28db 70bd 4143 423d
00000090: 2bd4 693d 0a0e df3c ace3 4fbd 4328 323d
000000a0: 52f0 45bd d705 413d 4255 3cbd e656 d43c
000000b0: dff2 92bd 66ef 483d 0632 48bd 5b85 9c3d
000000c0: 8e10 9abc c4af c5bc e4c0 1d3d e5f0 aabd
000000d0: 38e5 873d cae4 333d b2ed a73c 8e59 c6bd
000000e0: a868 6d3d 5ebc 18bc 2945 afbc c3be 3fbd
000000f0: 46c6 30bd 8cad fbbc bff7 753d 44c8 c6bb
00000100: 2f0e b3bc 9556 133c 4829 823c 17a7 c3bc
00000110: 007c 67bd 0806 5bbd 9096 a1bc ca61 8fbd
00000120: 5a05 9cbd 2d00 58bd a995 803b 75cc 413d
00000130: 586c 063d 99cb 90bc 1a43 a13b d99d f8bc
00000140: 672c 03bd 7705 9dbd 0aee c23c fdde a43d
00000150: 792a 5a3d c79f 75bd 1c83 eabc 4ad0 cdbd
00000160: 724e b4bd 4caf b5bc aa94 713d de8c 1cbd
00000170: 28aa 113d f2c3 d6bd baca 4fbd e0bc 613d
00000180: 501e 8cbc 7584 023c f27a 683d a7fe c8bd
00000190: cef2 4abd ac34 74bd b14b 66bd 1e42 6b3d
000001a0: 7281 78bd 2ed8 303c 45c9 02bd 9ab8 c4bb
000001b0: 09b2 9ebd af1b 4fbd 87d4 04bd 9e46 0a3d
000001c0: a3d0 cebd 554f 943d bef8 ac3c 982b 153d
000001d0: a84a 5bbd f143 0a3d b002 c73c 4ec4 babc
000001e0: f2a0 ccbc d008 11bc f0b2 a63c 5f81 debd
000001f0: 5d05 91bd 2bc0 623c 8106 1a3b 5e5a 17bd
00000200: d334 22bd 5e09 31bd 01ea 83bb 3776 a7bd
00000210: 0f06 a2bd e010 7c3d e7dd 67bc ebe2 34bd
00000220: cf4e ee3c ce03 38bb 0267 76bc 400e afbd
00000230: 7120 5a3d 32a7 09bd 3133 b2bd 2a03 9bbc
00000240: bdd4 e1bc fdda e63c c001 88bd a010 d9bc
00000250: a1ad 8b3d 1a09 893d 64af 273c 0bc0 03bd
00000260: 1c97 33bc 9d60 4bbd baeb 713c 0034 813d
00000270: ebcd 60bc 47a3 003d b8a8 9abc 5612 a03d
00000280: 6cc5 f33c 1220 1cbd 8851 0e3d 56ea e0bc
00000290: e111 a83d 6f98 92bd c6b7 003d cfe8 f1bc
000002a0: 280b 143b fe19 963d be15 2f3d e365 5bbd
000002b0: 7e35 8b3d 2045 ef3b ff72 843d 21b0 193b
000002c0: 13ac 6bbc 6e61 0abd 7da6 03bd 198b a5bc
000002d0: 99a7 aebc dd4f af3d 426c 32bd c896 cc3c
000002e0: 92b8 a13b a750 20bb 96ec 7c3d a331 95bd
000002f0: 4885 7e3d 3e8a afbd 1345 f43b 637e 69bd
00000300: 21e3 2e3c d78d 42bd a3e1 02bd 8b5d b8bc
00000310: e698 57bd 5ec0 913d baa9 c23c ea18 a2bd
00000320: 947f 76bc 46a5 9fbd 51c2 53bd 8977 8d3c
00000330: e138 5fbd 4c9c 86bd 693c 803d 0e28 7cbd
00000340: 0dcf 22bd 4b0c 60bd 39cc 22bd 5f4e 473d
00000350: c002 5d3d f091 b4bd ed69 afbd 7a84 5ebd
00000360: 0d78 273d 8a8e 003d 70b6 1bbb 6ccd a33d
00000370: 74b5 dcbc d50f 9139 907a 4e3d 9a18 53bd
00000380: 5d8f b1bc 6aa0 a0bd fe7a 353d 68f0 7e3d
00000390: 029b 9dbd e44d 0f3d 245f 153c f55f 8cbd
000003a0: 01f3 41bd 4258 4cbd af39 86bd 8b88 73bb
000003b0: 9ea0 4dbd 263c 9d3d bd16 a03d 4460 1cbd
000003c0: c46c b33d 9c13 c03c 8984 55bd 6bb8 60bd
000003d0: ff71 883d 3257 8f3c a9fa 2ebd 27f8 aabd
000003e0: cab3 3a3d f6c3 2c3d 184c 95bb 1846 973d
000003f0: b68f 9d3c 42d2 ac39 0d68 903c fc60 8bbc

shared_layers.2.bias f4 [128]
0.041954868 0.08630895 -0.007948577 -0.043303367 -0.07816175 0.013958577 -0.085882895 -0.0652661
-0.09630286 0.020593943 -0.053062215 0.023473496 -0.07572547 -0.08934766 0.03905857 -0.068613745
0.05415217 -0.0585783 0.0483187 -0.018569406 0.08819607 0.07718458 -0.033439796 0.0063824668
-0.058723994 0.01812102 -0.085590824 0.01962194 -0.03625098 0.08236491 -0.029452544 0.015662085
0.0146515295 0.009025354 -0.046351545 0.07442259 -0.011349561 0.0075895027 0.066063404 0.11413152
-0.018560475 -0.0052202563 0.056425862 -0.009804689 -0.025918283 0.011764976 -0.09484004 0.06158228
0.005970215 0.041065235 0.033921078 0.019370405 -0.0013219394 -0.05046727 -0.034915805 -0.053070266
0.025082743 0.04776378 0.055187628 -0.007909916 0.030132893 -0.05835953 -0.087475404 0.08789988
0.035046473 -0.052720692 -0.06648514 0.021199986 -0.005067061 0.019516317 -0.056100354 -0.0665733
0.046572715 -0.032552052 0.08517018 -0.01968734 0.033507816 -0.008573199 -0.070993416 0.045267943
-0.01779671 -0.04233536 0.05403757 0.0002272187 0.068100594 -0.065694354 0.008703052 0.014393981
0.02446066 -0.039087143 0.038216393 -0.025803681 -0.082975924 -0.008466499 -0.08557005 -0.037864
0.0037124525 0.036978647 -0.054300237 -0.07378067 0.054486096 -0.05810222 0.06885124 -0.004172298
0.05915785 -0.043983597 0.017619047 0.05682833 0.084283285 0.06588204 -0.049463958 -0.0592664
0.024248295 0.039304823 -0.015993496 -0.069139235 0.08604201 0.09736368 -0.020292342 -0.007849515
0.033040553 -0.084620915 0.026013909 -0.027264131 -0.026335437 0.039123803 -0.010483491 -0.049217552
00000000: ded8 2b3d bfc2 b03d c03a 02bc df5e 31bd
00000010: 4513 a0bd 84b2 643c 5fe3 afbd 3caa 85bd
00000020: 6f3a c5bd a1b4 a83c c457 59bd 7d4b c03c
00000030: f515 9bbd e8fb b6bd e1fb 1f3d 5d85 8cbd
00000040: aace 5d3d cdef 6fbd d4e9 453d de1e 98bc
00000050: 24a0 b43d f312 9e3d 2bf8 08bd 0324 d13b
00000060: 9288 70bd 8972 943c 3e4a afbd 31be a03c
00000070: e87b 14bd efae a83d 7646 f1bc c64d 803c
00000080: f80c 703c 14df 133c 1edb 3dbd df6a 983d
00000090: 82f3 39bc 5db1 f83b 404c 873d c9bd e93d
000000a0: 230c 98bc af0e abbb ce1e 673d d9a3 20bc
000000b0: 9452 d4bc e3c1 403c 7f3b c2bd b33d 7c3d
000000c0: cba1 c33b 0534 283d d4f0 0a3d afae 9e3c
000000d0: ed44 adba c5b6 4ebd e003 0fbd 3560 59bd
000000e0: 537a cd3c f4a3 433d 6c0c 623d 9898 01bc
000000f0: 42d9 f63c 670a 6fbd 4e26 b3bd da04 b43d
00000100: e48c 0f3d a7f1 57bd 5c29 88bd 98ab ad3c
00000110: 9709 a6bb afe0 9f3c 7cc9 65bd 9557 88bd
00000120: 08c3 3e3d 4d55 05bd b46d ae3d 5847 a1bc
00000130: 7e3f 093d 9a76 0cbc ff64 91bd e16a 393d
00000140: 68ca 91bc d867 2dbd 8056 5d3d 8e41 6e39
00000150: 5378 8b3d c38a 86bd 3f97 0e3c bbd4 6b3c
00000160: b961 c83c d719 20bd cb88 1c3d 3e62 d3bc
00000170: 48ef a9bd 12b7 0abc 5a3f afbd 4817 1bbd
00000180: 9e4c 733b ec76 173d ed69 5ebd 521a 97bd
00000190: d02c 5f3d 98fc 6dbd e101 8d3d c6b7 88bb
000001a0: 804f 723d 2528 34bd d255 903c d3c4 683d
000001b0: b79c ac3d 2aed 863d b89a 4abd 53c1 72bd
000001c0: 5ca4 c63c 18fe 203d cb04 83bc df98 8dbd
000001d0: cb36 b03d 9c66 c73d 203c a6bc 419b 00bc
000001e0: 8855 073d bb4d adbd 1f1b d53c 0759 dfbc
000001f0: 6abd d7bc 4840 203d f3c2 2bbc 5898 49bd

shared_layers.5.weight f4 [128, 128]
0.033841874 0.052842874 0.016710365 0.048421346 0.085511975 -0.07133931 -0.025990812 0.03739303
0.06444373 -0.08990372 -0.048967887 0.035897374 -0.05574302 0.057492886 -0.022828316 0.04434175
0.07577039 -0.022881545 0.08737208 -0.07664836 0.06820454 0.06820707 0.041994046 0.07974617
-0.04697677 0.059346188 -0.06689259 -0.068550356 0.060318228 0.04324034 0.012332295 -0.06646022
0.037528433 -0.083389565 -0.041439656 -0.07621662 0.015957067 -0.056998584 0.04052079 -0.1299393
0.05798755 0.059545744 -0.022826554 0.05054554 0.07597986 -0.057657268 0.03506579 0.057993382
0.04136421 -0.04303625 0.021757904 -0.03778148 0.052194458 -0.036364827 0.0008584028 0.047320627
-0.0032631494 -0.08635027 -0.037503697 0.04023712 -0.057463605 -0.023729939 0.06594424 -0.02365821
0.053414416 0.06185543 -0.105684295 0.05455425 0.06577621 -0.0079814 -0.024141714 0.072275974
0.06166141 -0.056496244 -0.0044628046 0.059191793 0.030280346 0.021688797 -0.022757556 -0.025534933
0.062181704 0.027019206 0.028017301 0.07918337 -0.10588262 0.0699798 -0.060739435 0.0034786006
-0.013341796 -0.073990256 -0.071119644 0.071341746 0.057430375 0.03943214 0.018139467 -0.053999674
0.080778055 -0.048704784 -0.060053475 -0.012830381 0.04578901 0.010380337 -0.01494164 0.021970464
0.053534597 -0.013670929 0.068339504 -0.01200974 -0.022877075 -0.045306187 -0.0136223715 -0.046665445
-0.034831896 -0.074740164 0.08554856 -0.018482188 -0.048220634 -0.029893216 -0.111899905 0.06337319
0.035501227 0.00038880226 0.030177122 0.063500635 -0.042186256 -0.06295729 -0.049583692 -0.035607554
-0.032586258 0.018163543 0.014986439 0.035612326 -0.033357132 -0.017976772 0.05095911 0.04881728
0.027739158 -0.022509523 0.05628287 -0.059757646 0.073182136 0.019446429 -0.06651678 0.047424655
0.0287624 0.07039828 -0.06871228 0.044803068 0.072259106 0.028642679 0.0021696775 0.039725795
0.037203886 -0.037220508 0.0752572 -0.03663779 -0.056980766 -0.07751633 -0.071892306 -0.08526161
0.024937099 -0.039579522 -0.02035089 0.02815832 -0.030908339 0.07544315 0.04921577 -0.05754963
-0.012166249 -0.055444352 0.08269446 0.035032723 -0.0463112 -0.02552529 -0.078131005 -0.04150494
-0.009502397 -0.078837834 -0.03421614 -0.034325235 0.065265976 -0.072599106 0.05439292 -0.08785942
0.057246167 0.014223135 -0.09893346 0.06610079 -0.08911552 -0.07601814 -0.06196507 -0.09036846
-0.049449433 0.03215619 0.01623122 0.032662533 0.063240916 -0.0973095 -0.075818755 0.054412138
-0.053973455 -0.05403823 -0.03683297 -0.061010227 -0.05895628 0.015345309 -0.07719319 -0.0930052
-0.06717026 -0.051277224 -0.04481329 -0.055543687 0.04749206 0.032758154 0.050732233 -0.042588945
0.024871498 0.02127215 0.060475007 -0.04797368 -0.06772865 0.04697046 -0.04420839 0.053245958
0.0489248 -0.057504073 -0.08531163 -0.012155572 0.022940809 0.004561722 0.04047842 -0.091784
-0.03030962 -0.0021560008 0.056495678 -0.09959189 -0.075651176 0.0029436725 0.024847558 0.07528461
-0.011590193 -0.05272025 -0.027155867 -0.029117653 -0.03569067 0.022368027 0.042292856 -0.04385745
-0.016500322 0.037653245 -0.07985238 -0.11315481 0.007219397 0.053758558 0.053166363 -0.034315467
00000000: c79d 0a3d c571 583d 2de4 883c 7655 463d
00000010: e720 af3d 581a 92bd afea d4bc 6f29 193d
00000020: 13fb 833d 711f b8bd 8d92 48bd 2009 133d
00000030: cb52 64bd a97d 6b3d 7302 bbbc b29f 353d
00000040: 822d 9b3d 1472 bbbc 22f0 b23d d1f9 9cbd
00000050: d2ae 8b3d 26b0 8b3d f301 2c3d f651 a33d
00000060: b76a 40bd fd14 733d fbfe 88bd 2164 8cbd
00000070: 3f10 773d c81c 313d 650d 4a3c 4c1c 88bd
00000080: 6ab7 193d 26c8 aabd a1bc 29bd 7617 9cbd
00000090: 65b8 823c 5977 69bd 21f9 253d cf0e 05be
000000a0: 5a84 6d3d 3de6 733d c1fe babc d708 4f3d
000000b0: 549b 9b3d 072a 6cbd 25a1 0f3d 788a 6d3d
000000c0: 856d 293d c746 30bd a23d b23c c1c0 1abd
000000d0: dbc9 553d 49f3 14bd 7006 613a 46d3 413d
000000e0: 90da 55bb 69d8 b0bd 7a9d 19bd aecf 243d
000000f0: f55e 6bbd 4a65 c2bc c60d 873d ddce c1bc
00000100: 13c9 5a3d 1f5c 7d3d 0271 d8bd 4774 5f3d
00000110: adb5 863d 6bc4 02bc d8c4 c5bc 6d05 943d
00000120: ad90 7c3d 9b68 67bd b83c 92bb 1873 723d
00000130: 7d0e f83c b4ac b13c 0e6e babc a32e d1bc
00000140: 3eb2 7e3d 6257 dd3c 8a84 e53c e42a a23d
00000150: fdd8 d8bd 9251 8f3d eac9 78bd 3cf9 633b
00000160: 8c97 5abc 3488 97bd 2da7 91bd 9f1b 923d
00000170: 1d3c 6b3d 9883 213d 3899 943c c32e 5dbd
00000180: f76e a53d ab7e 47bd a2fa 75bd 8536 52bc
00000190: 428d 3b3d 4a12 2a3c c8cd 74bc 67fb b33c
000001a0: 1847 5b3d 08fc 5fbc 95f5 8b3d 80c4 44bc
000001b0: b468 bbbc fb92 39bd 5e30 5fbc 4424 3fbd
000001c0: e4ab 0ebd 5f11 99bd 1534 af3d f567 97bc
000001d0: 0083 45bd 9ee2 f4bc c72b e5bd cec9 813d
000001e0: bc69 113d 28d8 cb39 0336 f73c 9f0c 823d
000001f0: 7fcb 2cbd c0ef 80bd 4518 4bbd 3ad9 11bd
00000200: 2b79 05bd b6cb 943c ae89 753c 3bde 113d
00000210: 7da1 08bd 0644 93bc 80ba 503d a1f4 473d
00000220: 3b3d e33c e465 b8bc de88 663d 6fc4 74bd
00000230: 84e0 953d 1e4e 9f3c f339 88bd 5b40 423d
00000240: 209f eb3c f92c 903d 06b9 8cbd 6c83 373d
00000250: 95fc 933d 0da4 ea3c 2631 0e3b 84b7 223d
00000260: 1a63 183d 8874 18bd 7220 9a3d 8211 16bd
00000270: aa64 69bd e2c0 9ebd 463c 93bd a49d aebd
00000280: e348 cc3c 231e 22bd e9b6 a6bc 47ac e63c
00000290: 7c33 fdbc f081 9a3d 7a96 493d 29b9 6bbd
000002a0: f254 47bc 9e19 63bd b75b a93d 797e 0f3d
000002b0: d0b0 3dbd 6a1a d1bc 2603 a0bd 1501 2abd
000002c0: f1af 1bbc bb75 a1bd 3926 0cbd 9e98 0cbd
000002d0: 2baa 853d d7ae 94bd 1ccb 5e3d a4ef b3bd
000002e0: f57a 6a3d 2708 693c a09d cabd da5f 873d
000002f0: 3382 b6bd 66af 9bbd 16cf 7dbd 1913 b9bd
00000300: 7d8b 4abd 36b6 033d 56f7 843c 26c9 053d
00000310: 7484 813d 344a c7bd dd46 9bbd 43df 5e3d
00000320: 4513 5dbd 3157 5dbd 2bde 16bd dce5 79bd
00000330: 247c 71bd e46a 7b3c 7717 9ebd 8379 bebd
00000340: 9090 89bd 1108 52bd 248e 37bd c781 63bd
00000350: 0987 423d 6a2d 063d 9acc 4f3d bf71 2ebd
00000360: 50bf cb3c ef42 ae3c a4b4 773d 0d80 44bd
00000370: 52b5 8abd 1964 403d db13 35bd 6f18 5a3d
00000380: 5f65 483d 6489 6bbd ddb7 aebd 2a28 47bc
00000390: 5dee bb3c 7f7a 953b b3cc 253d 40f9 bbbd
000003a0: e14b f8bc b14b 0dbb 0368 673d d5f6 cbbd
000003b0: 01ef 9abd a1ea 403b 1b8d cb3c d12e 9a3d
000003c0: cbe4 3dbc 30f1 57bd fb75 debc 2588 eebc
000003d0: 6130 12bd 273d b73c 463b 2d3d dfa3 33bd
000003e0: af2b 87bc 4a3a 1a3d a589 a3bd b6bd e7bd
000003f0: b190 ec3b ef31 5c3d f9c4 593d 608e 0cbd

shared_layers.5.bias f4 [128]
-0.007765779 -0.043298572 -0.012387304 -0.030208055 -0.079411305 0.07722371 -0.061238263 0.15675928
-0.018948002 0.06614572 -0.06801482 -0.024185095 -0.0019322119 -0.015564721 0.00576591 -0.032350376
-0.09499319 0.173582 -0.06332785 -0.04109425 -0.03555915 0.14068979 -0.02338572 -0.02900284
0.09537526 0.07764577 -0.025255982 -0.102915384 0.044849418 0.0205032 -0.041517187 0.10599058
0.030826002 0.03390433 -0.11277617 -0.015533506 0.0003354536 0.11926109 0.040824153 -0.018153768
0.09776013 -0.026774291 -0.045920696 -0.04266811 -0.086970784 -0.053148296 -0.07317324 0.18483385
-0.004147956 -0.035510734 0.1481514 -0.10286821 -0.08463725 -0.04850724 -0.021491902 0.10994672
0.04123911 -0.10471427 -0.04379061 0.008967877 0.1422235 -0.10033265 -0.060963195 -0.07582905
-0.022332616 0.14084768 0.0036743328 -0.020395912 -0.009034844 -0.019693995 0.061328653 -0.06453871
0.07523779 0.033807117 -0.09664947 0.10783788 0.1322047 -0.009272891 -0.0072453325 0.030682445
0.087014705 -0.111902386 0.07682587 0.07607108 -0.029421309 0.1369734 0.09711597 0.15197465
0.16711314 0.083763205 0.14799693 0.09282382 -0.072121285 0.14225818 -0.07000294 -0.048749257
-0.047465365 0.07229825 0.10148949 0.14643745 0.1592465 -0.113458894 -0.114662305 0.00045290746
-0.024329802 0.11565257 0.06566419 0.190173 -0.032322124 -0.03596017 0.1117149 0.13293885
0.15047635 -0.0023426511 -0.014157098 -0.024103634 0.10268602 0.0021565754 -0.11259647 -0.0373878
-0.09180662 0.13759951 0.024935072 0.022775358 0.027541246 0.014591575 -0.104571946 0.106202245
00000000: 1378 febb d859 31bd 1ef4 4abc e276 f7bc
00000010: 65a2 a2bd 7727 9e3d f9d4 7abd 8185 203e
00000020: d738 9bbc 6877 873d 5b4b 8bbd d21f c6bc
00000030: 4642 fdba 2c03 7fbc f5ef bc3b d481 04bd
00000040: ca8b c2bd 7bbf 313e 08b2 81bd 7252 28bd
00000050: 79a6 11bd fc10 103e 6993 bfbc 5d97 edbc
00000060: 1b54 c33d bf04 9f3d a2e5 cebc 4dc5 d2bd
00000070: 06b4 373d 54f6 a73c ed0d 2abd 9711 d93d
00000080: d086 fc3c 44df 0a3d 31f7 e6bd 3f80 7ebc
00000090: d2df af39 293f f43d 3a37 273d 36b7 94bc
000000a0: 7736 c83d c255 dbbc 5717 3cbd c2c4 2ebd
000000b0: bd1d b2bd 07b2 59bd dadb 95bd 1645 3d3e
000000c0: 94eb 87bb b473 11bd 00b5 173e 91ac d2bd
000000d0: 4b56 adbd 87af 46bd c90f b0bc bf2b e13d
000000e0: 57ea 283d 6f74 d6bd c85d 33bd 01ee 123c
000000f0: 0aa3 113e 347b cdbd 8bb4 79bd 434c 9bbd
00000100: e4f2 b6bc 603a 103e 13cd 703b 5415 a7bc
00000110: e206 14bc 4d55 a1bc c133 7b3d df2c 84bd
00000120: 4516 9a3d 5579 0a3d 28f0 c5bd 1bda dc3d
00000130: ab60 073e 53ed 17bc 416a edbb c059 fb3c
00000140: c434 b23d 142d e5bd e256 9d3d 28cb 9b3d
00000150: f504 f1bc c142 0c3e bde4 c63d 3e9f 1b3e
00000160: b51f 2b3e 0b8c ab3d 828c 173e 6a1a be3d
00000170: 53b4 93bd 21ac 113e b45d 8fbd 4dad 47bd
00000180: 0b6b 42bd 1b11 943d b9d9 cf3d b3f3 153e
00000190: 8411 233e 235d e8bd 12d4 eabd 3674 ed39
000001a0: 4b4f c7bc 41db ec3d f27a 863d b6bc 423e
000001b0: 3464 04bd f94a 13bd c8ca e43d 1f21 083e
000001c0: 7916 1a3e 2a87 19bb 2cf3 67bc fc74 c5bc
000001d0: 0c4d d23d 5555 0d3b fa98 e6bd f323 19bd
000001e0: 1c05 bcbd e3e6 0c3e a344 cc3c 6393 ba3c
000001f0: 2e9e e13c 8011 6f3c d129 d6bd 9080 d93d

actor_head.0.weight f4 [128, 128]
-0.08721284 0.010536204 -0.022693455 0.031128056 -0.0046074362 -0.043131497 0.026857637 0.14129591
-0.043970685 0.075880006 0.05210647 -0.030638259 0.08625042 -0.07164039 0.011123072 -0.08545751
-0.07378264 0.057252042 0.01905634 0.0598874 -0.062524855 0.11555925 0.0008365084 -0.025419213
0.10091978 -0.053707194 -0.024991881 0.006772154 0.029562943 0.08137752 -0.078481324 0.1304046
0.097030595 -0.027828231 0.021498272 -0.041350413 0.04658651 0.15098263 -0.122306205 -0.14200991
0.012914488 -0.042957447 -0.048933525 0.10581652 -0.00502339 0.002580746 0.027447917 0.037170775
-0.01079604 0.06373166 0.11780938 0.07034792 -0.05882106 -0.012111749 0.0420716 -0.0020343612
0.014519755 0.013705108 -0.016991394 -0.07135124 0.049491618 -0.054022197 -0.107637145 0.07190351
-0.0105227055 0.04979001 0.0814655 0.049532123 0.034325216 -0.06065772 0.008698693 -0.049211014
0.039843347 0.05522984 -0.037166312 0.0878287 0.0553915 -0.15677074 0.04634749 -0.045777865
-0.059548497 0.019196354 0.051175386 -0.015310219 0.0048669404 -0.0037063041 -0.0035916823 -0.010360617
0.038817696 -0.026873894 0.0605243 0.033432283 -0.11994717 0.099445246 -0.039732073 -0.06989967
0.05763909 -0.014764989 0.10754401 0.13035108 0.071499236 0.042652167 0.022568012 -0.046087243
0.06443444 0.086114734 0.013289197 0.16332147 -0.11853079 0.055298794 0.067134775 0.043042663
-0.030333603 0.04379683 -0.066197194 -0.0073026177 0.079934336 -0.08035608 -0.0059333676 0.014948567
0.048603293 0.09697283 0.10502276 0.0853712 0.09430933 -0.08268107 -0.0662287 -0.0034338797
-0.017138155 0.079619676 0.03418016 -0.07624298 -0.012329982 0.026382536 0.036834944 -0.010779687
0.035483003 0.053298127 0.07561642 0.013659047 -0.03244688 -0.098677285 0.082416356 -0.0003420787
0.04576413 -0.03818441 -0.046085496 0.07186706 0.05617165 0.01996046 -0.012313344 0.051383115
-0.01599117 -0.058689333 -0.052647024 0.038778596 -0.0334643 0.024922308 0.06674608 0.061094698
0.06894947 -0.03536875 -0.054083332 -0.015262689 -0.08069654 0.05486812 -0.039720867 -0.046266634
-0.06174883 -0.028577117 -0.00023999246 0.008822007 -0.06043762 0.016661037 -0.08605541 0.03894378
0.082330145 -0.0028928567 0.025435865 -0.001458007 0.008524832 0.076073445 0.057666242 0.012589028
-0.022226535 -0.040384233 -0.021797772 -0.044754095 -0.03792426 -0.0127609335 -0.048446592 -0.04527069
-0.08254364 0.04925899 -0.047493372 -0.09030695 -0.08637762 -0.025287203 -0.0682788 -0.03893805
0.0030883246 -0.08872387 -0.006139055 -0.009247751 0.024231818 0.012418731 -0.07570482 0.06851536
-0.06291389 -0.08845534 -0.038732216 0.048232444 -0.065126546 -0.015575082 0.0027291945 0.06329238
-0.08289315 -0.07304188 -0.04758618 -0.070421614 -0.009507835 0.021511149 0.0034315686 -0.05901693
-0.042129785 -0.037719745 -0.009020557 -0.07559714 -0.05149375 -0.04308719 0.050472047 -0.018544892
-0.055299312 0.028035944 -0.026688261 0.034246713 -0.030883435 0.03177337 0.060889903 -0.08994106
-0.018314546 -0.032883458 -0.041795637 -0.011737757 0.054725263 -0.08525744 0.055697296 0.074104466
0.020587998 0.02392238 0.02047191 0.041514967 -0.07771116 -0.10158461 -0.07712102 0.060410514
00000000: a59c b2bd 0ba0 2c3c a0e7 b9bc 4400 ff3c
00000010: faf9 96bb a7aa 30bd 8c04 dc3c e0af 103e
00000020: 9b1a 34bd fa66 9b3d 986d 553d 16fd fabc
00000030: 0fa4 b03d 32b8 92bd 8c3d 363c 5904 afbd
00000040: 5a1b 97bd 1e81 6a3d 0b1c 9c3c 7e4c 753d
00000050: 080d 80bd 54aa ec3d 2149 5b3a f43b d0bc
00000060: 08af ce3d 13fc 5bbd c6bb ccbc f2e8 dd3b
00000070: fc2d f23c 42a9 a63d d1ba a0bd c988 053e
00000080: fab7 c63d 08f8 e3bc 251d b03c 0d5f 29bd
00000090: 7fd1 3e3d 319b 1a3e ad7b fabd 0c6b 11be
000000a0: 4a97 533c 26f4 2fbd 856e 48bd 55b6 d83d
000000b0: 409b a4bb bc21 293b 74da e03c 6240 183d
000000c0: e0e1 30bc bf85 823d 0b46 f13d 9212 903d
000000d0: 5aee 70bd 5b70 46bc 4553 2c3d eb52 05bb
000000e0: 44e4 6d3c 648b 603c 8931 8bbc 9920 92bd
000000f0: b9b7 4a3d 6146 5dbd dd70 dcbd 2642 933d
00000100: 6d67 2cbc 9cf0 4b3d 62d7 a63d 32e2 4a3d
00000110: 9998 0c3d 3b74 78bd f684 0e3c 7d91 49bd
00000120: c732 233d af38 623d b43b 18bd 89df b33d
00000130: 33e2 623d 8288 20be ded6 3d3d 9281 3bbd
00000140: 20e9 73bd ac41 9d3c 489d 513d b6d7 7abc
00000150: db7a 9f3b 77e5 72bb 6e62 6bbb 94bf 29bc
00000160: 4eff 1e3d a426 dcbc 54e8 773d 4af0 083d
00000170: dda6 f5bd f3a9 cb3d 19be 22bd 8f27 8fbd
00000180: f716 6c3d dae8 71bc 0940 dc3d c17a 053e
00000190: 316e 923d 0ab4 2e3d 8de0 b83c fac5 3cbd
000001a0: 34f6 833d ec5c b03d efba 593c be3d 273e
000001b0: 45c0 f2bd fd80 623d f57d 893d 814d 303d
000001c0: 2d7e f8bc 4e64 333d 6592 87bd cc4a efbb
000001d0: 9db4 a33d ba91 a4bd b26c c2bb d6ea 743c
000001e0: 3f14 473d b199 c63d 2c16 d73d 19d7 ae3d
000001f0: 4025 c13d b154 a9bd eaa2 87bd f10a 61bb
00000200: 5165 8cbc a40f a33d 7f00 0c3d 4825 9cbd
00000210: b103 4abc 3020 d83c 3de0 163d 499d 30bc
00000220: a056 113d 234f 5a3d c8dc 9a3d 32ca 5f3c
00000230: 05e7 04bd 5117 cabd e8c9 a83d 0759 b3b9
00000240: 2b73 3b3d 4267 1cbd 25c4 3cbd 0a2f 933d
00000250: 3e14 663d 1e84 a33c e8bd 49bc 1a77 523d
00000260: eaff 82bc 3a64 70bd 68a4 57bd 4ed6 1e3d
00000270: dd11 09bd de29 cc3c 2bb2 883d 6f3e 7a3d
00000280: 6135 8d3d d3de 10bd 7c86 5dbd 5c10 7abc
00000290: 3a44 a5bd 65bd 603d 59b2 22bd 1582 3dbd
000002a0: 57ec 7cbd 8f1a eabc 7ca6 7bb9 2e8a 103c
000002b0: 708d 77bd ba7c 883c d23d b0bd 8383 1f3d
000002c0: b59c a83d 1596 3dbb e05e d03c 991a bfba
000002d0: bdab 0b3c 65cc 9b3d 7033 6c3d 3642 4e3c
000002e0: 6c14 b6bc f069 25bd 3e91 b2bc 1250 37bd
000002f0: 7856 1bbd 3c13 51bc ef6f 46bd c26d 39bd
00000300: a40c a9bd cbc3 493d 6988 42bd daf2 b8bd
00000310: c0e6 b0bd 1c27 cfbc c1d5 8bbd 817d 1fbd
00000320: 7d65 4a3b dcb4 b5bd 202a c9bb e183 17bc
00000330: ce81 c63c ef77 4b3c 210b 9bbd c851 8c3d
00000340: ffd8 80bd 1328 b5bd aca5 1ebd 628f 453d
00000350: 1161 85bd a12e 7fbc 49dc 323b 6f9f 813d
00000360: e2c3 a9bd fb96 95bd bae9 42bd 3539 90bd
00000370: c0c6 1bbc 2638 b03c 2be4 603b bdbb 71bd
00000380: 4890 2cbd 0580 1abd f5ca 13bc acd2 9abd
00000390: 1ceb 52bd 317c 30bd c7bb 4e3d 75eb 97bc
000003a0: 8881 62bd a3ab e53c 57a1 dabc 4846 0c3d
000003b0: 42ff fcbc cb24 023d b167 793d 0533 b8bd
000003c0: 6308 96bc ceb0 06bd e731 2bbd b94f 40bc
000003d0: 9927 603d 749b aebd d922 643d 15c4 973d
000003e0: 29a8 a83c def8 c33c b5b4 a73c 990b 2a3d
000003f0: 0727 9fbd 980b d0bd a0f1 9dbd 0471 773d

actor_head.0.bias f4 [128]
0.20318608 -0.060655933 0.010626538 -0.07413197 0.11131326 -0.044163615 0.088100396 -0.09967408
0.03299827 0.018708562 0.23818977 -0.045352332 -0.091888726 0.11162572 -0.089021854 0.0434872
-0.043072574 0.27106625 0.027508998 0.061557617 0.094590254 0.0543074 -0.011472133 0.024086058
0.07523048 -0.068371296 -0.042437717 0.2153584 -0.009743924 0.09961318 -0.049834363 -0.039538093
0.11141507 0.11305354 -0.02570541 0.20886585 -0.006465033 -0.039637562 0.14261182 0.021787167
0.048613448 0.23135647 0.09493497 0.18600212 0.16296948 -0.018004935 0.20461263 -0.054234207
-0.010048446 -0.026889704 0.18410242 0.14883095 -0.013998494 0.11502953 0.07820978 0.03810803
-0.03794348 0.11830381 -0.07212973 0.072777286 0.099464454 -0.00568351 0.04050627 -0.036788773
-0.042492334 0.08942602 -0.06111772 0.083154894 0.11914679 0.010848817 0.16127883 0.09064065
0.041417003 -0.06281892 -0.0096067395 -0.060593884 -0.11334031 -0.10335327 0.27804416 0.18595897
0.05755822 -0.0406366 -0.006893326 0.22899503 -0.03996263 -0.032039896 -0.008250518 0.21277243
-0.014562835 -0.097055174 -0.03493511 0.09988464 0.026548337 0.025738591 0.20808963 -0.106249854
0.034091253 -0.058361627 0.219701 -0.07686645 0.06806511 0.0070626177 -0.05471438 0.18666342
-0.08963654 -0.0078452565 0.07335857 -0.06389044 -0.09073591 -0.082059674 -0.035517793 0.11262415
-0.07591679 0.2701515 -0.024915438 -0.010248109 -0.105795786 -0.012982939 -0.041603923 -0.10461186
0.017618412 -0.09282348 0.068746306 0.11238752 0.090627015 0.29222307 0.021718213 0.044482946
00000000: 0310 503e 5b72 78bd ee1a 2e3c 81d2 97bd
00000010: 35f8 e33d e8e4 34bd fb6d b43d ed21 ccbd
00000020: 3229 073d b342 993c 05e8 733e 5ec3 39bd
00000030: 2830 bcbd 079c e43d 1751 b6bd a21f 323d
00000040: de6c 30bd 32c9 8a3e 8d5a e13c d723 7c3d
00000050: 89b8 c13d 7071 5e3d 9df5 3bbc 2050 c53c
00000060: 7012 9a3d 4006 8cbd 2cd3 2dbd ea86 5c3e
00000070: fba4 1fbc ff01 cc3d 1e1f 4cbd b2f2 21bd
00000080: 962d e43d 9d88 e73d 2794 d2bc eee0 553e
00000090: a1d8 d3bb ff5a 22bd d508 123e 007b b23c
000000a0: e51e 473d b6e8 6c3e 446d c23d 5777 3e3e
000000b0: 79e1 263e 167f 93bc f985 513e b024 5ebd
000000c0: 3da2 24bc cc47 dcbc 5885 3c3e 2467 183e
000000d0: f059 65bc 9a94 eb3d 732c a03d 2a17 1c3d
000000e0: 9f6a 1bbd 4549 f23d c0b8 93bd 420c 953d
000000f0: 05b4 cb3d bd3c babb e7e9 253d d3af 16bd
00000100: 710c 2ebd fd24 b73d 9356 7abd 1d4d aa3d
00000110: 3b03 f43d 3dbf 313c 4726 253e cea1 b93d
00000120: e0a4 293d 35a7 80bd 9665 1dbc 4b31 78bd
00000130: f71e e8bd e1aa d3bd ce5b 8e3e 076c 3e3e
00000140: 2bc2 6b3d 9072 26bd 69e1 e1bb ac7d 6a3e
00000150: dbaf 23bd 443c 03bd 2e2d 07bc 04e1 593e
00000160: f598 6ebc ddc4 c6bd 1e18 0fbd 5190 cc3d
00000170: e67b d93c bdd9 d23c 7315 553e 8699 d9bd
00000180: 45a3 0b3d 9a0c 6fbd 4df9 603e 286c 9dbd
00000190: b865 8b3d 886d e73b 301c 60bd b224 3f3e
000001a0: 5d93 b7bd 6489 00bc 053d 963d fed8 82bd
000001b0: c0d3 b9bd e70e a8bd 1b7b 11bd 7ea7 e63d
000001c0: 437a 9bbd 4c51 8a3e 761b ccbc afe7 27bc
000001d0: 76ab d8bd 65b6 54bc e068 2abd be3e d6bd
000001e0: 7d54 903c 3d1a bebd ddca 8c3d 6e2b e63d
000001f0: a89a b93d 439e 953e 65ea b13c c033 363d

actor_head.2.weight f4 [4, 128]
0.10587924 0.018599914 -0.054070476 0.02310256 0.054056194 -0.034905724 -0.008318901 -0.007980651
-0.053404644 -0.07037989 0.025313906 -0.022755641 -0.009444615 0.07297374 0.038421214 0.025481801
-0.037592955 0.058153037 0.038655356 0.024482407 -0.040659785 0.015966654 0.04586812 -0.07339221
-0.038395975 -0.04455933 -0.0611023 0.1214244 -0.06816201 0.07459263 0.030359747 -0.0750929
0.098932855 0.10095927 -0.014648037 0.07594311 0.072742425 -0.088642426 0.0297658 0.030771988
0.019297868 0.15759939 -0.0045563094 0.039088454 0.08744805 0.07196206 0.092390426 -0.06744557
0.022253592 0.026730113 0.055969857 0.09805421 0.05797505 0.06795259 -0.037281144 -0.058024015
-0.023065453 0.0427222 -0.061778862 -0.024125911 0.0844456 -0.09658661 -0.2012344 0.06466443
-0.048227485 0.04845312 0.038491644 -0.08879049 0.07405015 -0.0893644 0.018883374 -0.013067588
-0.06324986 0.07127175 -0.017132312 -0.0723899 0.061630674 0.019746808 0.117312975 0.13312085
-0.091452934 -0.08773875 -0.04816825 0.09559645 -0.07952488 0.06576814 -0.021979058 0.121161684
0.034512516 0.062131524 -0.03152237 -0.102825455 -0.0014879582 0.046451144 0.049101707 -0.020934163
0.059100565 0.0061350246 0.1506258 -0.01866081 -0.021988072 -0.09080208 0.017479653 0.108565815
0.0033770015 -0.071121894 0.046777464 0.0041406713 -0.038714834 -0.02549477 0.044957325 0.014664842
-0.012439042 0.06455166 -0.022636762 -0.01608989 0.048868064 0.09436722 0.03124927 0.00792001
0.0006706874 -0.005466492 -0.020501325 0.072969064 0.08358509 0.101170056 0.02531775 -0.03269645
0.108223885 0.06901094 -0.08266639 0.013728726 0.050960194 -0.051814437 0.13087273 0.037907653
0.093536615 -0.04436269 0.03222888 -0.06456118 -0.022535795 0.08361272 0.015580188 -0.04265933
-0.057251506 0.03953609 -0.06557522 0.1684214 0.051323645 0.12529208 0.04888602 0.034890514
0.08422987 -0.0039804596 -0.060441583 -0.0033838223 -0.05310769 0.051276024 0.032557473 -0.023482835
0.06064045 -0.046039235 -0.0047800723 0.08833243 0.053607915 0.0137004135 0.03285712 0.07952828
0.06044674 0.012381775 -0.067260675 0.06149741 0.12748367 -0.020419095 0.08672198 0.07217014
-0.022913566 -0.046971455 -0.08251539 0.14259486 -0.05786029 0.11052589 0.1226185 0.121796064
0.0754244 -0.06831883 -0.055436805 0.06929139 0.12715378 -0.008474028 0.03435174 0.018346697
-0.017397948 0.08102418 0.032622743 0.111957714 0.12547904 -0.00013791346 0.024342643 0.12287425
0.047379494 0.032133885 0.044067074 -0.038269218 0.06605858 -0.053473268 0.08080371 -0.034711603
0.15701559 -0.06535294 -0.048386768 0.11375009 -0.031678308 0.04205016 0.0015714181 0.1309303
-0.062541276 0.048309136 0.02244523 0.123282306 0.026401797 0.06344241 0.058995515 -0.024703616
-0.09172789 -0.010453311 -0.023338312 -0.096793115 0.067384705 0.10789585 -0.025614368 0.120823525
-0.006096181 0.10674738 -0.021228403 -0.00376944 0.06705528 0.057986174 0.050805066 0.00886254
-0.0027378974 0.08445597 -0.05826474 -0.027955264 0.020169575 0.02594802 0.0184502 -0.1100007
0.044083536 0.0043917242 0.12322327 0.008782417 0.08980324 0.08086152 -0.054128412 0.043403946
00000000: 37d7 d83d d95e 983c 0179 5dbd 9441 bd3c
00000010: 076a 5d3d 4ef9 0ebd 004c 08bc 47c1 02bc
00000020: d4be 5abd 5523 90bd 1c5f cf3c 0a6a babc
00000030: 96bd 1abc 4273 953d 905f 1d3d 36bf d03c
00000040: 12fb 19bd e131 6e3d 1455 1e3d 548f c83c
00000050: e08a 26bd 80cc 823c 36e0 3b3d a84e 96bd
00000060: 1945 1dbd d883 36bd 6846 7abd 5bad f83d
00000070: 8698 8bbd 05c4 983d 01b5 f83c 4eca 99bd
00000080: 4f9d ca3d bcc3 ce3d 52fe 6fbc 1088 9b3d
00000090: fbf9 943d 298a b5bd 68d7 f33c 8915 fc3c
000000a0: 9016 9e3c bc61 213e 184d 95bb 371b 203d
000000b0: f717 b33d d860 933d 3137 bd3d e720 8abd
000000c0: 2a4d b63c 1cf9 da3c a640 653d a5d0 c83d
000000d0: 3f77 6d3d ba2a 8b3d 1db4 18bd 97aa 6dbd
000000e0: c3f3 bcbc 79fd 2e3d d50b 7dbd b4a3 c5bc
000000f0: d1f1 ac3d 33cf c5bd 6410 4ebe c96e 843d
00000100: 2f8a 45bd c776 463d 6aa9 1d3d cad7 b5bd
00000110: 9ba7 973d af04 b7bd 4eb1 9a3c 7019 56bc
00000120: 2589 81bd ecf6 913d 1059 8cbc 2841 94bd
00000130: 7270 7c3d 0fc4 a13c c941 f03d d550 083e
00000140: ad4b bbbd 60b0 b3bd 124c 45bd 12c8 c33d
00000150: f1dd a2bd 72b1 863d 6d0d b4bc 9e23 f83d
00000160: ff5c 0d3d a07d 7e3d 9a1d 01bd 2796 d2bd
00000170: 9807 c3ba 8e43 3e3d df1e 493d 1f7e abbc
00000180: 6f13 723d 5108 c93b a63d 1a3e 8ede 98bc
00000190: 5420 b4bc 71f6 b9bd 7d31 8f3c c157 de3d
000001a0: af50 5d3b 5ba8 91bd ba99 3f3d 78ae 873b
000001b0: 7293 1ebd 68da d0bc 2c25 383d ce44 703c
000001c0: 20cd 4bbc a933 843d bb70 b9bc f2ce 83bc
000001d0: e129 483d 9a43 c13d 78fe ff3c eec2 013c
000001e0: 12d1 2f3a 4220 b3bb 65f2 a7bc ce70 953d
000001f0: a92e ab3d 3f32 cf3d 2c67 cf3c b6ec 05bd
00000200: 7ca4 dd3d 9c55 8d3d ff4c a9bd 73ee 603c
00000210: a3bb 503d 603b 54bd 8003 063e 0e45 1b3d
00000220: 2090 bf3d a7b5 35bd 6e02 043d a738 84bd
00000230: fd9c b8bc 253d ab3d 0b44 7f3c 8dbb 2ebd
00000240: 8e80 6abd 98f0 213d 4d4c 86bd a976 2c3e
00000250: be38 523d 914c 003e b53c 483d 5be9 0e3d
00000260: b680 ac3d 846e 82bb 9891 77bd 1ec3 5dbb
00000270: 7387 59bd cf06 523d fc5a 053d 135f c0bc
00000280: 1f62 783d a393 3cbd 27a2 9cbb a2e7 b43d
00000290: f993 5b3d b377 603c 3095 063d b9df a23d
000002a0: 0097 773d eedc 4a3c f7bf 89bd b5e4 7b3d
000002b0: 148b 023e f245 a7bc 4b9b b13d f0cd 933d
000002c0: 3bb5 bbbc 2465 40bd d4fd a8bd 6304 123e
000002d0: e9fe 6cbd 665b e23d 681f fb3d 3770 f93d
000002e0: 1c78 9a3d beea 8bbd b411 63bd a5e8 8d3d
000002f0: 9a34 023e a6d6 0abc 69b4 0c3d d04b 963c
00000300: 2486 8ebc 01f0 a53d 6d9f 053d 164a e53d
00000310: 947d 003e dd9c 10b9 396a c73c 7fa5 fb3d
00000320: 0011 423d d29e 033d ad7f 343d 2fc0 1cbd
00000330: b949 873d c906 5bbd 6a7c a53d c12d 0ebd
00000340: b2c8 203e c3d7 85bd 3431 46bd cff5 e83d
00000350: 1dc1 01bd ca3c 2c3d 0bf8 cd3a 9812 063e
00000360: a415 80bd cddf 453d 0fdf b73c 6f7b fc3d
00000370: 9548 d83c 18ee 813d 48a5 713d 3d5f cabc
00000380: d5db bbbd 5d44 2bbc fd2f bfbc 783b c6bd
00000390: fe00 8a3d 80f8 dc3d 39d5 d1bc 5372 f73d
000003a0: 79c2 c7bb 5f9e da3d 30e7 adbc b608 77bb
000003b0: 4754 893d e982 6d3d f918 503d 3034 113c
000003c0: 4c6e 33bb 40f7 ac3d 02a7 6ebd 7002 e5bc
000003d0: aa3a a53c f190 d43c e024 973c 0c48 e1bd
000003e0: f090 343d 74e8 8f3b 7b5c fc3d 20e4 0f3c
000003f0: c3ea b73d b99a a53d c1b5 5dbd 56c8 313d

actor_head.2.bias f4 [4]
0.1343782 -0.037266817 -0.22820587 -0.13197736
00000000: 709a 093e 17a5 18bd cdae 69be 1325 07be
