training/models/curriculum_stage_2_weights.pth (torch, 274421 bytes, 13 tensors)

shared_layers.0.weight f4 [128, 2]
00000000: 286b dd3e a653 73be 3e9c 3f3f 59f2 6c3e
00000010: 4e17 95bd 4cd1 263e 1dc0 09bd b5c3 113f
00000020: 6313 fd3d b9a1 2bbf 562c 383f 1d8e a4be
00000030: e3b7 83be 4a64 093f dd84 e0be b3d3 1e3c
00000040: d1d7 083f aba2 9b3e 2574 2dbd 5cbf a63d
00000050: 0290 7dbe 5b33 ee3e 6351 8fbe 8426 c93e
00000060: bd13 403f 691b 9b3e 5154 99be ad3c 913e
00000070: eecb 213f 1da5 003e 0599 2bbf 8311 24bf
00000080: b6cb cfbe a86a cd3e 6c6b 81be 426c 23be
00000090: bbb9 23bf bb6a fabe 3ee2 bb3e 7852 1ebe
000000a0: 90e2 243d 7615 b4bd cc22 0cbd 2e72 07bf
000000b0: 9d7c e63e d731 cbbe 2817 1ebe 212c b53e
000000c0: a09b 0cbf bc4e 63be daf4 1bbf 8a10 61be
000000d0: 8ba2 d3be 896f 093f 9c0a cf3e 70ae 23be
000000e0: 19ca a2be a691 3e3e c46c 99be 9280 96be
000000f0: 5723 90be c96e 69be 9405 1cbf 5f7b 56be
00000100: ee4a 03be 2a0c 9ebe fe29 333f 7873 033f
00000110: dc7b d1bc 593f a9bd 1286 8a3e f4e9 8fbe
00000120: 497c 3b3f 97f1 06bf e581 bc3e 4242 323c
00000130: 732a 163e 7276 1a3f 0adb db3e 5688 72be
00000140: 197a a23d d3fd 3e3f 120f 24bc f8fa 1f3f
00000150: 3542 0ebe bb90 dcbd dfbd 86be 6460 343e
00000160: 634e df3d 9523 d63e b621 8dbe 88f1 f73e
00000170: deb6 2f3f 248c b9be 8eda 053d 318a 453d
00000180: b17f b23e f8cf 2b3d 8a77 363e 9dc9 06bf
00000190: 83fc 7fbe d131 a2be e460 92be 2cfb 413f
000001a0: eb09 ccbe d510 b8be 85cd b4be 73bf 123f
000001b0: 1ea2 223f 917a 013f ffab 523e 1be7 22bf
000001c0: 4f87 113f be15 2ebf 71bd 9e3e f19b d5be
000001d0: 0150 f8be 7f28 2bbf ef8d 1e3f 5725 ad3e
000001e0: d46e 143f 2cf0 0bbf 715d 913e 8d66 e73e
000001f0: 7382 3b3f 124e b0be aa8e 023e c85f 76be
00000200: d042 d73e 8d43 a8be eecd ccbe 423b 2b3f
00000210: 51ff efbe e8ee ad3e 3c30 f8be 3e2b 383f
00000220: 2554 d5be bfda 2fbe d0dc 4b3e 2253 cb3d
00000230: bd96 09bf 1c47 f8be c66f 48be fa29 273f
00000240: 643b 153e 7dba 503e 5995 243d 59f9 133f
00000250: 4ec9 a6bd 5604 22bf e7ec bdbe 980f 443f
00000260: 69c5 79be 671f 003f 1b39 73be 0753 9a3d
00000270: 4a3e 20bf 42f7 69be 5348 79be b2d4 00be
00000280: a399 293e c703 093e 6f52 43be af9a a9be
00000290: 7bd2 1cbe 9c4d 253f 07a2 65be 092b d6be
000002a0: aa63 d83d 4faf 27bf 4ba2 913d c715 2bbf
000002b0: 8d8f 6abe 7a7f 33bf 5fc3 1f3f 5a25 e83c
000002c0: 936c 03bf f8ba 093f 94c6 d13e 2fef 0c3f
000002d0: c478 25bf a746 7cbe 20a3 2abd e0b8 363f
000002e0: 1860 1bbf bb66 16bf 3ca3 0fbf 0aff 1a3f
000002f0: 4cf3 c6be c1d0 88be 20d4 4a3e 98da e23c
00000300: ce87 36be bcbc 05bf c7eb acbd f4cc 1cbf
00000310: 12d3 873e d1e8 d1be 87e8 0cbf 5a4e b8be
00000320: 854d 993e 084d 033f fc21 17bd 8329 b2be
00000330: a8d5 ffbe 5ab4 c23e 7f23 eabe 87b9 323e
00000340: 2040 913e 9495 323f 681e acbe 8049 d5be
00000350: 5bbd 063f 25af e2be 93e8 bc3e 4dc1 123e
00000360: 5c1a 79be f768 443f 802f 4f3e 545d f6be
00000370: 7f3d 923d b8f5 01bf 488f a33e 0bf8 debe
00000380: 46f1 0d3e 8142 c23e 944e d4be faa3 b4be
00000390: 6a5c ffbe 98c9 203f 0ad5 0fbf 5b10 1d3e
000003a0: acdd 9c3e 3d64 ff3e 59d8 babe b23a 6f3d
000003b0: 2db9 22be 7689 003e 2b58 203d 4c39 1dbf
000003c0: 96bc 443e 9279 07bf b98e c03d de16 2cbf
000003d0: 6de6 af3e 8572 31bf 0b65 d33c d110 e6be
000003e0: d3bb 5bbe 8d3c 4dbe 443c 64be 8283 84be
000003f0: 3561 f6be aae8 563d f931 07bf 4110 0c3f
0.43245816 -0.23762378 0.7484778 0.23139323 -0.07279836 0.16290778 -0.03363048 0.5693925
0.12357213 -0.67043644 0.7194265 -0.32139674 -0.25726232 0.53668654 -0.43851367 0.009694028
0.5345431 0.30397543 -0.042347092 0.08141968 -0.24761966 0.46523556 -0.2799178 0.39287198
0.7503012 0.3029435 -0.2994714 0.28366604 0.63201797 0.12562986 -0.67030364 -0.6408922
-0.40585107 0.40120435 -0.2527727 -0.15959266 -0.6395528 -0.48909554 0.36696047 -0.15461147
0.04025513 -0.08793156 -0.034212872 -0.529086 0.45016947 -0.39686462 -0.15438521 0.3538523
-0.54924965 -0.22198004 -0.6092049 -0.21978965 -0.41334948 0.53685814 0.40437782 -0.15984511
-0.31794813 0.18610248 -0.29965794 -0.29394966 -0.28151962 -0.22796167 -0.6094601 -0.209455
-0.12821552 -0.30868655 0.6998595 0.51348066 -0.025571756 -0.08264036 0.27055413 -0.2810818
0.7323652 -0.52712387 0.36817852 0.010880055 0.1466463 0.60336983 0.4294055 -0.2368482
0.079334445 0.74606055 -0.010013359 0.6249232 -0.13892443 -0.10769793 -0.26316735 0.17614895
0.10903623 0.41824022 -0.27564782 0.4842646 0.6863841 -0.3623973 0.032679133 0.048227493
0.34863046 0.04194638 0.17819038 -0.5265139 -0.2499867 -0.31678632 -0.28589547 0.7577388
-0.39851317 -0.35950342 -0.3531305 0.5732338 0.6352862 0.50577646 0.20573424 -0.6363389
0.5684709 -0.68001926 0.31003907 -0.41720536 -0.48498538 -0.6685867 0.61935323 0.3381755
0.5798161 -0.5466335 0.28391603 0.45195428 0.73245925 -0.34434563 0.12749735 -0.24059975
0.4204316 -0.32864037 -0.40000862 0.66887295 -0.46874478 0.33971334 -0.484743 0.7194098
-0.4166576 -0.17173289 0.19908452 0.09927966 -0.53745633 -0.48491752 -0.19573888 0.65298426
0.14573437 0.2038364 0.04018149 0.5780235 -0.081438646 -0.63287866 -0.37094805 0.76586294
-0.24391712 0.50047916 -0.23752253 0.075353675 -0.62595046 -0.22848228 -0.24343996 -0.12581137
0.16562514 0.13380347 -0.19074415 -0.33125827 -0.15314667 0.6457155 -0.2242509 -0.41829708
0.105658844 -0.65501875 0.07111033 -0.66830105 -0.22906323 -0.7011639 0.6240749 0.028338123
-0.51337546 0.53800917 0.40971816 0.55052465 -0.646374 -0.24636327 -0.041659474 0.71375847
-0.606935 -0.58750504 -0.5610845 0.6054541 -0.38857496 -0.26721767 0.19807482 0.027692124
-0.17825243 -0.5224111 -0.084434085 -0.61250234 0.2652822 -0.40997937 -0.5504231 -0.35997277
0.29941955 0.51289415 -0.036897644 -0.34797296 -0.49967694 0.38028222 -0.45730206 0.17453586
0.28369236 0.6975949 -0.33616948 -0.4165764 0.52632684 -0.4427425 0.3689619 0.14331551
-0.24326462 0.76722664 0.20232964 -0.4811808 0.07140636 -0.5076556 0.31945252 -0.43548617
0.1386157 0.37941363 -0.414662 -0.35281354 -0.49875194 0.6280761 -0.56184447 0.1533827
0.30637872 0.49881163 -0.36493185 0.058405586 -0.15890951 0.12552437 0.039146584 -0.61415553
0.19212565 -0.52919877 0.09402222 -0.6722239 0.34355488 -0.6931537 0.025805017 -0.44934705
-0.21458368 -0.2004263 -0.22288615 -0.25881582 -0.48121038 0.05246798 -0.5281063 0.547123

shared_layers.0.bias f4 [128]
00000000: 517e 6fbd f72e 60be 5fa4 c83b 83af 23bc
00000010: af0c ce3e 9a99 cf3e f2ff eebc 7fc7 0dbf
00000020: 160b 8cbe a1f9 e73b b004 fbbe fef1 c93d
00000030: fbcd 0ebf 958e 133d c07a 28bf ceec 12bf
00000040: eec8 1abf 2970 e8ba e6d1 3e3e 8298 ef3d
00000050: d0eb b6be b96e 58be 64c0 803c 94f7 cdbe
00000060: af5b 033f d562 ebbe 2d26 0cbf c3d7 d8be
00000070: 86ee e23e 209d 01bf 1b49 1ebc b427 a5be
00000080: 6664 5dbe 58b6 0dbf b8f1 20bf 6167 3d3e
00000090: 6487 1dbf c680 e43e 95e0 1ebf 5766 e0be
000000a0: 2e36 11be 5e8a cf3e 2356 67be 5372 efbe
000000b0: fef1 0abf 6b8f 583c 4d78 a1bd 64c4 8fbd
000000c0: 5f6b 9fbd 88b2 b6be 3183 25bf b258 7dbd
000000d0: 0110 b83e bdbf 4f3e d465 45be 6c9d d03c
000000e0: c74c 923e 0401 8b3e 626f cb3e 51cc 293e
000000f0: 714d 80be 5d40 fabb 6946 8e3e 2cb9 3ebe
00000100: 1e9d 69bc 48d4 833e 8a94 06bf 4e3a 32be
00000110: 74b2 29be 119e cfbe 3f46 30bf e1c8 ffbe
00000120: d563 223e c7a4 5a3c f672 2f3c 24be 4fbe
00000130: 404f 02bf d6fa b3be dba2 12bf 9ec1 c03e
00000140: f85c 023e a045 9f3e fec8 c83d 426c 1ebf
00000150: 77e9 48be 7f34 25bf dc38 e9be 04e0 f6be
00000160: be85 70bd 6a81 1ebf 4962 a33e 1d4c 20be
00000170: 33f8 ea3d 1408 0f3f c5c7 a7ba 3765 89be
00000180: 8016 f3be f002 0b3e 05d1 9fbe 2f8d 8c3e
00000190: 4d35 ad3e 789f cf3d 4af4 1d3e 2cf5 36be
000001a0: 7238 dcbe cd97 fa3e c92b 9f3e e591 053e
000001b0: 1fc6 48bd 5168 53be 80e9 b13e cb40 fdbe
000001c0: ab03 eebd 5a6e 6d3d 87ef 123f b213 0b3f
000001d0: 3ad9 8ebe 80e0 75be 131b ac3d 2705 ebbe
000001e0: f414 1abf 62d0 8c3e d13c 2b3e bc6f 8b3e
000001f0: 346b 2fbd 416b cb3e d604 0e3f 39d1 713d
-0.058470074 -0.21892916 0.00612311 -0.009990576 0.40244052 0.40546876 -0.029174779 -0.5538253
-0.27352208 0.0070793186 -0.49027014 0.098606095 -0.5578305 0.03602465 -0.658123 -0.57392585
-0.60462844 -0.0017733622 0.18634757 0.116990104 -0.35726786 -0.21135987 0.015716739 -0.4022795
0.51311773 -0.4597384 -0.5474575 -0.42352113 0.44322604 -0.5063038 -0.009660984 -0.32256854
-0.2162033 -0.5535636 -0.62868834 0.18496467 -0.61534715 0.44629496 -0.62061435 -0.4382808
-0.14180824 0.40535253 -0.22591452 -0.4676691 -0.542755 0.013217787 -0.07884274 -0.070198804
-0.07784151 -0.35683084 -0.6465331 -0.061852165 0.3594971 0.20287986 -0.19277126 0.02546569
0.285742 0.27149212 0.39733416 0.16581847 -0.25059083 -0.007637067 0.27788094 -0.18625325
-0.014258651 0.25747895 -0.525704 -0.17405054 -0.1657198 -0.40550283 -0.6885719 -0.49957946
0.15858395 0.01334495 0.010708561 -0.20287377 -0.50902176 -0.3515231 -0.5727975 0.37647718
0.12730777 0.31107807 0.09803961 -0.6188394 -0.1962031 -0.6453323 -0.45551193 -0.48217785
-0.058721296 -0.6191622 0.31910923 -0.15654035 0.114731215 0.558717 -0.0012800625 -0.26835033
-0.47478104 0.1357534 -0.31214157 0.27451465 0.33829728 0.10137838 0.1542522 -0.17866963
-0.43011814 0.4894394 0.31088093 0.13043936 -0.049017068 -0.20645262 0.3474846 -0.49463496
-0.11621793 0.057966568 0.5739674 0.5432693 -0.27900106 -0.24011421 0.084036015 -0.45902368
-0.6018822 0.27502733 0.16722418 0.27233684 -0.042826846 0.39730266 0.5547613 0.05903742

shared_layers.2.weight f4 [128, 128]
00000000: 5564 a0bd 0e53 b3bd 3fe3 1fbd 182d dc3c
00000010: 267a 8e3c cc7b f63c b00b 9bbd 13ac f33c
00000020: a517 743d 4e76 08bd 2d15 eaba b74f 6dbd
00000030: 331d ca3b f990 cabd e42a a43b 1c25 9abd
00000040: 47f4 9c3d c83c 433a 07a0 a83c ae87 e8bd
00000050: 24fc a6ba b8fc 91bd 51dd acbd bc3c 33bc
00000060: cd9e 923c 4512 90bd 7ce3 213c 518e c0bd
00000070: 5c54 bebd 9652 1ebd 0341 393d bc18 123c
00000080: 80eb 92bd e491 833d 28db 70bd 4143 423d
00000090: 2bd4 693d 0a0e df3c ace3 4fbd 4328 323d
000000a0: 52f0 45bd d705 413d 4255 3cbd e656 d43c
000000b0: dff2 92bd 66ef 483d 0632 48bd 5b85 9c3d
000000c0: 8e10 9abc c4af c5bc e4c0 1d3d e5f0 aabd
000000d0: 38e5 873d cae4 333d b2ed a73c 8e59 c6bd
000000e0: a868 6d3d 5ebc 18bc 2945 afbc c3be 3fbd
000000f0: 46c6 30bd 8cad fbbc bff7 753d 44c8 c6bb
00000100: 2f0e b3bc 9556 133c 4829 823c 17a7 c3bc
00000110: 007c 67bd 0806 5bbd 9096 a1bc ca61 8fbd
00000120: 5a05 9cbd 2d00 58bd a995 803b 75cc 413d
00000130: 586c 063d 99cb 90bc 1a43 a13b d99d f8bc
00000140: 672c 03bd 7705 9dbd 0aee c23c fdde a43d
00000150: 792a 5a3d c79f 75bd 1c83 eabc 4ad0 cdbd
00000160: 724e b4bd 4caf b5bc aa94 713d de8c 1cbd
00000170: 28aa 113d f2c3 d6bd baca 4fbd e0bc 613d
00000180: 501e 8cbc 7584 023c f27a 683d a7fe c8bd
00000190: cef2 4abd ac34 74bd b14b 66bd 1e42 6b3d
000001a0: 7281 78bd 2ed8 303c 45c9 02bd 9ab8 c4bb
000001b0: 09b2 9ebd af1b 4fbd 87d4 04bd 9e46 0a3d
000001c0: a3d0 cebd 554f 943d bef8 ac3c 982b 153d
000001d0: a84a 5bbd f143 0a3d b002 c73c 4ec4 babc
000001e0: f2a0 ccbc d008 11bc f0b2 a63c 5f81 debd
000001f0: 5d05 91bd 2bc0 623c 8106 1a3b 5e5a 17bd
00000200: d334 22bd 5e09 31bd 01ea 83bb 3776 a7bd
00000210: 0f06 a2bd e010 7c3d e7dd 67bc ebe2 34bd
00000220: cf4e ee3c ce03 38bb 0267 76bc 400e afbd
00000230: 7120 5a3d 32a7 09bd 3133 b2bd 2a03 9bbc
00000240: bdd4 e1bc fdda e63c c001 88bd a010 d9bc
00000250: a1ad 8b3d 1a09 893d 64af 273c 0bc0 03bd
00000260: 1c97 33bc 9d60 4bbd baeb 713c 0034 813d
00000270: ebcd 60bc 47a3 003d b8a8 9abc 5612 a03d
00000280: 6cc5 f33c 1220 1cbd 8851 0e3d 56ea e0bc
00000290: e111 a83d 6f98 92bd c6b7 003d cfe8 f1bc
000002a0: 280b 143b fe19 963d be15 2f3d e365 5bbd
000002b0: 7e35 8b3d 2045 ef3b ff72 843d 21b0 193b
000002c0: 13ac 6bbc 6e61 0abd 7da6 03bd 198b a5bc
000002d0: 99a7 aebc dd4f af3d 426c 32bd c896 cc3c
000002e0: 92b8 a13b a750 20bb 96ec 7c3d a331 95bd
000002f0: 4885 7e3d 3e8a afbd 1345 f43b 637e 69bd
00000300: 21e3 2e3c d78d 42bd a3e1 02bd 8b5d b8bc
00000310: e698 57bd 5ec0 913d baa9 c23c ea18 a2bd
00000320: 947f 76bc 46a5 9fbd 51c2 53bd 8977 8d3c
00000330: e138 5fbd 4c9c 86bd 693c 803d 0e28 7cbd
00000340: 0dcf 22bd 4b0c 60bd 39cc 22bd 5f4e 473d
00000350: c002 5d3d f091 b4bd ed69 afbd 7a84 5ebd
00000360: 0d78 273d 8a8e 003d 70b6 1bbb 6ccd a33d
00000370: 74b5 dcbc d50f 9139 907a 4e3d 9a18 53bd
00000380: 5d8f b1bc 6aa0 a0bd fe7a 353d 68f0 7e3d
00000390: 029b 9dbd e44d 0f3d 245f 153c f55f 8cbd
000003a0: 01f3 41bd 4258 4cbd af39 86bd 8b88 73bb
000003b0: 9ea0 4dbd 263c 9d3d bd16 a03d 4460 1cbd
000003c0: c46c b33d 9c13 c03c 8984 55bd 6bb8 60bd
000003d0: ff71 883d 3257 8f3c a9fa 2ebd 27f8 aabd
000003e0: cab3 3a3d f6c3 2c3d 184c 95bb 1846 973d
000003f0: b68f 9d3c 42d2 ac39 0d68 903c fc60 8bbc
-0.07831637 -0.08756076 -0.03903508 0.026876971 0.01739223 0.030088328 -0.075705886 0.029745137
0.05959286 -0.03331595 -0.0017859094 -0.05793735 0.0061680316 -0.098909326 0.005009996 -0.07526609
0.0766378 0.0007447717 0.02058412 -0.11354004 -0.0012739939 -0.071282804 -0.0844065 -0.010939773
0.017897988 -0.07034735 0.009880897 -0.09402145 -0.09293434 -0.03865298 0.045228016 0.00891703
-0.07173824 0.06424311 -0.058802754 0.04742742 0.057087105 0.027228374 -0.050754234 0.043495428
-0.04832489 0.04712471 -0.045979746 0.025920343 -0.0717523 0.049056433 -0.04887583 0.07642623
-0.018806722 -0.024131663 0.038514033 -0.08346728 0.06635517 0.043919362 0.020499084 -0.0968505
0.057961136 -0.009322254 -0.021395283 -0.046812784 -0.04315784 -0.030722402 0.060050722 -0.006066354
-0.02185735 0.008992811 0.015888825 -0.023883386 -0.05651474 -0.05347255 -0.019725114 -0.07001074
-0.07618208 -0.052734543 0.003924091 0.047314126 0.03281817 -0.017675208 0.004921329 -0.030348705
-0.032024767 -0.07667058 0.023795146 0.08050344 0.05326316 -0.05996683 -0.028626971 -0.100494936
-0.08804025 -0.022178315 0.058979668 -0.03822028 0.035562664 -0.10486592 -0.050730444 0.055111766
-0.017104298 0.0079661505 0.056757875 -0.09814196 -0.049547963 -0.059620544 -0.05622453 0.0574361
-0.060670324 0.010793729 -0.031930227 -0.0060034515 -0.07748801 -0.05056351 -0.032429244 0.033758752
-0.10098388 0.07241694 0.021114703 0.036418527 -0.053537995 0.0337562 0.024293274 -0.022798683
-0.024979088 -0.008852199 0.020348996 -0.10864519 -0.07081101 0.013839762 0.0023502412 -0.036951415
-0.03960116 -0.043221824 -0.004025698 -0.081768446 -0.07911312 0.06153953 -0.014152027 -0.04416172
0.029090313 -0.002807844 -0.015039207 -0.0854764 0.053253595 -0.033606716 -0.0870117 -0.018922407
-0.027567262 0.028180594 -0.06640959 -0.026497185 0.068202265 0.06691189 0.0102346875 -0.03216557
-0.01096132 -0.049652684 0.014765674 0.06308746 -0.01372097 0.031405713 -0.01887928 0.07815997
0.029757224 -0.038116522 0.034745723 -0.02745549 0.08206535 -0.07157981 0.03142526 -0.029529957
0.0022589657 0.07329176 0.042745344 -0.053563964 0.06797312 0.0073019415 0.06467246 0.0023450928
-0.014384287 -0.033784322 -0.032141197 -0.020207928 -0.021320151 0.085601546 -0.043560274 0.024974242
0.0049353326 -0.0024462135 0.061749063 -0.07284858 0.062138826 -0.085712895 0.0074545234 -0.057005297
0.010674269 -0.04749855 -0.031953465 -0.022505542 -0.05263605 0.07116769 0.023762573 -0.07914908
-0.015045065 -0.07795195 -0.051698986 0.017268913 -0.054497603 -0.0657278 0.06261522 -0.061561637
-0.03974824 -0.054699223 -0.039745543 0.048658725 0.0539577 -0.08816898 -0.085651256 -0.05432556
0.040885974 0.031385936 -0.0023759864 0.079981655 -0.026941992 0.0002766835 0.050409853 -0.051537134
-0.021674806 -0.078430966 0.044306748 0.062240988 -0.07695581 0.03498639 0.009116922 -0.0685424
-0.047350887 -0.049888857 -0.06553971 -0.0037160243 -0.050202005 0.07677488 0.07816837 -0.038177744
0.0876098 0.02344685 -0.05212835 -0.054863375 0.06662368 0.017497633 -0.042719517 -0.083481126
0.045581616 0.04217907 -0.00455619 0.07386416 0.019233566 0.0003296305 0.01762774 -0.01701402

shared_layers.2.bias f4 [128]
00000000: ded8 2b3d bfc2 b03d 149a 5bbb 323b 11bd
00000010: 4513 a0bd a74f 423c 5fe3 afbd da29 39bd
00000020: 84b4 bfbd a1b4 a83c 04fb 3fbd 7d4b c03c
00000030: 0a60 8dbd 2373 a7bd d2df 2c3d dfcd 8bbd
00000040: 33c1 773d cdef 6fbd d4e9 453d 206b a1bc
00000050: 24a0 b43d ef34 a33d d4a6 f4bc 0324 d13b
00000060: c702 4ebd ec17 8a3c 7bdf 8bbd 31be a03c
00000070: e87b 14bd 73da b63d 7646 f1bc 3b0c 923c
00000080: f80c 703c 14df 133c 3683 26bd df6a 983d
00000090: 82f3 39bc 31aa 363c 404c 873d 4c15 ed3d
000000a0: 51bd b7bc 1160 823b ce1e 673d d9a3 20bc
000000b0: 4e03 b0bc 2cf0 363c 7f3b c2bd bfcd 763d
000000c0: 6b68 263c 0534 283d d4f0 0a3d afae 9e3c
000000d0: e6bf b7bb c38e e9bc 0d50 23bd 3560 59bd
000000e0: 537a cd3c cf43 5b3d 6c0c 623d 9898 01bc
000000f0: 8649 133d 670a 6fbd 4e26 b3bd 7b65 b83d
00000100: 580a 143d a7f1 57bd 0219 88bd a008 e13c
00000110: 44a3 c93b 086b ee3c 7cc9 65bd dd8c 68bd
00000120: 08c3 3e3d 4d55 05bd 782a a93d 5847 a1bc
00000130: 7e3f 093d 55bf 1bbc d26a 8fbd ee12 343d
00000140: 68ca 91bc d867 2dbd 8056 5d3d bdfe f83b
00000150: 5439 863d c38a 86bd ee53 a63c bbd4 6b3c
00000160: b961 c83c d18b 29bd cb88 1c3d 78ef 4cbc
00000170: 48ef a9bd 12b7 0abc 5f85 afbd 4817 1bbd
00000180: 9e4c 733b 71b1 5c3d dc8a 1dbd 1315 98bd
00000190: 97fd 873d 98fc 6dbd 3e8e 9b3d e684 d53a
000001a0: 3c6a 643d 2528 34bd d255 903c 39d6 7b3d
000001b0: 430a b53d 276b 9b3d b89a 4abd 751b 77bd
000001c0: 5ca4 c63c 18fe 203d 1d1f c8bb f492 65bd
000001d0: b1e3 b13d f25d ca3d 6f2a 97bc d1e0 033c
000001e0: 8855 073d 75f0 abbd 1f1b d53c a0d0 f0bc
000001f0: 6abd d7bc 4840 203d f3c2 2bbc ba6c 43bd
0.041954868 0.08630895 -0.0033508586 -0.035456844 -0.07816175 0.011859811 -0.085882895 -0.04520593
-0.093606025 0.020593943 -0.046870247 0.023473496 -0.069030836 -0.081762575 0.04220564 -0.06826376
0.060486984 -0.0585783 0.0483187 -0.019704401 0.08819607 0.07969081 -0.029864706 0.0063824668
-0.050295617 0.01685711 -0.06829735 0.01962194 -0.03625098 0.08928385 -0.029452544 0.017828098
0.0146515295 0.009025354 -0.040652476 0.07442259 -0.011349561 0.011148975 0.066063404 0.11576328
-0.02242914 0.003978737 0.056425862 -0.009804689 -0.02148595 0.01116566 -0.09484004 0.06025481
0.010156731 0.041065235 0.033921078 0.019370405 -0.005607593 -0.028510457 -0.039871264 -0.053070266
0.025082743 0.053531464 0.055187628 -0.007909916 0.03595879 -0.05835953 -0.087475404 0.09003731
0.036142677 -0.052720692 -0.06645395 0.027469933 0.006153496 0.02910377 -0.056100354 -0.056774963
0.046572715 -0.032552052 0.082600534 -0.01968734 0.033507816 -0.009506066 -0.07002796 0.043963365
-0.01779671 -0.04233536 0.05403757 0.0075987265 0.06553903 -0.065694354 0.020303693 0.014393981
0.02446066 -0.041393105 0.038216393 -0.012508266 -0.082975924 -0.008466499 -0.085703604 -0.037864
0.0037124525 0.05388016 -0.038462505 -0.074258946 0.06640165 -0.05810222 0.0759549 0.0016290217
0.055765375 -0.043983597 0.017619047 0.061483596 0.08839848 0.07588797 -0.049463958 -0.06032892
0.024248295 0.039304823 -0.0061072246 -0.05604835 0.08686007 0.098812 -0.018452851 0.008049206
0.033040553 -0.08395473 0.026013909 -0.029396355 -0.026335437 0.039123803 -0.010483491 -0.04771111

shared_layers.5.weight f4 [128, 128]
00000000: c79d 0a3d c571 583d 3820 583c faf2 053d
00000010: e720 af3d 7381 9abd afea d4bc e97a ef3c
00000020: 4401 843d 711f b8bd e0c7 61bd 2009 133d
00000030: 1b8e 84bd 89f6 443d 7248 e5bc 1471 3d3d
00000040: e583 823d 1472 bbbc 22f0 b23d 1197 9dbd
00000050: d2ae 8b3d 1489 a13d 907e 033d f651 a33d
00000060: 902f 64bd 15d4 623d 332c 9abd 2164 8cbd
00000070: 3f10 773d b2a6 233d 650d 4a3c 4b74 91bd
00000080: 6ab7 193d 26c8 aabd 20fd 4cbd 7617 9cbd
00000090: 65b8 823c 47b5 76bd 21f9 253d 72a2 07be
000000a0: 3abc 573d b7ea 583d c1fe babc d708 4f3d
000000b0: cab7 983d 437d 6cbd 25a1 0f3d 47ac 5a3d
000000c0: bba4 1d3d c746 30bd a23d b23c c1c0 1abd
000000d0: abd9 1d3d bdd3 32bd 1427 81bb 46d3 413d
000000e0: 90da 55bb 4dd2 b0bd 7a9d 19bd aecf 243d
000000f0: dadf 7cbd 4a65 c2bc c60d 873d 2be1 ccbc
00000100: d929 473d 1f5c 7d3d 2657 ddbd dcc5 553d
00000110: 1c69 6f3d e130 6bbc d8c4 c5bc 0696 933d
00000120: ad90 7c3d 9b68 67bd 4428 e5bb 1873 723d
00000130: 7d0e f83c 08b7 543c a403 03bd a494 debc
00000140: 3eb2 7e3d 6257 dd3c 8a84 e53c f64e 963d
00000150: 79a0 debd 9251 8f3d 8dcd 85bd 3cf9 633b
00000160: 8c97 5abc 452c abbd 2da7 91bd 9458 ae3d
00000170: 1d3c 6b3d 9883 213d 91b9 933c c32e 5dbd
00000180: f76e a53d a8c9 64bd 120c 8abd 8536 52bc
00000190: f617 283d 4a12 2a3c 4cbd 4fbb 4a1e 7d3c
000001a0: 177f 483d 08fc 5fbc 95f5 8b3d 2beb bebc
000001b0: c7f2 e0bc 6b2d 6bbd 5e30 5fbc 5b7b 3cbd
000001c0: e4ab 0ebd 5f11 99bd 60f8 9c3d f8d7 cdbc
000001d0: 3dcc 45bd 8286 06bd 0390 eebd cb1e 723d
000001e0: bc69 113d 6ce3 eb39 0336 f73c 3978 743d
000001f0: 7fcb 2cbd c0ef 80bd 4518 4bbd 26cc 11bd
00000200: 2b79 05bd b6cb 943c 464a 743c 3bde 113d
00000210: 7da1 08bd 00f9 92bc 80ba 503d 1eca 473d
00000220: 3b3d e33c e465 b8bc db38 663d 6fc4 74bd
00000230: c4b8 953d 19af 9e3c ef61 88bd ce65 423d
00000240: b605 eb3c f92c 903d 06b9 8cbd 2c3f 373d
00000250: 95fc 933d 9bee ea3c 2631 0e3b 84b7 223d
00000260: f926 183d c09e 18bd 96f8 993d 8211 16bd
00000270: aa64 69bd e2c0 9ebd 463c 93bd a49d aebd
00000280: e348 cc3c 231e 22bd 8756 a7bc 47ac e63c
00000290: 7c33 fdbc f459 9a3d 7a96 493d 29b9 6bbd
000002a0: d2fe 47bc 9869 63bd b75b a93d 797e 0f3d
000002b0: 588b 3dbd 6a1a d1bc 2603 a0bd 0551 2abd
000002c0: a0ef 1cbc bb75 a1bd 3926 0cbd 9e98 0cbd
000002d0: 2baa 853d acd6 94bd aba0 5e3d a4ef b3bd
000002e0: f57a 6a3d 2708 693c a09d cabd da5f 873d
000002f0: 12aa b6bd 66af 9bbd 16cf 7dbd 8339 b9bd
00000300: 7d8b 4abd 36b6 033d 7057 843c 26c9 053d
00000310: 686e 813d 344a c7bd dd46 9bbd 43df 5e3d
00000320: 4513 5dbd 3157 5dbd e42d 17bd dce5 79bd
00000330: 247c 71bd 102e 7a3c f93d 9ebd 8379 bebd
00000340: 9090 89bd 1108 52bd 248e 37bd c781 63bd
00000350: 9f5c 423d 6a2d 063d 7d87 4f3d bf71 2ebd
00000360: 50bf cb3c f4a4 ad3c a4b4 773d 805b 44bd
00000370: 52b5 8abd 1964 403d db13 35bd 6f18 5a3d
00000380: 5f65 483d 4f64 6bbd e7cc aebd 2a28 47bc
00000390: 884e bb3c 7f7a 953b 1ff2 253d 40f9 bbbd
000003a0: ada0 f8bc b14b 0dbb 0368 673d ef0d ccbd
000003b0: fe16 9bbd 0033 433b 1b8d cb3c d12e 9a3d
000003c0: cbe4 3dbc 30f1 57bd acd2 debc ee14 efbc
000003d0: 6130 12bd 3b9d b63c 4beb 2c3d abf3 33bd
000003e0: af2b 87bc 4a3a 1a3d a589 a3bd a4e5 e7bd
000003f0: b190 ec3b ef31 5c3d f9c4 593d 608e 0cbd
0.033841874 0.052842874 0.013191275 0.032702424 0.085511975 -0.07544222 -0.025990812 0.029233413
0.06445554 -0.08990372 -0.055122256 0.035897374 -0.06472417 0.048086677 -0.027988646 0.046250418
0.06372813 -0.022881545 0.08737208 -0.07694829 0.06820454 0.07887474 0.03210312 0.07974617
-0.05570942 0.05537804 -0.075279616 -0.068550356 0.060318228 0.039953895 0.012332295 -0.07102259
0.037528433 -0.083389565 -0.050046086 -0.07621662 0.015957067 -0.060231473 0.04052079 -0.13245562
0.05266974 0.052958217 -0.022826554 0.05054554 0.0745693 -0.057736646 0.03506579 0.053386953
0.038487177 -0.04303625 0.021757904 -0.03778148 0.038537662 -0.04365896 -0.003941426 0.047320627
-0.0032631494 -0.08633862 -0.037503697 0.04023712 -0.06173692 -0.023729939 0.06594424 -0.025009712
0.048623893 0.06185543 -0.10807638 0.052190647 0.05844985 -0.014354915 -0.024141714 0.07206349
0.06166141 -0.056496244 -0.0069933254 0.059191793 0.030280346 0.012983091 -0.031985894 -0.027170487
0.062181704 0.027019206 0.028017301 0.07339279 -0.108704515 0.0699798 -0.06533346 0.0034786006
-0.013341796 -0.08358053 -0.071119644 0.08512989 0.057430375 0.03943214 0.01803282 -0.053999674
0.080778055 -0.055856377 -0.067405835 -0.012830381 0.041038476 0.010380337 -0.0031698523 0.015449116
0.048949327 -0.013670929 0.068339504 -0.023305496 -0.027459515 -0.05741636 -0.0136223715 -0.04601608
-0.034831896 -0.074740164 0.07664561 -0.025127396 -0.04829048 -0.03284312 -0.11648562 0.059111398
0.035501227 0.00044992135 0.030177122 0.059684966 -0.042186256 -0.06295729 -0.049583692 -0.03559508
-0.032586258 0.018163543 0.014910286 0.035612326 -0.033357132 -0.017940998 0.05095911 0.04877674
0.027739158 -0.022509523 0.056206565 -0.059757646 0.07310632 0.019370602 -0.06659304 0.04746037
0.028689247 0.07039828 -0.06871228 0.04473798 0.072259106 0.02867823 0.0021696775 0.039725795
0.037146542 -0.03726077 0.07518117 -0.03663779 -0.056980766 -0.07751633 -0.071892306 -0.08526161
0.024937099 -0.039579522 -0.020427002 0.02815832 -0.030908339 0.075366884 0.04921577 -0.05754963
-0.01220675 -0.055520624 0.08269446 0.035032723 -0.046275467 -0.02552529 -0.078131005 -0.041581172
-0.009578615 -0.078837834 -0.03421614 -0.034325235 0.065265976 -0.07267508 0.054352444 -0.08785942
0.057246167 0.014223135 -0.09893346 0.06610079 -0.08919157 -0.07601814 -0.06196507 -0.090441726
-0.049449433 0.03215619 0.016154975 0.032662533 0.063198864 -0.0973095 -0.075818755 0.054412138
-0.053973455 -0.05403823 -0.036909 -0.061010227 -0.05895628 0.015269771 -0.07726664 -0.0930052
-0.06717026 -0.051277224 -0.04481329 -0.055543687 0.04745161 0.032758154 0.05066632 -0.042588945
0.024871498 0.02119682 0.060475007 -0.047938824 -0.06772865 0.04697046 -0.04420839 0.053245958
0.0489248 -0.05746871 -0.08535176 -0.012155572 0.022864595 0.004561722 0.040514108 -0.091784
-0.030350054 -0.0021560008 0.056495678 -0.09963595 -0.07572745 0.0029785037 0.024847558 0.07528461
-0.011590193 -0.05272025 -0.027200066 -0.029184785 -0.03569067 0.02229177 0.04221658 -0.04393355
-0.016500322 0.037653245 -0.07985238 -0.11323097 0.007219397 0.053758558 0.053166363 -0.034315467

shared_layers.5.bias f4 [128]
00000000: 6b19 dcbb 1b84 31bd 8e98 8cbb e276 f7bc
00000010: 0bee a1bd 256d aa3d 8962 61bd bb0c 2d3e
00000020: b278 97bc c9be a13d 6929 8bbd 48f5 8bbc
00000030: 5c58 acbb 88f0 a2bc 3b4b 243c 98ab 0cbd
00000040: aeb1 c5bd 449e 3e3e 2641 82bd f56e 28bd
00000050: 79a6 11bd 79a0 1e3e aebd c4bc 46f9 c7bc
00000060: 4b28 c73d 3333 aa3d 020c 8ebc cbca d2bd
00000070: c3aa 373d 089b b53c d9fd 18bd 576d 033e
00000080: 6ae8 fe3c 8e2d df3c eda8 e7bd f38d 7fbc
00000090: c4bc 96b9 c4d1 103e ee73 1d3d e0b0 9bbc
000000a0: d2a5 db3d f429 d7bc 1b3d 3cbd b404 2cbd
000000b0: ba4b b2bd 36d2 48bd 5bab 95bd 117d 463e
000000c0: 94eb 87bb 5bea 06bd 829a 253e 91ac d2bd
000000d0: 7177 adbd d6db 46bd bb39 98bc f872 fe3d
000000e0: 7f67 413d 11a0 d4bd b28b 34bd 516a 113c
000000f0: 62eb 153e 2d74 cdbd 01e8 7fbd 39da 9abd
00000100: a132 88bc 9199 1b3e 510e 7f3c 743e 0ebc
00000110: e60b e8bb 8dee a6bc e2cd 823d ff34 84bd
00000120: 9d41 a03d 779a 0c3d 0d32 cbbd 1e88 f93d
00000130: bfe5 093e a93f 13bb 2771 e5bb 6b39 fd3c
00000140: e1b3 bc3d b9ed e3bd 59fa aa3d 5c19 ae3d
00000150: f344 d7bc 2139 0f3e d466 d53d aff9 253e
00000160: 37ac 333e a8e4 ab3d a134 223e 8b87 b23d
00000170: e91a 7abd 6e15 113e 811a 8fbd a141 3abd
00000180: 682b 3fbd a2c6 9d3d fb55 db3d beaa 1f3e
00000190: 3a8d 203e 4a0d e9bd 3a02 ebbd a715 b5b9
000001a0: fbd8 c5bc ac65 fc3d 41ce 8c3d 0daf 4b3e
000001b0: 1b85 04bd d3de 23bd 8ea3 f33d 8bd8 153e
000001c0: a9d5 253e cbdc 183c a147 1dbb f324 dcbc
000001d0: de13 e63d e4ab 103c 615f e6bd 7581 afbc
000001e0: 1c05 bcbd d839 1a3e 8c75 bd3c 5061 b93c
000001f0: 4de1 e03c de2c 803c d129 d6bd 132e e63d
-0.0067168972 -0.043338876 -0.004290647 -0.030208055 -0.07906731 0.08321599 -0.05502561 0.16899388
-0.01849017 0.078977175 -0.06795008 -0.017084733 -0.0052595567 -0.019890085 0.010027702 -0.034343332
-0.0965303 0.18615061 -0.06360082 -0.041121442 -0.03555915 0.15490903 -0.024016228 -0.024410855
0.09724482 0.08310547 -0.01733971 -0.10292586 0.044840585 0.022168651 -0.037351463 0.12834679
0.031116683 0.027243402 -0.11311517 -0.015597808 -0.0002875087 0.14142519 0.038440637 -0.019005239
0.10724987 -0.026265122 -0.045956712 -0.041996673 -0.0870585 -0.049028598 -0.07308074 0.19383647
-0.004147956 -0.032938343 0.16172221 -0.10286821 -0.08470047 -0.048549496 -0.018582216 0.12424272
0.047217842 -0.10382093 -0.044078536 0.008875445 0.14640573 -0.100319244 -0.062477116 -0.07561154
-0.016625704 0.151953 0.015567378 -0.008681882 -0.0070814965 -0.020377422 0.06386925 -0.06455421
0.07825015 0.034326997 -0.09921656 0.121841654 0.13466547 -0.0022468364 -0.007002014 0.030911168
0.09213997 -0.111293264 0.08348531 0.08500931 -0.026277995 0.13986637 0.104200035 0.16208528
0.17546163 0.08393222 0.15840389 0.08717259 -0.06106082 0.14168331 -0.06987477 -0.045472745
-0.046672255 0.07703902 0.10709759 0.15592477 0.15678874 -0.11379488 -0.11475034 -0.00034539143
-0.024151316 0.1232408 0.06875277 0.19890995 -0.0323535 -0.040007424 0.1189643 0.14633386
0.16194786 0.009329985 -0.0023998993 -0.026873088 0.11234258 0.008830044 -0.11248661 -0.021424035
-0.09180662 0.15061128 0.02312734 0.02262941 0.027451182 0.015646394 -0.104571946 0.11239257

actor_head.0.weight f4 [128, 128]
00000000: 2fb2 adbd 0e11 2d3c 09f3 97bc 4400 ff3c
00000010: 8a28 96bb 9107 2fbd 3ade be3c 5653 1b3e
00000020: 3d9b 36bd f492 9c3d 135c 553d 3168 d5bc
00000030: e2ce b33d 8186 8bbd 00a2 3c3c 197c aebd
00000040: adc7 95bd f9d0 8b3d a090 f03c a36d 753d
00000050: 080d 80bd 8738 023e 011c dc3a c2f7 babc
00000060: 866a e53d 8467 4bbd c8ca cebc 964d df3b
00000070: 4bd5 f73c 88e1 b03d ca11 a3bd b65f 113e
00000080: f300 c73d 72f7 cfbc 484a ad3c eef0 28bd
00000090: f2ca 443d 552f 253e 8261 fbbd 1e92 0ebe
000000a0: 15ba 503c 14c7 30bd c595 48bd e740 da3d
000000b0: 409b a4bb f6f9 ec3a 74da e03c 552d 423d
000000c0: e0e1 30bc 5f0a 853d 0995 043e 9212 903d
000000d0: 7cf2 70bd f0a6 46bc d6cb 293d c22e c23b
000000e0: 7860 683c de57 5a3c 452a 85bc 57f6 91bd
000000f0: 1975 763d 6146 5dbd fffe dcbd 1167 933d
00000100: 9ed3 28bc 94f8 553d 1026 a73d 1e64 4c3d
00000110: 1e9d 143d 1115 78bd aee4 a03c 6398 49bd
00000120: fa15 343d 5fd4 643d 9da2 19bd 2aa9 c23d
00000130: dbd0 873d f688 1dbe 4549 3c3d 430e 3abd
00000140: ac01 49bd 8141 9a3c c4db 523d 70e5 8ebb
00000150: d48d 843b c302 eb3b 3366 fdb9 d5dd d0ba
00000160: 6951 243d dae3 dbbc 180c 8f3d e639 133d
00000170: 19a2 f8bd 9c7f d93d 53b3 22bd 68ae 8bbd
00000180: b66b 6b3d a8a2 6ebc 4a92 e43d c447 0f3e
00000190: cbc1 a83d c52b 2e3d 32d5 b83c 2a94 37bd
000001a0: d81c 843d 9259 b43d 628a c43c 341d 2c3e
000001b0: 77ef f2bd 5b6b 623d 8d2e 9c3d 0dd1 5b3d
000001c0: 6157 b0bc f700 4d3d 1372 89bd 4f83 04bc
000001d0: a17b b63d baac a5bd ac61 c2bb 554a 5d3c
000001e0: 3f14 473d 2767 dd3d e77d db3d 54f6 ae3d
000001f0: c43b c13d 7612 a7bd eaa2 87bd 6137 ac3b
00000200: 0760 8cbc a40f a33d 008d 0b3d 4825 9cbd
00000210: bbf8 49bc be51 d83c 639d 163d 38f4 31bc
00000220: d12f 113d 3e01 5a3d c8dc 9a3d 5ba4 5f3c
00000230: c708 05bd c034 cabd 23b9 a83d 4307 b7b9
00000240: 2b73 3b3d 8a74 1cbd 9dfe 3cbd 0a2f 933d
00000250: 3e14 663d 3c52 a23c e8bd 49bc 1a77 523d
00000260: 26a8 83bc fd0e 71bd 6ec1 57bd 4ed6 1e3d
00000270: dd11 09bd f2dc cb3c 0eaf 883d ad96 793d
00000280: 6135 8d3d fcf2 10bd 7c86 5dbd 5c10 7abc
00000290: 3a44 a5bd 8523 603d 90c4 22bd 1582 3dbd
000002a0: 36e1 7cbd 8f1a eabc 7ca6 7bb9 adb5 103c
000002b0: 708d 77bd a381 883c d23d b0bd 7608 1f3d
000002c0: b59c a83d 1596 3dbb 6931 cf3c 991a bfba
000002d0: bdab 0b3c 65cc 9b3d a24c 6c3d d656 4c3c
000002e0: 232c b6bc f069 25bd 3e91 b2bc 1250 37bd
000002f0: 2f77 1bbd 3c13 51bc ef6f 46bd c26d 39bd
00000300: 0526 a9bd 1b3e 493d d7d3 42bd 3528 b9bd
00000310: c0e6 b0bd 1c27 cfbc 8d28 8cbd 817d 1fbd
00000320: 70af 473b dcb4 b5bd 202a c9bb a490 19bc
00000330: c037 c53c ef77 4b3c 210b 9bbd c851 8c3d
00000340: af0a 81bd 1328 b5bd 11e5 1ebd 80ec 443d
00000350: 725e 85bd dabe 80bc 8f5c 323b 9556 813d
00000360: accd a9bd 4cb1 95bd 6c8a 43bd f27b 90bd
00000370: e40d 1cbc f987 af3c 2be4 603b bdbb 71bd
00000380: 4890 2cbd 3c93 1abd 9463 15bc ecf2 9abd
00000390: fe0a 53bd 317c 30bd c7bb 4e3d 04dc 97bc
000003a0: 8881 62bd dd29 e53c 88eb dbbc bddc 0b3d
000003b0: 42ff fcbc 5224 023d f5cf 783d 3f5a b8bd
000003c0: bd21 97bc c199 06bd 561a 2bbd 1fdd 40bc
000003d0: 5683 5f3d bd8c aebd d922 643d 6cb9 973d
000003e0: 29a8 a83c 3eaa c23c e6a0 a73c 990b 2a3d
000003f0: 0727 9fbd 7f16 d0bd a0f1 9dbd 54f7 763d
-0.084812514 0.010563148 -0.018548505 0.031128056 -0.0045824694 -0.042731825 0.023299325 0.15168509
-0.04458164 0.076452166 0.052089762 -0.026050659 0.08779694 -0.06812764 0.011513233 -0.085197635
-0.07313476 0.06826968 0.029365838 0.05991901 -0.062524855 0.12716876 0.0016793014 -0.022823218
0.11201958 -0.049659267 -0.025243178 0.006814669 0.030253073 0.08636767 -0.07962377 0.14196667
0.09716978 -0.025386546 0.021153584 -0.041245393 0.048045106 0.16131337 -0.122744575 -0.13922927
0.012739678 -0.043158606 -0.048970956 0.106569104 -0.00502339 0.0018079865 0.027447917 0.047406513
-0.01079604 0.06496119 0.12947477 0.07034792 -0.058825 -0.012124762 0.04145416 0.005925984
0.014183156 0.013326613 -0.016255507 -0.07127064 0.060170267 -0.054022197 -0.10790824 0.07197393
-0.01030436 0.052239016 0.08161557 0.049900167 0.03628265 -0.060566965 0.019640293 -0.049217593
0.04396627 0.055866595 -0.037508596 0.09504922 0.06631633 -0.15384278 0.045968313 -0.045423757
-0.04907386 0.018830063 0.051479116 -0.004360847 0.0040452275 0.00717196 -0.00048332065 -0.0015935252
0.0401167 -0.026842047 0.069847286 0.035943888 -0.12140293 0.10620043 -0.0397218 -0.06820375
0.057475768 -0.014565147 0.11160715 0.1399222 0.08240088 0.04252221 0.022562597 -0.044819035
0.06450814 0.08806147 0.023991767 0.16808015 -0.118620805 0.055278163 0.07626066 0.053666163
-0.02152604 0.05004975 -0.06711211 -0.008087947 0.08910299 -0.080895856 -0.0059320536 0.013506492
0.048603293 0.108106904 0.10717373 0.08543077 0.094352275 -0.08157818 -0.0662287 0.005255625
-0.017135633 0.079619676 0.034070015 -0.07624298 -0.012327368 0.026406165 0.03677119 -0.010861449
0.035445992 0.05322384 0.07561642 0.013650025 -0.032479074 -0.098733425 0.08238437 -0.0003490989
0.04576413 -0.038197078 -0.046141256 0.07186706 0.05617165 0.019814603 -0.012313344 0.051383115
-0.01607139 -0.058852185 -0.052674703 0.038778596 -0.0334643 0.024885628 0.06674014 0.06093471
0.06894947 -0.035387978 -0.054083332 -0.015262689 -0.08069654 0.054721374 -0.039738238 -0.046266634
-0.061738215 -0.028577117 -0.00023999246 0.008832377 -0.06043762 0.016663378 -0.08605541 0.03882643
0.082330145 -0.0028928567 0.025292115 -0.001458007 0.008524832 0.076073445 0.05769027 0.012471875
-0.022237843 -0.040384233 -0.021797772 -0.044754095 -0.03795546 -0.0127609335 -0.048446592 -0.04527069
-0.08259205 0.049131494 -0.047565307 -0.09040872 -0.08637762 -0.025287203 -0.06843672 -0.03893805
0.003046956 -0.08872387 -0.006139055 -0.009372864 0.024074435 0.012418731 -0.07570482 0.06851536
-0.06300866 -0.08845534 -0.038792673 0.048077106 -0.06512155 -0.015716005 0.0027215814 0.06315342
-0.08291182 -0.07309207 -0.04773943 -0.07054891 -0.009524796 0.021427142 0.0034315686 -0.05901693
-0.042129785 -0.03773807 -0.00911798 -0.07565865 -0.051524155 -0.04308719 0.050472047 -0.018537529
-0.055299312 0.027974064 -0.026845708 0.03414606 -0.030883435 0.03177292 0.0607452 -0.09001588
-0.018448705 -0.032861475 -0.041773163 -0.011771469 0.05456861 -0.085229374 0.055697296 0.07408413
0.020587998 0.023762818 0.020462465 0.041514967 -0.07771116 -0.10160541 -0.07712102 0.060294464

actor_head.0.bias f4 [128]
00000000: 3109 563e add9 78bd 335d 303c 87e5 96bd
00000010: c414 f63d 756e 34bd 8428 bc3d 8a68 cdbd
00000020: 060c e33c 37f7 903c 782b 7b3e 3b6c 43bd
00000030: 1192 bebd 9dbb f13d 84bf b7bd b469 3d3d
00000040: 259a 2fbd 929d 8d3e fe5e c43c 98e1 763d
00000050: f88b cb3d 182d 4f3d 2117 3cbc 548f aa3c
00000060: 88ed 943d f79b 8abd 1689 2ebd e271 5f3e
00000070: 1c68 16bc 9a3b d63d d6c8 4bbd 3b3c 21bd
00000080: 6658 eb3d 9850 eb3d 9744 d2bc 7a40 5e3e
00000090: 2368 bfbb 1a94 22bd a746 1a3e b1ea de3c
000000a0: 779d 493d 37aa 6f3e 1240 c13d b6d7 453e
000000b0: fb2b 2c3e 389c 93bc ecdc 573e 3b3c 53bd
000000c0: a293 7bbc a793 d9bc 666f 3e3e 6feb 1c3e
000000d0: b725 a3bc 1ace f53d 75bb 933d c0cd 013d
000000e0: 9f6a 1bbd 6a20 f63d 4dc1 92bd 91b5 a13d
000000f0: e24f da3d 2b52 c7bb 940b 233d b4d1 16bd
00000100: f884 2bbd a89c ba3d 0b68 7abd 13ad 9d3d
00000110: 091c fe3d 3a2f 343c ea47 2e3e 804f b13d
00000120: eada 373d 1e68 80bd f0a5 1bbc 742f 71bd
00000130: 032a e8bd edc2 d2bd 5f20 913e d063 403e
00000140: 3c25 6b3d ea7a 20bd 7bc9 d8bb 5085 713e
00000150: 9386 24bd 505e 01bd e72b 06bc a24e 603e
00000160: dbeb 47bc 29a5 c7bd 0757 09bd 52f9 c13d
00000170: e67b d93c 971d 003d e247 5c3e a8ec d8bd
00000180: 7e74 e63c 7059 70bd bb49 633e 1ed0 a4bd
00000190: ba75 883d 585f 90b9 3868 5fbd 716f 473e
000001a0: cee6 b7bd 9ea6 24bc 5003 983d 5846 80bd
000001b0: a38a b9bd 7f36 a6bd 49f9 10bd 51b3 f33d
000001c0: 6bb0 a9bd dcb3 8f3e ee85 cabc 15eb 2cbc
000001d0: d3a3 d8bd 96e5 4dbc ee56 2bbd 5064 d7bd
000001e0: ed55 903c 0f0f bebd 1ae2 8a3d 0258 e73d
000001f0: 9417 c63d 28cb 983e 72a1 bc3c b309 5a3d
0.20901944 -0.060754467 0.010764408 -0.073679976 0.120156795 -0.044050653 0.09187415 -0.10029705
0.027715694 0.017696006 0.24528301 -0.04771064 -0.09305204 0.118033625 -0.089720756 0.046243384
-0.042871613 0.2765928 0.023971077 0.060273737 0.09938806 0.050580114 -0.011480124 0.020820297
0.07271868 -0.06768029 -0.042611204 0.21820787 -0.009180095 0.10460587 -0.04975208 -0.03936408
0.1149147 0.114899814 -0.025667472 0.21704283 -0.0058412715 -0.039692022 0.15066014 0.027211519
0.049222436 0.23404776 0.094360486 0.19320568 0.16813652 -0.018018827 0.21080369 -0.051571112
-0.015355023 -0.026559664 0.18597183 0.15324186 -0.019915445 0.120022014 0.07213489 0.03169036
-0.03794348 0.12017901 -0.071657754 0.07895959 0.10659768 -0.006082793 0.039805964 -0.036821082
-0.041874856 0.09111911 -0.06113438 0.07699027 0.12407691 0.010997588 0.1701962 0.086577415
0.044886507 -0.06269859 -0.009500012 -0.058883145 -0.11336138 -0.102910854 0.2834501 0.18788075
0.057408556 -0.03917972 -0.006615815 0.23586011 -0.040167402 -0.031584084 -0.008189178 0.21904996
-0.012202228 -0.09748299 -0.03353026 0.09471382 0.026548337 0.03127822 0.21511796 -0.105920136
0.02813172 -0.058679044 0.22196095 -0.08047508 0.066630796 -0.00027536857 -0.05454275 0.19476105
-0.089795694 -0.01004949 0.07422507 -0.06263417 -0.09059646 -0.08115863 -0.035393987 0.11899436
-0.08285602 0.2806691 -0.024722066 -0.010554095 -0.10578122 -0.012566945 -0.04183095 -0.1051718
0.017619098 -0.09280216 0.06781407 0.11296083 0.09672466 0.29842496 0.023026202 0.053231906

actor_head.2.weight f4 [4, 128]
00000000: 46ea d83d 2698 983c 5ea8 5cbd 0549 b93c
00000010: 01ea 653d aab7 0ebd 0b6c 5abc 7c66 f4bb
00000020: b91c 4fbd 2d1b 90bd 7f6d d53c 18c3 d9bc
00000030: fc21 31bc 47e9 973d 759e 1b3d 52cb bf3c
00000040: 26ee 1abd 7d22 6c3d 024f 0a3d ac9f f83c
00000050: f407 3bbd 5488 b23c b3f5 3b3d 1b08 99bd
00000060: 074b 24bd cec2 39bd 9ad5 7abd 5a47 f63d
00000070: 4421 8dbd fe72 963d 4c23 f63c aba4 99bd
00000080: 4266 c93d 0832 c83d 844b 72bc 04b5 9d3d
00000090: 83c4 943d 3569 b4bd 2e45 003d daef d33c
000000a0: b2ca 9a3c f5c9 1f3e 4833 d5bb e5da 243d
000000b0: e9db b63d 0434 933d 5b02 bd3d 27c6 94bd
000000c0: c83a af3c 6cb6 dc3c 73cb 5b3d 1887 cc3d
000000d0: 171f 523d bc5b 8f3d 60a2 16bd 7f7a 5abd
000000e0: c3f3 bcbc b1e5 233d 449e 7ebd 8bf2 f3bc
000000f0: b9cd af3d 462b c5bd f2d5 4dbe 6a8c 843d
00000100: 13ed 47bd 5979 4b3d b79e 1b3d fa55 b1bd
00000110: 9a04 9a3d 75f9 b6bd 0e17 a53c 60ba fcbb
00000120: 69ad 83bd c269 913d e2ae 8cbc 82fd 97bd
00000130: be90 7c3d 345e a53c a981 ef3d f3b0 063e
00000140: 5248 b0bd 67c8 b8bd 6b1d 48bd 800d c63d
00000150: 8dd8 a2bd f3e6 843d cf05 b4bc e9f0 f83d
00000160: 829e 193d 9919 7d3d 5dd6 01bd 2230 c5bd
00000170: 9807 c3ba 9c80 2e3d 0120 4e3d 34ac aebc
00000180: 3ad8 563d ede1 df3b 25df 183e 072d c5bc
00000190: 7df9 c6bc 55ac b4bd 7a8c 8f3c c292 df3d
000001a0: 3b07 693b d03c 85bd 2519 3e3d 1798 ac3b
000001b0: 9d65 1fbd 6d96 dcbc 22c8 373d 87aa 813c
000001c0: 5d83 81bc abfa 863d f60d b8bc 0665 81bc
000001d0: 3cfc 483d 1f51 c13d 683d fe3c dd76 e83b
000001e0: 9d9f 2f3a 3dc9 e8bb 7427 6bbc a4d7 933d
000001f0: 60ae aa3d cd7f cf3d 945f ad3c 09d5 1cbd
00000200: 775f df3d 7847 8d3d 0da9 a9bd 5e9f 693c
00000210: bb4f 4b3d 7a7f 54bd 7aec 0e3e 99f8 173d
00000220: ca6e c43d a0ba 34bd bdd8 043d 8903 79bd
00000230: 72cf adbc 2c98 a93d 464c 833c e00d 23bd
00000240: 918b 69bd 47bf 273d 26d9 75bd 298d 2a3e
00000250: 84f9 753d 087c ff3d 9325 483d 352e 263d
00000260: 84bd b83d d408 51bb 2127 77bd 6ed6 abba
00000270: ac66 56bd 4b1c 5c3d 52a1 063d 6206 c1bc
00000280: 0b7d 7e3d 1326 2cbd fad0 98bb 0652 b43d
00000290: 9e06 5c3d b22f 533c c0ec 023d d5b3 b43d
000002a0: 835e 793d 85d8 733c d45b 83bd 8a8c 793d
000002b0: a1f9 013e 194e a7bc 4697 b33d 4d27 a63d
000002c0: 85f0 b1bc cd43 41bd b033 a2bd 0ebc 113e
000002d0: 320c 50bd 0d2a e13d 49eb 013e 0813 fb3d
000002e0: 1c78 9a3d 215f 84bd e784 61bd 85bd a03d
000002f0: 6a8b 013e 6726 10bc ee8b 0f3d f3df 953c
00000300: a967 89bc 843a a43d b5a7 073d 4b44 eb3d
00000310: fc8d 003e bfa9 3fb9 5f16 c03c 7c1b fc3d
00000320: da52 4d3d d4bf 043d 6688 353d 5f6d 16bd
00000330: 3138 873d 8cd6 5cbd d9eb a73d 0ec2 03bd
00000340: 64b4 1e3e 40d6 80bd c55e 43bd a558 e83d
00000350: 348f 00bd 300c 2e3d d778 bc3a e298 063e
00000360: 5921 86bd 9260 473d 1190 c33c a7bc f93d
00000370: 9548 d83c 9937 8d3d 6538 6e3d 3595 c7bc
00000380: 16c7 acbd d119 32bc dd82 acbc 488c bbbd
00000390: bd4e 973d a754 e23d 439b d2bc 9cf7 f73d
000003a0: 69a5 cfbb f049 d73d 4d42 a5bc 8bb2 9ebb
000003b0: 3ebd 893d 3739 733d b574 503d 8226 043c
000003c0: bcbf 203b 1788 ab3d f61f 6fbd 3b97 e7bc
000003d0: 4739 a23c 2916 d93c b2e7 983c f399 dfbd
000003e0: b291 343d 514f b83b d91a f83d 51a9 2e3c
000003f0: d32a ba3d 372e a73d d2f2 48bd 8e56 573d
0.10591559 0.018627238 -0.053871505 0.022617826 0.056131367 -0.034843124 -0.0133314235 -0.007458506
-0.0505645 -0.07036433 0.026053188 -0.026582286 -0.010811325 0.07417541 0.037992913 0.02341238
-0.037824772 0.057650078 0.033766754 0.030349575 -0.04566188 0.021793522 0.045888614 -0.07472249
-0.040110614 -0.045351796 -0.061238863 0.12025328 -0.068911105 0.07346152 0.030046128 -0.07502111
0.09833957 0.09775168 -0.014788512 0.077005416 0.07264044 -0.08809129 0.031315975 0.025871206
0.01889548 0.15604384 -0.0065063573 0.040247817 0.08928663 0.071876556 0.09228965 -0.07264357
0.021390334 0.026942454 0.05366082 0.099867046 0.05129918 0.06999919 -0.036775947 -0.053339478
-0.023065453 0.040013973 -0.062162653 -0.02977874 0.0858416 -0.096273944 -0.20101145 0.06472094
-0.048810076 0.049676273 0.03799316 -0.08658977 0.07520409 -0.08934299 0.020152595 -0.0077126473
-0.0642956 0.0710025 -0.017173234 -0.074214 0.061661474 0.020186521 0.116946526 0.13153438
-0.08607544 -0.09022599 -0.04885618 0.09670544 -0.0795146 0.064893626 -0.021975426 0.12155325
0.03750468 0.06179199 -0.031698573 -0.09628321 -0.0014879582 0.04260312 0.05032349 -0.021322347
0.052452303 0.0068323524 0.14928873 -0.024069322 -0.024288887 -0.08821932 0.01752304 0.10916664
0.0035557288 -0.0650574 0.0464107 0.005267154 -0.038915265 -0.026927197 0.044868596 0.015828384
-0.01580971 0.0659078 -0.022467595 -0.015795242 0.049068674 0.09439301 0.03103514 0.0070942477
0.00066995044 -0.0071040676 -0.014352668 0.072188646 0.08334041 0.10131798 0.02116374 -0.038289104
0.1090688 0.06898397 -0.08284197 0.0142591875 0.049636584 -0.051879384 0.13957396 0.037102316
0.09591444 -0.044123292 0.03243326 -0.060794387 -0.021217082 0.082809776 0.016027581 -0.039808154
-0.057017867 0.0409539 -0.060021542 0.16655411 0.06005241 0.12474829 0.04886396 0.04057141
0.09020522 -0.003189613 -0.06034005 -0.001311017 -0.05234401 0.05373792 0.03286869 -0.023562614
0.06213097 -0.042028498 -0.004663584 0.08804707 0.05371725 0.012889789 0.031964064 0.08823363
0.06088115 0.014883165 -0.06413999 0.060925044 0.12692882 -0.020422982 0.087690875 0.08112965
-0.021721134 -0.0471838 -0.07920015 0.14231893 -0.05079288 0.10994349 0.1268741 0.12259489
0.0754244 -0.06463457 -0.055058386 0.07848648 0.12650838 -0.008798218 0.035045557 0.018295264
-0.016773062 0.080189735 0.033118922 0.11487635 0.12554163 -0.00018278415 0.023448167 0.1230993
0.05012784 0.032409504 0.044319533 -0.0367254 0.066025145 -0.053915545 0.08199281 -0.032167487
0.15498501 -0.06290865 -0.0476978 0.113450326 -0.03138657 0.04249209 0.0014379275 0.13144258
-0.06549329 0.04867608 0.023872407 0.12194186 0.026401797 0.0689537 0.05815925 -0.02436314
-0.0843641 -0.010870413 -0.021058494 -0.09157616 0.07388065 0.110513024 -0.0257088 0.121077746
-0.006336857 0.10512149 -0.020173216 -0.0048430613 0.06725548 0.059380736 0.05089255 0.008065822
0.0024528345 0.083755665 -0.05838009 -0.028270354 0.019802703 0.026499825 0.018665168 -0.10918035
0.04408426 0.0056246896 0.12114496 0.010660485 0.09090199 0.08163112 -0.049059696 0.05257278

actor_head.2.bias f4 [4]
00000000: eafc 0a3e bda3 17bd 2063 6fbe f84c 0cbe
0.13573042 -0.037021387 -0.23377657 -0.13701236
