training/models/curriculum_final_weights.pth (torch, 274381 bytes, 13 tensors)

shared_layers.0.weight f4 [128, 2]
0	0x3edd6976	0.43244523
1	0xbe735be7	-0.23765527
2	0x3f3f9c3e	0.7484778
3	0x3e6cf80e	0.231415
4	0xbd94df65	-0.072691716
5	0x3e26e554	0.16298419
6	0xbd094ed1	-0.03352243
7	0x3f11c3b7	0.5693926
8	0x3dfd06fe	0.12354849
9	0xbf2ba19a	-0.6704346
10	0x3f382c56	0.7194265
11	0xbea48e27	-0.32139704
12	0xbe83b43d	-0.25723448
13	0x3f09644c	0.53668666
14	0xbee084dd	-0.43851367
15	0x3c1ed3b3	0.009694028
16	0x3f08d7d1	0.5345431
17	0x3e9ba7b7	0.30401394
18	0xbd2cce7f	-0.042189118
19	0x3da7057f	0.08155345
20	0xbe7d6ae0	-0.24747801
21	0x3eee3d6a	0.4653123
22	0xbe8f4ede	-0.27989858
23	0x3ec928e4	0.3928901
24	0x3f4013bd	0.7503012
25	0x3e9b1ae6	0.3029396
26	0xbe995296	-0.2994582
27	0x3e913e46	0.28367823
28	0x3f21cbee	0.63201797
29	0x3e00b018	0.12567174
30	0xbf2b9905	-0.67030364
31	0xbf241183	-0.6408922
32	0xbecfcfb7	-0.4058816
33	0x3ecd66bb	0.4011744
34	0xbe816b6c	-0.2527727
35	0xbe236c42	-0.15959266
36	0xbf23b9bb	-0.6395528
37	0xbefa6abb	-0.48909554
38	0x3ebbe1cd	0.3669571
39	0xbe1e53e5	-0.1546169
40	0x3d24e290	0.04025513
41	0xbdb41576	-0.08793156
42	0xbd0c22cc	-0.034212872
43	0xbf07722e	-0.529086
44	0x3ee67b75	0.45016065
45	0xbecb3314	-0.39687407
46	0xbe1df12e	-0.15424034
47	0x3eb535f6	0.3539273
48	0xbf0c9ba0	-0.54924965
49	0xbe6357f3	-0.22201519
50	0xbf1bf4da	-0.6092049
51	0xbe61108a	-0.21978965
52	0xbed39c79	-0.41330317
53	0x3f097008	0.5368657
54	0x3ecf0880	0.40436172
55	0xbe23ba73	-0.15989093
56	0xbea2c8d9	-0.3179386
57	0x3e3e9802	0.18612674
58	0xbe996cc4	-0.29965794
59	0xbe968092	-0.29394966
60	0xbe902357	-0.28151962
61	0xbe696ec9	-0.22796167
62	0xbf1c0594	-0.6094601
63	0xbe567b5f	-0.209455
64	0xbe034aee	-0.12821552
65	0xbe9e0c2a	-0.30868655
66	0x3f3329fe	0.6998595
67	0x3f037378	0.51348066
68	0xbcd17bdc	-0.025571756
69	0xbda93f59	-0.08264036
70	0x3e8a853c	0.27054775
71	0xbe8feacf	-0.28108832
72	0x3f3b7c48	0.73236513
73	0xbf06f19a	-0.52712405
74	0x3ebc82a8	0.36818433
75	0x3c33293d	0.010935125
76	0x3e1636e0	0.1466937
77	0x3f1a7672	0.60336983
78	0x3edbda23	0.42939863
79	0xbe728b58	-0.23685968
80	0x3da2ae67	0.07943421
81	0x3f3efdd6	0.7460607
82	0xbc214c4c	-0.009844851
83	0x3f1ffaf8	0.6249232
84	0xbe0e4235	-0.13892443
85	0xbddc90bb	-0.10769793
86	0xbe86bddf	-0.26316735
87	0x3e346064	0.17614895
88	0x3ddf9686	0.10917382
89	0x3ed62903	0.41828164
90	0xbe8d1d1b	-0.27561268
91	0x3ef7f586	0.48429507
92	0x3f2fb6de	0.6863841
93	0xbeb98cee	-0.36240333
94	0x3d05eba9	0.032695446
95	0x3d459b4a	0.0482438
96	0x3eb27f3b	0.34862694
97	0x3d2bcdb9	0.04194424
98	0x3e36778a	0.17819038
99	0xbf06c99d	-0.5265139
100	0xbe7ffc83	-0.2499867
101	0xbea231d1	-0.31678632
102	0xbe925dd6	-0.28587216
103	0x3f41fb2e	0.75773895
104	0xbecc09eb	-0.39851317
105	0xbeb80fb7	-0.3594949
106	0xbeb4cc2e	-0.35312027
107	0x3f12bf74	0.57323384
108	0x3f22a21e	0.6352862
109	0x3f017a91	0.50577646
110	0x3e52ab63	0.20573191
111	0xbf22e6f7	-0.63633674
112	0x3f118725	0.5684684
113	0xbf2e15ef	-0.6800222
114	0x3e9ebcb4	0.31003344
115	0xbed59d02	-0.4172135
116	0xbef85001	-0.48498538
117	0xbf2b287f	-0.6685867
118	0x3f1e8def	0.61935323
119	0x3ead2679	0.33818415
120	0x3f146e9f	0.57981294
121	0xbf0bf05b	-0.5466363
122	0x3e9167c3	0.28399476
123	0x3ee76f9c	0.4520234
124	0x3f3b8273	0.73245925
125	0xbeb04ec3	-0.3443509
126	0x3e028ef4	0.12749845
127	0xbe765fc8	-0.24059975
128	0x3ed74214	0.420426
129	0xbea8446b	-0.328647
130	0xbecccc7a	-0.39999753
131	0x3f2b3b43	0.668873
132	0xbeeffed0	-0.46874094
133	0x3eadf052	0.33972412
134	0xbef82d29	-0.48471954
135	0x3f382b40	0.71940994
136	0xbed55425	-0.4166576
137	0xbe2fdabf	-0.17173289
138	0x3e4c00cd	0.1992218
139	0x3dcba5bd	0.099437214
140	0xbf0996bd	-0.53745633
141	0xbef8471c	-0.48491752
142	0xbe4855b1	-0.19563939
143	0x3f2729fa	0.65298426
144	0x3e1554fb	0.14583199
145	0x3e50d193	0.20392446
146	0x3d253794	0.040336207
147	0x3f13f959	0.5780235
148	0xbda6c94e	-0.081438646
149	0xbf220456	-0.63287866
150	0xbebde9e2	-0.370925
151	0x3f440f9a	0.76586306
152	0xbe79b3e8	-0.24385035
153	0x3f001f67	0.50047916
154	0xbe73391b	-0.23752253
155	0x3d9a5307	0.075353675
156	0xbf203e4a	-0.62595046
157	0xbe69f742	-0.22848228
158	0xbe794956	-0.24344382
159	0xbe00d64c	-0.12581748
160	0x3e29bc8e	0.16575834
161	0x3e092569	0.13393177
162	0xbe43503c	-0.19073576
163	0xbea99aaf	-0.33125827
164	0xbe1cbbdb	-0.15306036
165	0x3f254d9e	0.6457156
166	0xbe65a207	-0.2242509
167	0xbed62b09	-0.41829708
168	0x3dd8615d	0.105654456
169	0xbf27af4f	-0.65501875
170	0x3d91a24b	0.07111033
171	0xbf2b15c7	-0.66830105
172	0xbe6a8f8d	-0.22906323
173	0xbf337f7a	-0.7011639
174	0x3f1fc35f	0.6240749
175	0x3ce7faff	0.028317926
176	0xbf036c8f	-0.5133752
177	0x3f09bafe	0.5380095
178	0x3ed1cb7f	0.40975568
179	0x3f0cef2f	0.55052465
180	0xbf2578c4	-0.646374
181	0xbe7c4d78	-0.24638927
182	0xbd2a320b	-0.04155163
183	0x3f36b8e2	0.7137586
184	0xbf1b6018	-0.606935
185	0xbf1666bb	-0.58750504
186	0xbf0fa33c	-0.5610845
187	0x3f1aff0b	0.60545415
188	0xbec6f34c	-0.38857496
189	0xbe88d0c1	-0.26721767
190	0x3e4af129	0.19818558
191	0x3ce40d68	0.027838424
192	0xbe3687ce	-0.17825243
193	0xbf05bcbc	-0.5224111
194	0xbdacc7eb	-0.08436569
195	0xbf1cccf4	-0.61250234
196	0x3e87d2bb	0.26527962
197	0xbed1e8fb	-0.40998062
198	0xbf0ce887	-0.5504231
199	0xbeb84e5a	-0.35997277
200	0x3e9957be	0.29949754
201	0x3f034d08	0.51289415
202	0xbd16ec87	-0.036846664
203	0xbeb22983	-0.34797296
204	0xbeffd3d0	-0.49966288
205	0x3ec2b630	0.38029623
206	0xbeea237f	-0.45730206
207	0x3e32bce5	0.1745487
208	0x3e914354	0.2837168
209	0x3f329595	0.69759494
210	0xbeac1df2	-0.33616596
211	0xbed546ad	-0.41655484
212	0x3f06bd5a	0.5263268
213	0xbee2b0aa	-0.4427541
214	0x3ebce9d2	0.3689714
215	0x3e12cc18	0.14335668
216	0xbe790d3d	-0.24321456
217	0x3f4468f8	0.7672267
218	0x3e4f2fd0	0.20233083
219	0xbef65d54	-0.4811808
220	0x3d923d0c	0.0714055
221	0xbf01f592	-0.50765336
222	0x3ea38e6d	0.319446
223	0xbedef86b	-0.43548903
224	0x3e0e10b9	0.13873567
225	0x3ec248ff	0.37946317
226	0xbed44e94	-0.414662
227	0xbeb4a3fa	-0.35281354
228	0xbeff5a10	-0.498734
229	0x3f20c99b	0.62807626
230	0xbf0fd495	-0.5618375
231	0x3e1d1369	0.15339436
232	0x3e9ce595	0.30643907
233	0x3eff6b58	0.49886584
234	0xbebad859	-0.36493185
235	0x3d6f3ab2	0.058405586
236	0xbe22b3a3	-0.15888838
237	0x3e008e4d	0.12554283
238	0x3d20582b	0.039146584
239	0xbf1d394c	-0.61415553
240	0x3e44bc96	0.19212565
241	0xbf077992	-0.52919877
242	0x3dc09471	0.09403313
243	0xbf2c16de	-0.6722239
244	0x3eafe6b5	0.34355703
245	0xbf31728c	-0.6931541
246	0x3cd33b0b	0.02578499
247	0xbee610d1	-0.44934705
248	0xbe5bbbd3	-0.21458368
249	0xbe4d3c8d	-0.2004263
250	0xbe642fed	-0.22283907
251	0xbe848085	-0.25879303
252	0xbef65ffc	-0.48120105
253	0x3d5705dc	0.052495822
254	0xbf0731f9	-0.5281063
255	0x3f0c1043	0.54712313

shared_layers.0.bias f4 [128]
0	0xbd6fb9a9	-0.05852667
1	0xbe6036e1	-0.21895935
2	0x3bc9ae80	0.006154835
3	0xbc22ecc0	-0.009944141
4	0x3ece0d91	0.40244725
5	0x3ecf983c	0.40545833
6	0xbcee9901	-0.029125692
7	0xbf0dc77f	-0.5538253
8	0xbe8c0c97	-0.27353355
9	0x3be8b59a	0.0071017267
10	0xbefb0125	-0.4902431
11	0x3dca071f	0.098646395
12	0xbf0ece31	-0.55783373
13	0x3d13afb2	0.036056228
14	0xbf287aca	-0.6581236
15	0xbf12ecce	-0.57392585
16	0xbf1ac9d6	-0.6046423
17	0xbae87029	-0.0017733622
18	0x3e3ed527	0.18635999
19	0x3def82c6	0.11694865
20	0xbeb6ebd0	-0.35726786
21	0xbe586eb9	-0.21135987
22	0x3c8049f9	0.015660273
23	0xbecdf4b4	-0.40225756
24	0x3f035bac	0.51311755
25	0xbeeb62d5	-0.4597384
26	0xbf0c2617	-0.5474562
27	0xbed8d88f	-0.4235272
28	0x3ee2efd5	0.44323602
29	0xbf019d20	-0.5063038
30	0xbc1e491b	-0.009660984
31	0xbea527b4	-0.32256854
32	0xbe5d6466	-0.2162033
33	0xbf0db694	-0.5535672
34	0xbf20f1b8	-0.62868834
35	0x3e3d61fa	0.18494406
36	0xbf1d8765	-0.6153472
37	0x3ee47f4d	0.44628373
38	0xbf1ee0b5	-0.62061626
39	0xbee066cd	-0.4382843
40	0xbe112f78	-0.14178264
41	0x3ecf8af1	0.4053569
42	0xbe675623	-0.22591452
43	0xbeef7253	-0.4676691
44	0xbf0af1fe	-0.542755
45	0x3c595988	0.013265975
46	0xbda18e05	-0.07888416
47	0xbd8fbd25	-0.07018498
48	0xbd9f801a	-0.07788105
49	0xbeb6b288	-0.35683084
50	0xbf258331	-0.6465331
51	0xbd7d3057	-0.06181368
52	0x3eb8111a	0.35950547
53	0x3e4fc6d4	0.2029069
54	0xbe456c2f	-0.1927955
55	0x3cd09ef4	0.02546642
56	0x3e924bb2	0.28573376
57	0x3e8b0042	0.27148634
58	0x3ecb700b	0.3973392
59	0x3e29c51a	0.16579095
60	0xbe804dba	-0.250593
61	0xbbfa66e8	-0.007641662
62	0x3e8e4537	0.27787182
63	0xbe3eb8e2	-0.18625215
64	0xbc6a51d1	-0.014301733
65	0x3e83d5ad	0.2574896
66	0xbf069417	-0.5256972
67	0xbe323270	-0.17402053
68	0xbe29b274	-0.1657198
69	0xbecf9d5e	-0.4054975
70	0xbf30463f	-0.6885719
71	0xbeffc817	-0.49957344
72	0x3e2261fa	0.15857688
73	0x3c5b4c86	0.013384944
74	0x3c2f90bc	0.01071566
75	0xbe4fb6de	-0.20284602
76	0xbf024f40	-0.50902176
77	0xbeb3fad6	-0.3515231
78	0xbf12a2db	-0.5727975
79	0x3ec0c11e	0.37647337
80	0x3e02584b	0.12728994
81	0x3e9f467c	0.31108463
82	0x3dc8db7f	0.098074906
83	0xbf1e6c42	-0.6188394
84	0xbe48ea5d	-0.19620652
85	0xbf25347f	-0.6453323
86	0xbee938dc	-0.45551193
87	0xbef6e194	-0.48218977
88	0xbd7071a9	-0.058702145
89	0xbf1e817e	-0.6191634
90	0x3ea361b0	0.31910467
91	0xbe204503	-0.15651326
92	0x3deb0681	0.1147585
93	0x3f0f084c	0.55872035
94	0xbaa7c7c5	-0.0012800625
95	0xbe8964e2	-0.2683478
96	0xbef31680	-0.47478104
97	0x3e0b0bc3	0.13578705
98	0xbe9fd159	-0.31214407
99	0x3e8c8e61	0.27452376
100	0x3ead356a	0.33829814
101	0x3dcfa7f8	0.10139459
102	0x3e1df98d	0.15427227
103	0xbe36f1ce	-0.17865679
104	0xbedc3737	-0.43010876
105	0x3efa98a2	0.48944575
106	0x3e9f2a94	0.31087172
107	0x3e058bf1	0.13041665
108	0xbd489f75	-0.048980195
109	0xbe536801	-0.20645143
110	0x3eb1ea83	0.3474923
111	0xbefd41aa	-0.4946416
112	0xbdedfaac	-0.116200775
113	0x3d6d8a5f	0.05799329
114	0x3f12efc5	0.5739711
115	0x3f0b1419	0.5432754
116	0xbe8ed8fe	-0.27899927
117	0xbe75e080	-0.24011421
118	0x3dac2dbb	0.0840716
119	0xbeeb0527	-0.45902368
120	0xbf1a14f4	-0.6018822
121	0x3e8cd17a	0.27503568
122	0x3e2b3d38	0.16722572
123	0x3e8b7097	0.27234337
124	0xbd2f6b34	-0.042826846
125	0x3ecb6d20	0.39731693
126	0x3f0e0534	0.5547669
127	0x3d71fdc5	0.059079904

shared_layers.2.weight f4 [128, 128]
0	0xbda06455	-0.07831637
1	0xbdb3530e	-0.08756076
2	0xbd1fe33f	-0.03903508
3	0x3cdc2d18	0.026876971
4	0x3c8e7a26	0.01739223
5	0x3cf67bcc	0.030088328
6	0xbd9b0bb0	-0.075705886
7	0x3cf3ac13	0.029745137
8	0x3d7417a5	0.05959286
9	0xbd08764e	-0.03331595
10	0xbaea152d	-0.0017859094
11	0xbd6d4fb7	-0.05793735
12	0x3bca1d33	0.0061680316
13	0xbdca90f9	-0.098909326
14	0x3ba42ae4	0.005009996
15	0xbd9a251c	-0.07526609
16	0x3d9cf447	0.0766378
17	0x3a433cc8	0.0007447717
18	0x3ca8a007	0.02058412
19	0xbde887ae	-0.11354004
20	0xbaa6fc24	-0.0012739939
21	0xbd91fcb8	-0.071282804
22	0xbdacdd51	-0.0844065
23	0xbc333cbc	-0.010939773
24	0x3c929ecd	0.017897988
25	0xbd901245	-0.07034735
26	0x3c21e37c	0.009880897
27	0xbdc08e51	-0.09402145
28	0xbdbe545c	-0.09293434
29	0xbd1e5296	-0.03865298
30	0x3d394103	0.045228016
31	0x3c1218bc	0.00891703
32	0xbd92eb80	-0.07173824
33	0x3d8391e4	0.06424311
34	0xbd70db28	-0.058802754
35	0x3d424341	0.04742742
36	0x3d69d42b	0.057087105
37	0x3cdf0e0a	0.027228374
38	0xbd4fe3ac	-0.050754234
39	0x3d322843	0.043495428
40	0xbd45f052	-0.04832489
41	0x3d4105d7	0.04712471
42	0xbd3c5542	-0.045979746
43	0x3cd456e6	0.025920343
44	0xbd92f2df	-0.0717523
45	0x3d48ef66	0.049056433
46	0xbd483206	-0.04887583
47	0x3d9c855b	0.07642623
48	0xbc9a108e	-0.018806722
49	0xbcc5afc4	-0.024131663
50	0x3d1dc0e4	0.038514033
51	0xbdaaf0e5	-0.08346728
52	0x3d87e538	0.06635517
53	0x3d33e4ca	0.043919362
54	0x3ca7edb2	0.020499084
55	0xbdc6598e	-0.0968505
56	0x3d6d68a8	0.057961136
57	0xbc18bc5e	-0.009322254
58	0xbcaf4529	-0.021395283
59	0xbd3fbec3	-0.046812784
60	0xbd30c646	-0.04315784
61	0xbcfbad8c	-0.030722402
62	0x3d75f7bf	0.060050722
63	0xbbc6c844	-0.006066354
64	0xbcb30e2f	-0.02185735
65	0x3c135695	0.008992811
66	0x3c822948	0.015888825
67	0xbcc3a717	-0.023883386
68	0xbd677c00	-0.05651474
69	0xbd5b0608	-0.05347255
70	0xbca19690	-0.019725114
71	0xbd8f61ca	-0.07001074
72	0xbd9c055a	-0.07618208
73	0xbd58002d	-0.052734543
74	0x3b8095a9	0.003924091
75	0x3d41cc75	0.047314126
76	0x3d066c58	0.03281817
77	0xbc90cb99	-0.017675208
78	0x3ba1431a	0.004921329
79	0xbcf89dd9	-0.030348705
80	0xbd032c67	-0.032024767
81	0xbd9d0577	-0.07667058
82	0x3cc2ee0a	0.023795146
83	0x3da4defd	0.08050344
84	0x3d5a2a79	0.05326316
85	0xbd759fc7	-0.05996683
86	0xbcea831c	-0.028626971
87	0xbdcdd04a	-0.100494936
88	0xbdb44e72	-0.08804025
89	0xbcb5af4c	-0.022178315
90	0x3d7194aa	0.058979668
91	0xbd1c8cde	-0.03822028
92	0x3d11aa28	0.035562664
93	0xbdd6c3f2	-0.10486592
94	0xbd4fcaba	-0.050730444
95	0x3d61bce0	0.055111766
96	0xbc8c1e50	-0.017104298
97	0x3c028475	0.0079661505
98	0x3d687af2	0.056757875
99	0xbdc8fea7	-0.09814196
100	0xbd4af2ce	-0.049547963
101	0xbd7434ac	-0.059620544
102	0xbd664bb1	-0.05622453
103	0x3d6b421e	0.0574361
104	0xbd788172	-0.060670324
105	0x3c30d82e	0.010793729
106	0xbd02c945	-0.031930227
107	0xbbc4b89a	-0.0060034515
108	0xbd9eb209	-0.07748801
109	0xbd4f1baf	-0.05056351
110	0xbd04d487	-0.032429244
111	0x3d0a469e	0.033758752
112	0xbdced0a3	-0.10098388
113	0x3d944f55	0.07241694
114	0x3cacf8be	0.021114703
115	0x3d152b98	0.036418527
116	0xbd5b4aa8	-0.053537995
117	0x3d0a43f1	0.0337562
118	0x3cc702b0	0.024293274
119	0xbcbac44e	-0.022798683
120	0xbccca0f2	-0.024979088
121	0xbc1108d0	-0.008852199
122	0x3ca6b2f0	0.020348996
123	0xbdde815f	-0.10864519
124	0xbd91055d	-0.07081101
125	0x3c62c02b	0.013839762
126	0x3b1a0681	0.0023502412
127	0xbd175a5e	-0.036951415
128	0xbd2234d3	-0.03960116
129	0xbd31095e	-0.043221824
130	0xbb83ea01	-0.004025698
131	0xbda77637	-0.081768446
132	0xbda2060f	-0.07911312
133	0x3d7c10e0	0.06153953
134	0xbc67dde7	-0.014152027
135	0xbd34e2eb	-0.04416172
136	0x3cee4ecf	0.029090313
137	0xbb3803ce	-0.002807844
138	0xbc766702	-0.015039207
139	0xbdaf0e40	-0.0854764
140	0x3d5a2071	0.053253595
141	0xbd09a732	-0.033606716
142	0xbdb23331	-0.0870117
143	0xbc9b032a	-0.018922407
144	0xbce1d4bd	-0.027567262
145	0x3ce6dafd	0.028180594
146	0xbd8801c0	-0.06640959
147	0xbcd910a0	-0.026497185
148	0x3d8bada1	0.068202265
149	0x3d89091a	0.06691189
150	0x3c27af64	0.0102346875
151	0xbd03c00b	-0.03216557
152	0xbc33971c	-0.01096132
153	0xbd4b609d	-0.049652684
154	0x3c71ebba	0.014765674
155	0x3d813400	0.06308746
156	0xbc60cdeb	-0.01372097
157	0x3d00a347	0.031405713
158	0xbc9aa8b8	-0.01887928
159	0x3da01256	0.07815997
160	0x3cf3c56c	0.029757224
161	0xbd1c2012	-0.038116522
162	0x3d0e5188	0.034745723
163	0xbce0ea56	-0.02745549
164	0x3da811e1	0.08206535
165	0xbd92986f	-0.07157981
166	0x3d00b7c6	0.03142526
167	0xbcf1e8cf	-0.029529957
168	0x3b140b28	0.0022589657
169	0x3d9619fe	0.07329176
170	0x3d2f15be	0.042745344
171	0xbd5b65e3	-0.053563964
172	0x3d8b357e	0.06797312
173	0x3bef4520	0.0073019415
174	0x3d8472ff	0.06467246
175	0x3b19b021	0.0023450928
176	0xbc6bac13	-0.014384287
177	0xbd0a616e	-0.033784322
178	0xbd03a67d	-0.032141197
179	0xbca58b19	-0.020207928
180	0xbcaea799	-0.021320151
181	0x3daf4fdd	0.085601546
182	0xbd326c42	-0.043560274
183	0x3ccc96c8	0.024974242
184	0x3ba1b892	0.0049353326
185	0xbb2050a7	-0.0024462135
186	0x3d7cec96	0.061749063
187	0xbd9531a3	-0.07284858
188	0x3d7e8548	0.062138826
189	0xbdaf8a3e	-0.085712895
190	0x3bf44513	0.0074545234
191	0xbd697e63	-0.057005297
192	0x3c2ee321	0.010674269
193	0xbd428dd7	-0.04749855
194	0xbd02e1a3	-0.031953465
195	0xbcb85d8b	-0.022505542
196	0xbd5798e6	-0.05263605
197	0x3d91c05e	0.07116769
198	0x3cc2a9ba	0.023762573
199	0xbda218ea	-0.07914908
200	0xbc767f94	-0.015045065
201	0xbd9fa546	-0.07795195
202	0xbd53c251	-0.051698986
203	0x3c8d7789	0.017268913
204	0xbd5f38e1	-0.054497603
205	0xbd869c4c	-0.0657278
206	0x3d803c69	0.06261522
207	0xbd7c280e	-0.061561637
208	0xbd22cf0d	-0.03974824
209	0xbd600c4b	-0.054699223
210	0xbd22cc39	-0.039745543
211	0x3d474e5f	0.048658725
212	0x3d5d02c0	0.0539577
213	0xbdb491f0	-0.08816898
214	0xbdaf69ed	-0.085651256
215	0xbd5e847a	-0.05432556
216	0x3d27780d	0.040885974
217	0x3d008e8a	0.031385936
218	0xbb1bb670	-0.0023759864
219	0x3da3cd6c	0.079981655
220	0xbcdcb574	-0.026941992
221	0x39910fd5	0.0002766835
222	0x3d4e7a90	0.050409853
223	0xbd53189a	-0.051537134
224	0xbcb18f5d	-0.021674806
225	0xbda0a06a	-0.078430966
226	0x3d357afe	0.044306748
227	0x3d7ef068	0.062240988
228	0xbd9d9b02	-0.07695581
229	0x3d0f4de4	0.03498639
230	0x3c155f24	0.009116922
231	0xbd8c5ff5	-0.0685424
232	0xbd41f301	-0.047350887
233	0xbd4c5842	-0.049888857
234	0xbd8639af	-0.06553971
235	0xbb73888b	-0.0037160243
236	0xbd4da09e	-0.050202005
237	0x3d9d3c26	0.07677488
238	0x3da016bd	0.07816837
239	0xbd1c6044	-0.038177744
240	0x3db36cc4	0.0876098
241	0x3cc0139c	0.02344685
242	0xbd558489	-0.05212835
243	0xbd60b86b	-0.054863375
244	0x3d8871ff	0.06662368
245	0x3c8f5732	0.017497633
246	0xbd2efaa9	-0.042719517
247	0xbdaaf827	-0.083481126
248	0x3d3ab3ca	0.045581616
249	0x3d2cc3f6	0.04217907
250	0xbb954c18	-0.00455619
251	0x3d974618	0.07386416
252	0x3c9d8fb6	0.019233566
253	0x39acd242	0.0003296305
254	0x3c90680d	0.01762774
255	0xbc8b60fc	-0.01701402

shared_layers.2.bias f4 [128]
0	0x3d2bd8de	0.041954868
1	0x3db0c2bf	0.08630895
2	0xbb58e93e	-0.0033098008
3	0xbd114f1e	-0.035475843
4	0xbda01345	-0.07816175
5	0x3c417642	0.01180798
6	0xbdafe35f	-0.085882895
7	0xbd391eb0	-0.04519528
8	0xbdbfad87	-0.093592696
9	0x3ca8b4a1	0.020593943
10	0xbd3fe64a	-0.04685048
11	0x3cc04b7d	0.023473496
12	0xbd8d56a3	-0.0690129
13	0xbda76ea1	-0.08175398
14	0x3d2cf749	0.042228017
15	0xbd8bd844	-0.06828359
16	0x3d77badd	0.06048094
17	0xbd6fefcd	-0.0585783
18	0x3d45e9d4	0.0483187
19	0xbca0bc5e	-0.01962107
20	0x3db4a024	0.08819607
21	0x3da338e9	0.07969839
22	0xbcf4daf1	-0.029889556
23	0x3bd12403	0.0063824668
24	0xbd4e0a63	-0.050302874
25	0x3c89cfba	0.016822685
26	0xbd8bd1c4	-0.06827119
27	0x3ca0be31	0.01962194
28	0xbd147be8	-0.03625098
29	0x3db6ee04	0.08932117
30	0xbcf14676	-0.029452544
31	0x3c92609d	0.017868334
32	0x3c700cf8	0.0146515295
33	0x3c13df14	0.009025354
34	0xbd269865	-0.04067268
35	0x3d986adf	0.07442259
36	0xbc39f382	-0.011349561
37	0x3c3749ad	0.011186999
38	0x3d874c40	0.066063404
39	0x3ded31b4	0.11581746
40	0xbcb83fcb	-0.022491356
41	0x3b82ca8a	0.0039914297
42	0x3d671ece	0.056425862
43	0xbc20a3d9	-0.009804689
44	0xbcaff704	-0.02148009
45	0x3c37318d	0.011181247
46	0xbdc23b7f	-0.09484004
47	0x3d769da0	0.060208917
48	0x3c270c91	0.010195867
49	0x3d283405	0.041065235
50	0x3d0af0d4	0.033921078
51	0x3c9eaeaf	0.019370405
52	0xbbb993f5	-0.00566339
53	0xbce9b28d	-0.028527522
54	0xbd23811e	-0.039918058
55	0xbd596035	-0.053070266
56	0x3ccd7a53	0.025082743
57	0x3d5b6009	0.053558383
58	0x3d620c6c	0.055187628
59	0xbc019898	-0.007909916
60	0x3d134517	0.03595456
61	0xbd6f0a67	-0.05835953
62	0xbdb3264e	-0.087475404
63	0x3db863f4	0.090034395
64	0x3d142862	0.036171325
65	0xbd57f1a7	-0.052720692
66	0xbd880f2a	-0.06643517
67	0x3ce0e310	0.027452022
68	0x3bc844ee	0.0061117327
69	0x3ceeb364	0.029138274
70	0xbd65c97c	-0.056100354
71	0xbd688377	-0.056766
72	0x3d3ec308	0.046572715
73	0xbd05554d	-0.032552052
74	0x3da91bea	0.08257277
75	0xbca14758	-0.01968734
76	0x3d093f7e	0.033507816
77	0xbc1cc10f	-0.009567513
78	0xbd8f78d3	-0.07005467
79	0x3d33f6c4	0.043936506
80	0xbc91ca68	-0.01779671
81	0xbd2d67d8	-0.04233536
82	0x3d5d5680	0.05403757
83	0x3bfaf59a	0.0076586725
84	0x3d862572	0.06550111
85	0xbd868ac3	-0.065694354
86	0x3ca6bd6d	0.020353997
87	0x3c6bd4bb	0.014393981
88	0x3cc861b9	0.02446066
89	0xbd29afc6	-0.041427396
90	0x3d1c88cb	0.038216393
91	0xbc4ae70f	-0.01238419
92	0xbda9ef48	-0.082975924
93	0xbc0ab712	-0.008466499
94	0xbdaf8577	-0.08570378
95	0xbd1b1748	-0.037864
96	0x3b734c9e	0.0037124525
97	0x3d5ca41d	0.053867448
98	0xbd1d5599	-0.03841171
99	0xbd981513	-0.074258946
100	0x3d881347	0.06644302
101	0xbd6dfc98	-0.05810222
102	0x3d9ba21b	0.075992785
103	0x3ad9af56	0.001660804
104	0x3d6436f6	0.055716477
105	0xbd342825	-0.043983597
106	0x3c9055d2	0.017619047
107	0x3d7bd1cd	0.06147938
108	0x3db51a36	0.0884289
109	0x3d9b6726	0.075880334
110	0xbd4a9ab8	-0.049463958
111	0xbd771b75	-0.06032892
112	0x3cc6a45c	0.024248295
113	0x3d20fe18	0.039304823
114	0xbbc73e3b	-0.0060804165
115	0xbd6580e8	-0.056031138
116	0x3db1e701	0.086866386
117	0x3dca69e8	0.09883481
118	0xbc96e830	-0.018421263
119	0x3c04f519	0.008115076
120	0x3d075588	0.033040553
121	0xbdabf888	-0.08397013
122	0x3cd51b1f	0.026013909
123	0xbcf12559	-0.029436754
124	0xbcd7bd6a	-0.026335437
125	0x3d204048	0.039123803
126	0xbc2bc2f3	-0.010483491
127	0xbd435e8e	-0.047697596

shared_layers.5.weight f4 [128, 128]
0	0x3d0a9dc7	0.033841874
1	0x3d5871c5	0.052842874
2	0x3c57b396	0.013165375
3	0x3d05d515	0.032673914
4	0x3daf20e7	0.085511975
5	0xbd9a84a6	-0.07544832
6	0xbcd4eaaf	-0.025990812
7	0x3cef3f18	0.02920489
8	0x3d840144	0.06445554
9	0xbdb81f71	-0.08990372
10	0xbd61e1da	-0.05514703
11	0x3d130920	0.035897374
12	0xbd849836	-0.064743444
13	0x3d44d80b	0.048057597
14	0xbce59500	-0.02802515
15	0x3d3d7aea	0.046259798
16	0x3d827b31	0.06371153
17	0xbcbb7214	-0.022881545
18	0x3db2f022	0.08737208
19	0xbd9d96d6	-0.07694785
20	0x3d8baed2	0.06820454
21	0x3da1a6ee	0.078931674
22	0x3d0365e6	0.0320796
23	0x3da351f6	0.07974617
24	0xbd644ac9	-0.055735383
25	0x3d62cc02	0.05537034
26	0xbd9a35a2	-0.07529761
27	0xbd8c6421	-0.068550356
28	0x3d77103f	0.060318228
29	0x3d2387d0	0.039924443
30	0x3c4a0d65	0.012332295
31	0xbd917e50	-0.0710417
32	0x3d19b76a	0.037528433
33	0xbdaac826	-0.083389565
34	0xbd4d1b4a	-0.050074853
35	0xbd9c1776	-0.07621662
36	0x3c82b865	0.015957067
37	0xbd76d4c8	-0.060261518
38	0x3d25f921	0.04052079
39	0xbe07a335	-0.13245852
40	0x3d57ab72	0.052653737
41	0x3d58cb96	0.05292853
42	0xbcbafec1	-0.022826554
43	0x3d4f08d7	0.05054554
44	0x3d98b53d	0.074564435
45	0xbd6c845e	-0.057743423
46	0x3d0fa125	0.03506579
47	0x3d5aa0b5	0.05337592
48	0x3d1d8557	0.03845724
49	0xbd3046c7	-0.04303625
50	0x3cb23da2	0.021757904
51	0xbd1ac0c1	-0.03778148
52	0x3d1e007a	0.038574673
53	0xbd32ee62	-0.04368437
54	0xbb8198fd	-0.003955005
55	0x3d41d346	0.047320627
56	0xbb55da90	-0.0032631494
57	0xbdb0d243	-0.08633854
58	0xbd199d7a	-0.037503697
59	0x3d24cfae	0.04023712
60	0xbd7ce902	-0.06174565
61	0xbcc2654a	-0.023729939
62	0x3d870dc6	0.06594424
63	0xbcccc832	-0.024997804
64	0x3d470884	0.048592106
65	0x3d7d5c1f	0.06185543
66	0xbddd5f83	-0.10809233
67	0x3d55a435	0.052158553
68	0x3d6f4be0	0.05842197
69	0xbc6bcdc1	-0.014392317
70	0xbcc5c4d8	-0.024141714
71	0x3d9389f6	0.07204048
72	0x3d7c90ad	0.06166141
73	0xbd67689b	-0.056496244
74	0xbbe502ce	-0.0069888597
75	0x3d727318	0.059191793
76	0x3cf80e7d	0.030280346
77	0x3c541ff7	0.012947074
78	0xbd031eb5	-0.032011706
79	0xbcde965c	-0.027171306
80	0x3d7eb23e	0.062181704
81	0x3cdd5762	0.027019206
82	0x3ce5848a	0.028017301
83	0x3d96457d	0.073374726
84	0xbdde9d2d	-0.10869823
85	0x3d8f5192	0.0699798
86	0xbd85d536	-0.065348074
87	0x3b63f93c	0.0034786006
88	0xbc5a978c	-0.013341796
89	0xbdab36de	-0.083600745
90	0xbd91a72d	-0.071119644
91	0x3dae7e33	0.08520164
92	0x3d6b3c1d	0.057430375
93	0x3d218398	0.03943214
94	0x3c93bc75	0.0180342
95	0xbd5d2ec3	-0.053999674
96	0x3da56ef7	0.080778055
97	0xbd64d7cb	-0.05586986
98	0xbd8a1246	-0.06741767
99	0xbc523685	-0.012830381
100	0x3d27f72b	0.041007202
101	0x3c2a124a	0.010380337
102	0xbb4a4895	-0.0030866016
103	0x3c7c80f8	0.015411608
104	0x3d4873ef	0.048938688
105	0xbc5ffc08	-0.013670929
106	0x3d8bf595	0.068339504
107	0xbcbf251f	-0.02333313
108	0xbce13ac5	-0.027493844
109	0xbd6b472b	-0.057440918
110	0xbc5f305e	-0.0136223715
111	0xbd3c7b5b	-0.04601608
112	0xbd0eabe4	-0.034831896
113	0xbd99115f	-0.074740164
114	0x3d9cee90	0.0766269
115	0xbcce11ac	-0.025154911
116	0xbd45cdd6	-0.048292004
117	0xbd06a4a5	-0.03287186
118	0xbdee9957	-0.11650341
119	0x3d720f1e	0.059096448
120	0x3d1169bc	0.035501227
121	0x39ec08ee	0.0004502008
122	0x3cf73603	0.030177122
123	0x3d7473b3	0.059680652
124	0xbd2ccb7f	-0.042186256
125	0xbd80efc0	-0.06295729
126	0xbd4b1845	-0.049583692
127	0xbd11cbf2	-0.035594888
128	0xbd05792b	-0.032586258
129	0x3c94cbb6	0.018163543
130	0x3c744a46	0.014910286
131	0x3d11de3b	0.035612326
132	0xbd08a17d	-0.033357132
133	0xbc92f900	-0.017940998
134	0x3d50ba80	0.05095911
135	0x3d47ca1e	0.04877674
136	0x3ce33d3b	0.027739158
137	0xbcb865e4	-0.022509523
138	0x3d6638db	0.056206565
139	0xbd74c46f	-0.059757646
140	0x3d95b8c4	0.07310632
141	0x3c9eaf19	0.019370602
142	0xbd8861ef	-0.06659304
143	0x3d4265ce	0.04746037
144	0x3ceb05b6	0.028689247
145	0x3d902cf9	0.07039828
146	0xbd8cb906	-0.06871228
147	0x3d373f2c	0.04473798
148	0x3d93fc95	0.072259106
149	0x3ceaee9b	0.02867823
150	0x3b0e3126	0.0021696775
151	0x3d22b784	0.039725795
152	0x3d1826f9	0.037146542
153	0xbd189ec0	-0.03726077
154	0x3d99f896	0.07518117
155	0xbd161182	-0.03663779
156	0xbd6964aa	-0.056980766
157	0xbd9ec0e2	-0.07751633
158	0xbd933c46	-0.071892306
159	0xbdae9da4	-0.08526161
160	0x3ccc48e3	0.024937099
161	0xbd221e23	-0.039579522
162	0xbca75687	-0.020427002
163	0x3ce6ac47	0.02815832
164	0xbcfd337c	-0.030908339
165	0x3d9a59f4	0.075366884
166	0x3d49967a	0.04921577
167	0xbd6bb929	-0.05754963
168	0xbc47fed2	-0.01220675
169	0xbd636998	-0.055520624
170	0x3da95bb7	0.08269446
171	0x3d0f7e79	0.035032723
172	0xbd3d8b58	-0.046275467
173	0xbcd11a6a	-0.02552529
174	0xbda00326	-0.078131005
175	0xbd2a5105	-0.041581172
176	0xbc1cefa0	-0.009578615
177	0xbda175bb	-0.078837834
178	0xbd0c2639	-0.03421614
179	0xbd0c989e	-0.034325235
180	0x3d85aa2b	0.065265976
181	0xbd94d6ac	-0.07267508
182	0x3d5ea0ab	0.054352444
183	0xbdb3efa4	-0.08785942
184	0x3d6a7af5	0.057246167
185	0x3c690827	0.014223135
186	0xbdca9da0	-0.09893346
187	0x3d875fda	0.06610079
188	0xbdb6aa12	-0.08919157
189	0xbd9baf66	-0.07601814
190	0xbd7dcf16	-0.06196507
191	0xbdb93983	-0.090441726
192	0xbd4a8b7d	-0.049449433
193	0x3d03b636	0.03215619
194	0x3c845770	0.016154975
195	0x3d05c926	0.032662533
196	0x3d816e68	0.063198864
197	0xbdc74a34	-0.0973095
198	0xbd9b46dd	-0.075818755
199	0x3d5edf43	0.054412138
200	0xbd5d1345	-0.053973455
201	0xbd5d5731	-0.05403823
202	0xbd172de4	-0.036909
203	0xbd79e5dc	-0.061010227
204	0xbd717c24	-0.05895628
205	0x3c7a2e10	0.015269771
206	0xbd9e3df9	-0.07726664
207	0xbdbe7983	-0.0930052
208	0xbd899090	-0.06717026
209	0xbd520811	-0.051277224
210	0xbd378e24	-0.04481329
211	0xbd6381c7	-0.055543687
212	0x3d425c9f	0.04745161
213	0x3d062d6a	0.032758154
214	0x3d4f877d	0.05066632
215	0xbd2e71bf	-0.042588945
216	0x3ccbbf50	0.024871498
217	0x3cada4f4	0.02119682
218	0x3d77b4a4	0.060475007
219	0xbd445b80	-0.047938824
220	0xbd8ab552	-0.06772865
221	0x3d406419	0.04697046
222	0xbd3513db	-0.04420839
223	0x3d5a186f	0.053245958
224	0x3d48655f	0.0489248
225	0xbd6b644f	-0.05746871
226	0xbdaecce7	-0.08535176
227	0xbc47282a	-0.012155572
228	0x3cbb4e88	0.022864595
229	0x3b957a7f	0.004561722
230	0x3d25f21f	0.040514108
231	0xbdbbf940	-0.091784
232	0xbcf8a0ad	-0.030350054
233	0xbb0d4bb1	-0.0021560008
234	0x3d676803	0.056495678
235	0xbdcc0def	-0.09963595
236	0xbd9b16fe	-0.07572745
237	0x3b433300	0.0029785037
238	0x3ccb8d1b	0.024847558
239	0x3d9a2ed1	0.07528461
240	0xbc3de4cb	-0.011590193
241	0xbd57f130	-0.05272025
242	0xbcded2ac	-0.027200066
243	0xbcef14ee	-0.029184785
244	0xbd123061	-0.03569067
245	0x3cb69d3b	0.02229177
246	0x3d2ceb4b	0.04221658
247	0xbd33f3ab	-0.04393355
248	0xbc872baf	-0.016500322
249	0x3d1a3a4a	0.037653245
250	0xbda389a5	-0.07985238
251	0xbde7e5a4	-0.11323097
252	0x3bec90b1	0.007219397
253	0x3d5c31ef	0.053758558
254	0x3d59c4f9	0.053166363
255	0xbd0c8e60	-0.034315467

shared_layers.5.bias f4 [128]
0	0xbbdabf1d	-0.0066756145
1	0xbd31841b	-0.043338876
2	0xbb8a3414	-0.004217634
3	0xbcf776e2	-0.030208055
4	0xbda1ecbc	-0.079064816
5	0x3daa781f	0.083236925
6	0xbd610e7d	-0.054945458
7	0x3e2d0ed2	0.16900185
8	0xbc97adda	-0.018515516
9	0x3da1c7a9	0.0789941
10	0xbd8b2a14	-0.06795135
11	0xbc8b88d2	-0.017033014
12	0xbbac69e6	-0.0052616475
13	0xbca32eea	-0.019919831
14	0x3c243838	0.010023169
15	0xbd0cb23f	-0.034349676
16	0xbdc5b35a	-0.09653349
17	0x3e3ea5e5	0.18617971
18	0xbd823da0	-0.0635941
19	0xbd286e8c	-0.04112105
20	0xbd11a679	-0.03555915
21	0x3e1ea4c4	0.1549254
22	0xbcc4bef4	-0.024016835
23	0xbcc7b201	-0.024376871
24	0x3dc7283e	0.097244725
25	0x3daa3f5c	0.08312866
26	0xbc8da816	-0.017292064
27	0xbdd2cba4	-0.102927476
28	0x3d37a980	0.044839382
29	0x3cb5c051	0.02218643
30	0xbd1908da	-0.037361957
31	0x3e03814f	0.12842296
32	0x3cfee832	0.031116579
33	0x3cdeccd3	0.027197277
34	0xbde7aa2b	-0.11311754
35	0xbc7f8df3	-0.015597808
36	0xb99a0b4f	-0.00029381595
37	0x3e10de82	0.1414738
38	0x3d1d5498	0.038410753
39	0xbc9ba206	-0.018998157
40	0x3ddb9872	0.10722436
41	0xbcd7256f	-0.026262967
42	0xbd3c3cc2	-0.04595638
43	0xbd2c1c1f	-0.042019006
44	0xbdb24bba	-0.0870585
45	0xbd488cdb	-0.048962455
46	0xbd95ab51	-0.07308067
47	0x3e4683d2	0.19386223
48	0xbb87ee5c	-0.0041482877
49	0xbd06dfae	-0.03292816
50	0x3e25a168	0.16174853
51	0xbdd2ac91	-0.10286821
52	0xbdad7771	-0.08470047
53	0xbd46dc9e	-0.04855024
54	0xbc97f9db	-0.018551758
55	0x3dfe9211	0.12430204
56	0x3d41567f	0.04720163
57	0xbdd490dd	-0.10379193
58	0xbd348c03	-0.044078838
59	0x3c116e1a	0.008876348
60	0x3e15ede0	0.14641523
61	0xbdcd73da	-0.100318626
62	0xbd7ff837	-0.062492575
63	0xbd9adb08	-0.07561308
64	0xbc87e683	-0.016589409
65	0x3e1b9cc4	0.1519652
66	0x3c7f9dd6	0.015601596
67	0xbc0e00f1	-0.008667217
68	0xbbe80916	-0.0070811613
69	0xbca6f11d	-0.020378644
70	0x3d82d352	0.063879624
71	0xbd843463	-0.064553045
72	0x3da04b9f	0.078269236
73	0x3d0c9d26	0.034329556
74	0xbdcb3e24	-0.09923962
75	0x3df9a488	0.12189585
76	0x3e09e6bd	0.13466926
77	0xbb0ffc40	-0.002197042
78	0xbbe4b38b	-0.006979411
79	0x3cfd38ee	0.030910935
80	0x3dbcc8e5	0.09218005
81	0xbde3eb43	-0.11128857
82	0x3dab0e3c	0.08352324
83	0x3dae3391	0.08505929
84	0xbcd725e4	-0.026263185
85	0x3e0f3641	0.1398554
86	0x3dd56c8d	0.10421095
87	0x3e25fe05	0.16210182
88	0x3e33b175	0.17548163
89	0x3dabe206	0.0839272
90	0x3e2240c0	0.15845013
91	0x3db28fe0	0.08718848
92	0xbd7a327d	-0.061083306
93	0x3e111b94	0.14170676
94	0xbd8f1a3e	-0.06987427
95	0xbd3a36cb	-0.04546241
96	0xbd3f25bd	-0.04666685
97	0x3d9dc88d	0.07704268
98	0x3ddb6bc4	0.10713914
99	0x3e1fb062	0.15594628
100	0x3e2086f4	0.1567648
101	0xbde90d70	-0.11379516
102	0xbdeb023a	-0.11475034
103	0xb9b85be1	-0.0003516367
104	0xbcc5cbbe	-0.024145003
105	0x3dfc81fb	0.12329479
106	0x3d8cd9de	0.06877492
107	0x3e4bb505	0.19893272
108	0xbd048439	-0.03235266
109	0xbd23e288	-0.04001096
110	0x3df3bc13	0.11901107
111	0x3e15dfdd	0.14636178
112	0x3e25dd4c	0.161977
113	0x3c1a760f	0.009427561
114	0xbb1e3c0d	-0.002414468
115	0xbcdc7d48	-0.026915208
116	0x3de61c51	0.1123587
117	0x3c105450	0.008809164
118	0xbde65dd3	-0.11248364
119	0xbcafa60e	-0.021441486
120	0xbdbc051c	-0.09180662
121	0x3e1a3fdd	0.15063424
122	0x3cbd7d91	0.023131164
123	0x3cb960e8	0.022629216
124	0x3ce0e1a2	0.02745134
125	0x3c80720c	0.015679382
126	0xbdd629d9	-0.104572006
127	0x3de64f81	0.11245633

actor_head.0.weight f4 [128, 128]
0	0xbdadafc5	-0.08480791
1	0x3c2d110e	0.010563148
2	0xbc97e413	-0.018541371
3	0x3cff0044	0.031128056
4	0xbb962866	-0.0045824526
5	0xbd2ef555	-0.042714436
6	0x3cbed05d	0.023292715
7	0x3e1b548f	0.15168975
8	0xbd36873d	-0.044562567
9	0x3d9c9b3c	0.07646796
10	0x3d555bc6	0.052089475
11	0xbcd54739	-0.026034938
12	0x3db3d621	0.08781076
13	0xbd8b819e	-0.06811832
14	0x3c3cfaf8	0.011534445
15	0xbdae7b6c	-0.085196346
16	0xbd95c702	-0.07313348
17	0x3d8bd58e	0.06827842
18	0x3cf0bd4a	0.029387135
19	0x3d756dd9	0.059919212
20	0xbd800d08	-0.062524855
21	0x3e023a65	0.12717588
22	0x3adcd98b	0.0016849501
23	0xbcbae835	-0.022815803
24	0x3de576c6	0.11204295
25	0xbd4b5495	-0.04964121
26	0xbccea393	-0.025224483
27	0x3bdf42b8	0.0068133734
28	0x3cf7d994	0.030255117
29	0x3db0e907	0.086381964
30	0xbda308b8	-0.07960647
31	0x3e116363	0.1419807
32	0x3dc70189	0.0971709
33	0xbccfda56	-0.025372665
34	0x3cad4aba	0.021153796
35	0xbd28f0ee	-0.041245393
36	0x3d44ce87	0.048048522
37	0x3e2530db	0.16131918
38	0xbdfb5887	-0.122727446
39	0xbe0e9159	-0.13922633
40	0x3c5111fe	0.012760637
41	0xbd30c73d	-0.04315876
42	0xbd4895cb	-0.04897098
43	0x3dda4103	0.10656931
44	0xbba49b40	-0.00502339
45	0x3aec6c19	0.0018037587
46	0x3ce0da74	0.027447917
47	0x3d4237d4	0.047416523
48	0xbc30e123	-0.010795864
49	0x3d850c85	0.064965285
50	0x3e0496b9	0.12948121
51	0x3d901292	0.07034792
52	0xbd70f27c	-0.058825
53	0xbc46a766	-0.012124872
54	0x3d29d7f5	0.04146572
55	0x3bc2bc61	0.0059428667
56	0x3c68b907	0.01420427
57	0x3c5a3d52	0.013320284
58	0xbc852479	-0.016252743
59	0xbd91f651	-0.07127059
60	0x3d7680ea	0.060181536
61	0xbd5d4660	-0.054022193
62	0xbddcff99	-0.10790939
63	0x3d93669e	0.07197307
64	0xbc28802b	-0.010284464
65	0x3d560dcc	0.05225925
66	0x3da72eb0	0.08163202
67	0x3d4c7679	0.04991767
68	0x3d14a3c9	0.03628901
69	0xbd7814e4	-0.060566798
70	0x3ca1151d	0.019663388
71	0xbd49984f	-0.04921752
72	0x3d342aaa	0.043986
73	0x3d64d5ee	0.05586808
74	0xbd19a491	-0.03751046
75	0x3dc2b073	0.09506311
76	0x3d87dab4	0.06633511
77	0xbe1d87e0	-0.15383863
78	0x3d3c449f	0.04596388
79	0xbd3a0e42	-0.045423754
80	0xbd48e712	-0.04904849
81	0x3c9a3e2d	0.018828476
82	0x3d52ee97	0.05149707
83	0xbb8e2997	-0.004338454
84	0x3b8499f9	0.0040466753
85	0x3bebc55a	0.007195157
86	0xb9f86212	-0.00047375314
87	0xbace72d7	-0.0015750778
88	0x3d24640b	0.04013447
89	0xbcdbbb67	-0.026822759
90	0x3d8f110c	0.06985673
91	0x3d13481f	0.035957452
92	0xbdf89953	-0.12138619
93	0x3dd9869d	0.106213786
94	0xbd22b30a	-0.039721526
95	0xbd8bac1a	-0.06819935
96	0x3d6b6ca3	0.05747665
97	0xbc6e48f7	-0.014543763
98	0x3de49b12	0.1116239
99	0x3e0f496b	0.1399285
100	0x3da8cd36	0.08242266
101	0x3d2e2bb1	0.042522136
102	0x3cb8d532	0.022562597
103	0xbd378dde	-0.04481303
104	0x3d841c9a	0.06450768
105	0x3db462a5	0.088078775
106	0x3cc4bb69	0.024015145
107	0x3e2c2115	0.16809495
108	0xbdf2ef58	-0.118620574
109	0x3d626fed	0.055282522
110	0x3d9c33aa	0.07627042
111	0x3d5bdf56	0.053679787
112	0xbcb03b50	-0.021512657
113	0x3d4d13a5	0.050067563
114	0xbd8968ed	-0.06709466
115	0xbc042f27	-0.008067883
116	0x3db67ec5	0.08910898
117	0xbda5a353	-0.08087792
118	0xbbc2521a	-0.0059301974
119	0x3c5d9df2	0.013526427
120	0x3d47143f	0.048603293
121	0x3ddd71d3	0.10812726
122	0x3ddb7fb3	0.10717716
123	0x3daef654	0.08543077
124	0x3dc13b89	0.094351836
125	0xbda70a9d	-0.08156321
126	0xbd87a318	-0.066229045
127	0x3bacc090	0.0052719787
128	0xbc8c5f76	-0.017135363
129	0x3da30fa4	0.079619676
130	0x3d0b8c5d	0.034069408
131	0xbd9c2548	-0.07624298
132	0xbc49f8bb	-0.012327368
133	0x3cd8500f	0.026405362
134	0x3d169d60	0.03677118
135	0xbc31f839	-0.010862404
136	0x3d112f89	0.035445724
137	0x3d5a0097	0.05322322
138	0x3d9adcc8	0.07561642
139	0x3c5fa26b	0.013649563
140	0xbd050847	-0.032478597
141	0xbdca34e8	-0.09873372
142	0x3da8b90e	0.082384214
143	0xb9b70743	-0.0003490989
144	0x3d3b732b	0.04576413
145	0xbd1c74e1	-0.038197402
146	0xbd3cfe91	-0.04614121
147	0x3d932f0a	0.07186706
148	0x3d66143e	0.05617165
149	0x3ca2510a	0.019814033
150	0xbc49bde8	-0.012313344
151	0x3d527717	0.051383104
152	0xbc83a89d	-0.016071612
153	0xbd710ff4	-0.058853105
154	0xbd57c21d	-0.052675355
155	0x3d1ed64e	0.038778596
156	0xbd0911dd	-0.0334643
157	0x3ccbdb37	0.024884803
158	0x3d88aef0	0.06673992
159	0x3d7995b2	0.060933776
160	0x3d8d3561	0.06894947
161	0xbd10f32c	-0.035388157
162	0xbd5d867c	-0.054083332
163	0xbc7a105c	-0.015262689
164	0xbda5443a	-0.08069654
165	0x3d602333	0.05472107
166	0xbd22c525	-0.039738793
167	0xbd3d81fa	-0.046266533
168	0xbd7ce1dd	-0.061738838
169	0xbcea1a8f	-0.028577117
170	0xb97ba67c	-0.00023999246
171	0x3c10b5ad	0.008832377
172	0xbd778d70	-0.06043762
173	0x3c88811a	0.016663123
174	0xbdb03dd2	-0.08605541
175	0x3d1f07ba	0.038825728
176	0x3da89cb5	0.082330145
177	0xbb3d9615	-0.0028928567
178	0x3ccf3072	0.025291655
179	0xbabf1a99	-0.001458007
180	0x3c0babbd	0.008524832
181	0x3d9bcc65	0.076073445
182	0x3d6c4c26	0.05768981
183	0x3c4c566e	0.012471778
184	0xbcb62d31	-0.022238346
185	0xbd256a1e	-0.040384404
186	0xbcb2913e	-0.021797772
187	0xbd375012	-0.044754095
188	0xbd1b77a2	-0.037955888
189	0xbc51133c	-0.0127609335
190	0xbd466fef	-0.048446592
191	0xbd396dc2	-0.04527069
192	0xbda92613	-0.08259215
193	0x3d493d60	0.049130797
194	0xbd42d549	-0.047566686
195	0xbdb92826	-0.09040861
196	0xbdb0e6e0	-0.08637786
197	0xbccf271c	-0.025287203
198	0xbd8c28a8	-0.06843692
199	0xbd1f7d81	-0.03893805
200	0x3b47b307	0.00304717
201	0xbdb5b4dc	-0.08872387
202	0xbbc92a20	-0.006139055
203	0xbc1992c5	-0.0093733715
204	0x3cc5364f	0.024073748
205	0x3c4b78ce	0.012418939
206	0xbd9b0b21	-0.07570482
207	0x3d8c51c8	0.06851536
208	0xbd810b18	-0.06300944
209	0xbdb52813	-0.08845534
210	0xbd1ee685	-0.03879406
211	0x3d44ec05	0.04807665
212	0xbd855e52	-0.06512131
213	0xbc80c007	-0.015716566
214	0x3b32545d	0.002721093
215	0x3d815672	0.06315316
216	0xbda9ce10	-0.082912564
217	0xbd95b1af	-0.07309281
218	0xbd438ad2	-0.04773981
219	0xbd907bd0	-0.07054865
220	0xbc1c0fd1	-0.009525255
221	0x3caf861d	0.021426255
222	0x3b60e42b	0.0034315686
223	0xbd71bbbd	-0.05901693
224	0xbd2c9048	-0.042129785
225	0xbd1a93f5	-0.03773876
226	0xbc156528	-0.009118356
227	0xbd9af334	-0.075659186
228	0xbd530bb6	-0.05152484
229	0xbd307c31	-0.04308719
230	0x3d4ebbc7	0.050472047
231	0xbc97dc02	-0.018537525
232	0xbd628188	-0.055299312
233	0x3ce52877	0.027973397
234	0xbcdbec89	-0.026846187
235	0x3d0bdba0	0.034144998
236	0xbcfcff42	-0.030883435
237	0x3d022452	0.03177292
238	0x3d78cf91	0.060744826
239	0xbdb85a56	-0.09001605
240	0xbc972309	-0.018449323
241	0xbd069988	-0.032861263
242	0xbd2b1ad4	-0.041773632
243	0xbc40e1c0	-0.011772573
244	0x3d5f82a0	0.054567933
245	0xbdae8d15	-0.08523003
246	0x3d6422d9	0.055697296
247	0x3d97b94d	0.0740839
248	0x3ca8a829	0.020587998
249	0x3cc2a9d5	0.023762623
250	0x3ca79fdc	0.02046197
251	0x3d2a0b99	0.041514967
252	0xbd9f2707	-0.07771116
253	0xbdd016b6	-0.10160582
254	0xbd9df1a0	-0.07712102
255	0x3d76f6b4	0.06029387

actor_head.0.bias f4 [128]
0	0x3e560dd5	0.20903714
1	0xbd78daa5	-0.06075539
2	0x3c3064da	0.010766232
3	0xbd96e48e	-0.07367812
4	0x3df61f50	0.12017691
5	0xbd346c01	-0.044048313
6	0x3dbc2ecb	0.091886126
7	0xbdcd6a03	-0.10029986
8	0x3ce2c79a	0.027683068
9	0x3c90e7e7	0.017688705
10	0x3e7b2ff9	0.24530019
11	0xbd436d84	-0.047711864
12	0xbdbe910b	-0.093050085
13	0x3df1c1fc	0.11804578
14	0xbdb7c0ae	-0.089722976
15	0x3d3d982b	0.046287697
16	0xbd2f9396	-0.04286536
17	0x3e8d9f53	0.27660617
18	0x3cc47c96	0.023985188
19	0x3d76c878	0.060249776
20	0x3dcb9322	0.09940173
21	0x3d4f0f5f	0.05055177
22	0xbc3c172a	-0.011480132
23	0x3caa7adc	0.020810537
24	0x3d94f0a0	0.07272458
25	0xbd8a9ded	-0.06768403
26	0xbd2e8a2a	-0.042612232
27	0x3e5f792c	0.21823567
28	0xbc16704e	-0.009182049
29	0x3dd64228	0.10461837
30	0xbd4bca2d	-0.049753357
31	0xbd213d74	-0.039365247
32	0x3deb64bc	0.11493823
33	0x3deb63d6	0.114936516
34	0xbcd244b4	-0.025667526
35	0x3e5e44d1	0.21705939
36	0xbbbf42d7	-0.0058368254
37	0xbd229340	-0.03969121
38	0x3e1a47f2	0.15066507
39	0x3cdf1264	0.027230449
40	0x3d49a278	0.049227208
41	0x3e6fb19d	0.23407598
42	0x3dc143d4	0.09436765
43	0x3e45da57	0.19321571
44	0x3e2c309f	0.16815422
45	0xbc93991d	-0.018017346
46	0x3e57e13c	0.21082014
47	0xbd53301c	-0.051559553
48	0xbc7b67a0	-0.01534453
49	0xbcd990a0	-0.02655822
50	0x3e3e771b	0.18600123
51	0x3e1cf01a	0.15325966
52	0xbca33b1a	-0.019925643
53	0x3df5d87a	0.1200418
54	0x3d93b56b	0.07212337
55	0x3d019747	0.03163841
56	0xbd1b6a9f	-0.03794348
57	0x3df63467	0.12021714
58	0xbd92c266	-0.07165985
59	0x3da1b8bd	0.07896564
60	0x3dda5aa3	0.10661819
61	0xbbc76e54	-0.00608615
62	0x3d22e8ad	0.03977268
63	0xbd16ce78	-0.036817998
64	0xbd2b8741	-0.041877035
65	0x3dba9b59	0.091116615
66	0xbd7a63e8	-0.061130434
67	0x3d9da54c	0.076975435
68	0x3dfe2648	0.12409645
69	0x3c34310e	0.010998024
70	0x3e2e4cce	0.17021486
71	0x3db14495	0.08655659
72	0x3d37e2bb	0.04489396
73	0xbd8068a6	-0.0626996
74	0xbc1ba30a	-0.009499321
75	0xbd713dab	-0.0588967
76	0xbde829cc	-0.11336097
77	0xbdd2c2a5	-0.10291032
78	0x3e912239	0.28346422
79	0x3e406b18	0.18790853
80	0x3d6b0da3	0.057386052
81	0xbd207f18	-0.039183706
82	0xbbd8ea5e	-0.0066197356
83	0x3e71892a	0.2358748
84	0xbd248882	-0.040169246
85	0xbd015014	-0.03157051
86	0xbc062f5e	-0.008190004
87	0x3e6052bf	0.21906565
88	0xbc47a242	-0.012184681
89	0xbdc7a63c	-0.097485036
90	0xbd09530e	-0.033526473
91	0x3dc1e679	0.09467787
92	0x3cd97c48	0.02654852
93	0x3d00291c	0.031289205
94	0x3e5c4abb	0.21512882
95	0xbdd8eb3d	-0.10591743
96	0x3ce662b9	0.028123247
97	0xbd705974	-0.05867906
98	0x3e635188	0.2219907
99	0xbda4d1e2	-0.080478445
100	0x3d8877e5	0.06663493
101	0xb9a77f5d	-0.00031947615
102	0xbd5f6538	-0.05453989
103	0x3e477453	0.19477968
104	0xbdb7e663	-0.0897949
105	0xbc25147b	-0.010075684
106	0x3d980b12	0.074239865
107	0xbd803d65	-0.0626171
108	0xbdb98bb4	-0.090598494
109	0xbda63913	-0.08116355
110	0xbd10fa03	-0.03539468
111	0x3df3bda2	0.11901404
112	0xbda9b389	-0.08286197
113	0x3e8fb566	0.28068084
114	0xbcca8395	-0.024720946
115	0xbc2ceb6a	-0.010554174
116	0xbdd8a2dd	-0.10577939
117	0xbc4daec0	-0.012553871
118	0xbd2b5630	-0.04183024
119	0xbdd763ad	-0.105170585
120	0x3c905590	0.017618924
121	0xbdbe156f	-0.09281432
122	0x3d8adaad	0.0677999
123	0x3de7616f	0.11297881
124	0x3dc62132	0.096743
125	0x3e98ccd7	0.2984378
126	0x3cbcf755	0.023067156
127	0x3d5a2cef	0.05326551

actor_head.2.weight f4 [4, 128]
0	0x3dd8f6e3	0.10593965
1	0x3c989966	0.018627834
2	0xbd5ca5c3	-0.05386902
3	0x3cb9504c	0.022621296
4	0x3d65fd53	0.056149792
5	0xbd0eb585	-0.03484108
6	0xbc5ae1ad	-0.013359469
7	0xbbf44cf2	-0.0074554617
8	0xbd4ef28a	-0.050524272
9	0xbd9018e9	-0.07036001
10	0x3cd59501	0.026072027
11	0xbcd98ded	-0.026556933
12	0xbc311e22	-0.010810407
13	0x3d97ee88	0.07418543
14	0x3d1b9d8f	0.037992056
15	0x3cc00eac	0.023444496
16	0xbd1ae80f	-0.037818965
17	0x3d6c3d22	0.05767549
18	0x3d0a582c	0.033775494
19	0x3cf93b7b	0.03042387
20	0xbd3b2410	-0.04568869
21	0x3cb3353e	0.021875974
22	0x3d3bf5a3	0.045888554
23	0xbd9903f9	-0.07471461
24	0xbd245ccf	-0.04012757
25	0xbd39bf78	-0.045348614
26	0xbd7ad379	-0.061236832
27	0x3df655b0	0.12028062
28	0xbd8d2099	-0.06890983
29	0x3d967391	0.07346261
30	0x3cf62668	0.03004761
31	0xbd99a429	-0.07502014
32	0x3dc96d38	0.09835285
33	0x3dc83e47	0.097775035
34	0xbc724b67	-0.014788485
35	0x3d9dbd8b	0.07702168
36	0x3d94c442	0.07263996
37	0xbdb469b9	-0.088092275
38	0x3d0055e1	0.0313319
39	0x3cd3bec2	0.025847796
40	0x3c9ac2f4	0.018891789
41	0x3e1fce1a	0.15605965
42	0xbbd4c2e3	-0.006492959
43	0x3d24e7d4	0.04026015
44	0x3db6ec8e	0.08931838
45	0x3d93346e	0.071877345
46	0x3dbd08cc	0.092301935
47	0xbd94cd50	-0.07265723
48	0x3caf612f	0.021408645
49	0x3cdcb9b6	0.026944023
50	0x3d5be076	0.05368086
51	0x3dcca00f	0.09991466
52	0x3d5219dc	0.051294193
53	0x3d8f75ed	0.070049144
54	0xbd1697c2	-0.03676582
55	0xbd5a3c4f	-0.05328017
56	0xbcbcf3c3	-0.023065453
57	0x3d23fe53	0.040037464
58	0xbd7e9c20	-0.06216061
59	0xbcf42bd4	-0.029806055
60	0x3dafd84b	0.085861765
61	0xbdc52a3a	-0.09627195
62	0xbe4dce9d	-0.20098348
63	0x3d848dd7	0.06472366
64	0xbd47e87a	-0.04880569
65	0x3d4b86cf	0.04968911
66	0x3d1ba5cc	0.037999913
67	0xbdb151ae	-0.08658157
68	0x3d9a1b9d	0.07524798
69	0xbdb6f98a	-0.089343145
70	0x3ca53176	0.020165186
71	0xbbf9e5cc	-0.007626271
72	0xbd83abe6	-0.064292714
73	0x3d916875	0.07100002
74	0xbc8cad68	-0.01717253
75	0xbd97f766	-0.074202344
76	0x3d7c8ff3	0.06166072
77	0x3ca55f14	0.020186938
78	0x3def926f	0.11697852
79	0x3e06b348	0.13154328
80	0xbdb02976	-0.08601658
81	0xbdb8c676	-0.090222284
82	0xbd481a35	-0.048853118
83	0x3dc615aa	0.09672101
84	0xbda2d814	-0.0795137
85	0x3d84ee22	0.06490733
86	0xbcb404bb	-0.021974912
87	0x3df8f909	0.12156875
88	0x3d19a79b	0.037513357
89	0x3d7d16ad	0.061789203
90	0xbd01d41f	-0.031696435
91	0xbdc50a08	-0.09621054
92	0xbac30f88	-0.0014881948
93	0x3d2e68a4	0.04258026
94	0x3d4e2db7	0.050336566
95	0xbcae99fe	-0.021313664
96	0x3d56cd5d	0.052441943
97	0x3bdfd9ee	0.006831399
98	0x3e18e332	0.14930418
99	0xbcc5090a	-0.024052162
100	0xbcc7129f	-0.024300871
101	0xbdb49f6e	-0.08819471
102	0x3c8f91ce	0.01752558
103	0x3ddf9a9c	0.10918161
104	0x3b692a28	0.0035578106
105	0xbd851b08	-0.064992964
106	0x3d3e2c84	0.046429172
107	0x3bad8eb0	0.0052965507
108	0xbd1f63c2	-0.038913496
109	0xbcdc8d0a	-0.026922721
110	0x3d37c8fe	0.044869415
111	0x3c81c434	0.015840627
112	0xbc8193b7	-0.015817506
113	0x3d870066	0.06591873
114	0xbcb80be9	-0.022466617
115	0xbc816562	-0.015795413
116	0x3d48fe76	0.049070798
117	0x3dc152b0	0.094395995
118	0x3cfe3eee	0.031035867
119	0x3be88088	0.0070954002
120	0x3a2fb326	0.00067024154
121	0xbbe7837e	-0.0070652356
122	0xbc69ef80	-0.014278293
123	0x3d93de73	0.07220163
124	0x3daab7ab	0.08335813
125	0x3dcf857a	0.101328805
126	0x3cad9782	0.021190409
127	0xbd1cf67b	-0.038321
128	0x3ddf55ee	0.10905062
129	0x3d8d4734	0.068983465
130	0xbda9aa16	-0.082843944
131	0x3c699047	0.01425559
132	0x3d4b3e1c	0.04961978
133	0xbd54819c	-0.051881418
134	0x3e0eee88	0.1395818
135	0x3d17f607	0.037099864
136	0x3dc4701d	0.095916964
137	0xbd34bfea	-0.044128336
138	0x3d04ccae	0.03242176
139	0xbd791a56	-0.06081613
140	0xbcadd0ce	-0.02121773
141	0x3da993be	0.08280133
142	0x3c834f7b	0.01602911
143	0xbd23281c	-0.039833173
144	0xbd6991b8	-0.057023734
145	0x3d27aba8	0.04093519
146	0xbd75deab	-0.060026806
147	0x3e2a856c	0.16652459
148	0x3d7610bb	0.06007455
149	0x3dff6dfa	0.12472148
150	0x3d4825af	0.048864063
151	0x3d263a2a	0.040582813
152	0x3db8c49c	0.09021875
153	0xbb514405	-0.0031931412
154	0xbd772942	-0.06034208
155	0xbaaf73e8	-0.0013385983
156	0xbd56683f	-0.05234551
157	0x3d5c0f7d	0.05372571
158	0x3d069fce	0.032867245
159	0xbcc108c9	-0.02356376
160	0x3d7e7162	0.06211985
161	0xbd2c3d01	-0.042050365
162	0xbb98d14f	-0.0046636234
163	0x3db44b98	0.08803481
164	0x3d5c07ad	0.053718258
165	0x3c5337df	0.012891739
166	0x3d02de00	0.031949997
167	0x3db4bb7e	0.08824824
168	0x3d796200	0.060884476
169	0x3c73809c	0.014862206
170	0xbd835aed	-0.06413827
171	0x3d79851e	0.060917966
172	0x3e01f7cc	0.12692183
173	0xbca74ffd	-0.020423884
174	0x3db39399	0.087683864
175	0x3da62f6d	0.081145145
176	0xbcb21695	-0.021739284
177	0xbd41455f	-0.047185298
178	0xbda23a83	-0.079213165
179	0x3e11b633	0.1422966
180	0xbd500540	-0.050786257
181	0x3de114ae	0.109902725
182	0x3e01ecee	0.12688038
183	0x3dfb112b	0.12259134
184	0x3d9a781c	0.0754244
185	0xbd8467d2	-0.06465115
186	0xbd61870b	-0.055060428
187	0x3da0c550	0.078501344
188	0x3e018a1b	0.1265034
189	0xbc103133	-0.0088007925
190	0x3d0f6193	0.035005163
191	0x3c95d91c	0.018292002
192	0xbc897176	-0.016777735
193	0x3da4362a	0.080181435
194	0x3d07a0a9	0.0331122
195	0x3deb48fb	0.11488529
196	0x3e00879b	0.1255173
197	0xb93f66c2	-0.0001825346
198	0x3cc00054	0.023437656
199	0x3dfc120f	0.12308132
200	0x3d4d5738	0.050132006
201	0x3d04c22c	0.03241174
202	0x3d3587dd	0.044319022
203	0xbd167c71	-0.03673977
204	0x3d87389d	0.06602595
205	0xbd5cd6cf	-0.053915795
206	0x3da7dda9	0.08196575
207	0xbd03cc52	-0.032177277
208	0x3e1eac44	0.15495402
209	0xbd80d82b	-0.06291231
210	0xbd4361fc	-0.047700867
211	0x3de852a1	0.11343885
212	0xbd008f6c	-0.031386778
213	0x3d2dfcc7	0.042477395
214	0x3abc8486	0.0014382757
215	0x3e069857	0.1314405
216	0xbd862208	-0.0654946
217	0x3d4763db	0.048679214
218	0x3cc399d2	0.023877058
219	0x3df9a5ce	0.12189828
220	0x3cd8491d	0.02640205
221	0x3d8d3c57	0.068962745
222	0x3d6e2c7b	0.05814789
223	0xbcc7a70c	-0.024371646
224	0xbdacc0df	-0.08435225
225	0xbc321537	-0.010869316
226	0xbcacae57	-0.021079225
227	0xbdbb92f4	-0.091588885
228	0x3d97552d	0.07389293
229	0x3de256f2	0.1105174
230	0xbcd2a08b	-0.025711318
231	0x3df7f2e0	0.121068716
232	0xbbcfb66f	-0.0063388865
233	0x3dd72f86	0.10507111
234	0xbca564ff	-0.02018976
235	0xbb9fa2fd	-0.0048717246
236	0x3d89bc65	0.067253865
237	0x3d733558	0.059377044
238	0x3d5073d9	0.05089173
239	0x3c03f7fd	0.0080547305
240	0x3b216ed8	0.0024632718
241	0x3dab8436	0.083748266
242	0xbd6f20ee	-0.058381014
243	0xbce796f4	-0.028270222
244	0x3ca234b4	0.019800521
245	0x3cd90ba1	0.026494803
246	0x3c98e62c	0.018664442
247	0xbddf9a4c	-0.10918102
248	0x3d34916f	0.04408401
249	0x3bb71d01	0.0055881743
250	0x3df80179	0.12109656
251	0x3c2e6e33	0.010646391
252	0x3dba245c	0.09088966
253	0x3da72b7e	0.08162592
254	0xbd490809	-0.04907993
255	0x3d576e09	0.052595172

actor_head.2.bias f4 [4]
0	0x3e0b0454	0.1357587
1	0xbd17bbe5	-0.037044425
2	0xbe6f662e	-0.23378822
3	0xbe0c50d3	-0.13702707
