training/models/ppo_weights_ep_4000.pth (torch, 285417 bytes, 13 tensors)

shared_layers.0.weight f4 [128, 24]
00000000: d399 30be bb68 093c e9da 2d3d 3810 53be
00000010: f532 59bd 7ac6 8f3d df2b fdbd cf58 0a3d
00000020: fec2 a43c e4b0 8cbd fd1b 2fbe 37fd adbc
00000030: faa2 1abe d6f2 553c 1f6f 0c3e 8da6 37be
00000040: 4c51 4ebd 9010 b6bd 5714 c0bd 2771 3e3e
00000050: c51b a3bd 2009 42be 5ddc c7bd 9658 053e
00000060: a533 92be 2d6f 353e ed3e ecbd 18c2 0f3e
00000070: 85f6 633e 3398 95bd caf5 5b3e c64d bebd
00000080: d597 c23d d170 1bbd eff6 1dbd ac9a 3c3e
00000090: 8f28 2e3d 3833 89bb b64f cdbd f910 9f3d
000000a0: 288a d1bd 3d93 ffbd df6a 933c 725f 863d
000000b0: bd8a 2dbd 84d3 0c3e 759e 4dbe a6ee 46be
000000c0: cbb1 9bbe a1d8 9abe 7784 9f3d ecec c93d
000000d0: 7fe0 f5bd 4137 473d 0d86 a6bd 1102 19be
000000e0: cd4f 403e 26ea 903d cb95 d43d e976 443e
000000f0: 5890 e6bd d5c3 d13d a1d2 2a3e f24d 9abd
00000100: 7c7c f8bd e6ec 28bd 71b9 813d 75f8 153e
00000110: 4b2d 5c3e 93ee 123e cce2 2f3e f0e2 ec3c
00000120: 401e 55be 6629 abbe c0e3 65bd 86cb 3b3e
00000130: e415 8e3d 707d 843e 7703 33be b1d8 0abd
00000140: 0cd7 363e 3440 203e 0e6d 6abd 8457 063e
00000150: 0110 b93d 90a5 813d add1 f5bd 2ac6 303e
00000160: e3f5 683e 93b7 9bbd ebfe b0bd d218 42bc
00000170: cd79 eb3d 3214 c3bd 6f16 483e acbb 043e
00000180: ff55 94be b877 023e e907 10be 2ea0 153e
00000190: e84f 60be e24b ce3c fcb3 be3d 1a78 323e
000001a0: a2cf 073e d91e e1bd d6d1 c73d befe 89bd
000001b0: 7fe3 673c 61ac debc 6698 64be 45b2 ed3d
000001c0: 6973 e1bd 1279 d43d 2676 32bd 2932 10bd
000001d0: 546b 843e cac6 8c3b 9eb8 8e3d d2a0 0dbe
000001e0: 771b 1cbd 9269 84be b09d d3bd b87e 03be
000001f0: e9c1 6fbb 32bd cbbc 2853 50be 6a85 94be
00000200: 987a 2c3e b0f6 973d c6bd 543e 2956 55be
00000210: f194 2bbd 09f4 71be 7372 6e3e 7bef 0d3e
00000220: 356f 60be 6dac 0dbe 103a 193d 48f8 73bd
00000230: 30aa 98bd bd30 3b3e 67b9 6abc 93af d6bd
00000240: 1e10 08be 4ac0 c7be 17a3 51be 5bd1 113e
00000250: ac0c 38be f171 a2bd 59d2 48bc c194 843d
00000260: bf03 8dbe feba ae3d 5c9f f0bd 2529 ac3d
00000270: 7206 473d 0817 43be 3926 0a3e 6080 b13d
00000280: 8548 81bc dba0 123e 0b62 c43b 3e7b 993d
00000290: 6ffd 113c 947a e9bc 9e29 813d da90 ffbd
000002a0: 4d83 febd 2799 13be 74b1 0dbe a782 ca3d
000002b0: 2524 773e 367b 0fbd c59b 853d 0df3 ba3d
000002c0: 2205 903d 3581 f4bd 5a7a 053e 702e 9c3d
000002d0: 1c84 5cbd 63da 86bd 0924 f3bd f692 08be
000002e0: 83d9 05be 5b13 86be 0bcb 4fbe e1e8 33be
000002f0: 291b e6bd 4ce4 013d 394a 803c 1252 eebd
00000300: b994 eb3b b8f2 d43d 4729 28be ecd5 08be
00000310: ad78 2b3e 4888 233e 0936 e6bd abd8 78bc
00000320: 2361 c5bd a687 0fbe 7948 2fbe d777 44bb
00000330: 0eb1 a33a 03c7 013c 6c51 9abd 64c8 a3bd
00000340: 1e81 b6bb 14af 27bd b1ee a8bc bf8b fd3d
00000350: 6e9a aa3d 3536 85bd dd9c 3cbe 2545 40be
00000360: 545c a6be f781 89bd 4fa3 eabd 4827 a53d
00000370: 54f3 76be 0730 31be 8855 1ebd a2f3 633d
00000380: 610d 323e 8ec1 29be 6fb7 333e cd5e 80be
00000390: e88e aebd 3603 fc3d d561 f63d 1503 333e
000003a0: 3fff cdbd 7a90 02be 41b7 e53d 0be6 5f3c
000003b0: 02f4 843c 5894 afbd 27be 233e 2b5a 0a3e
000003c0: 1aea c93d d96e 41be 2358 07bc b0c8 f9bd
000003d0: 56e9 1d3e 72b9 2cbe f1f8 fdbd 1bc0 19be
000003e0: 8992 6ebd 7dbf 44be e8b6 8b3d ed45 1e3e
000003f0: dea3 043e 4465 113e 6e8c 0f3e 89a9 b4bc
-0.1724618 0.008386786 0.042445097 -0.20611656 -0.053027112 0.07020278 -0.12361883 0.0337761
0.02011251 -0.06869677 -0.1710052 -0.021238906 -0.15101233 0.013058385 0.13714264 -0.17934628
-0.0503705 -0.08889878 -0.093788795 0.18597852 -0.07964281 -0.18948793 -0.09758828 0.13022074
-0.28555027 0.17718191 -0.1153544 0.14038885 0.22262008 -0.0730442 0.2148048 -0.09292178
0.09501616 -0.037949387 -0.038565572 0.18418378 0.04251915 -0.004187014 -0.10024969 0.07766909
-0.10231429 -0.12479255 0.017995296 0.065611735 -0.04236864 0.13752562 -0.20079978 -0.19426975
-0.30409083 -0.302434 0.077889375 0.098596424 -0.1200571 0.04863668 -0.08131037 -0.14942195
0.18780442 0.0707591 0.10380133 0.19185986 -0.11258 0.1024243 0.16681911 -0.07534398
-0.121331185 -0.04124155 0.06334198 0.1464556 0.21501653 0.14348821 0.1717636 0.028916806
-0.2081232 -0.33430022 -0.056125402 0.18339357 0.06937769 0.2587695 -0.1748179 -0.03389806
0.17855471 0.15649492 -0.05723291 0.13119322 0.09036256 0.06330407 -0.12002883 0.17263094
0.22750048 -0.076033734 -0.08642372 -0.011846738 0.11497841 -0.09525336 0.19539808 0.12962216
-0.2897186 0.12740982 -0.14065517 0.14611885 -0.21905482 0.025182668 0.09311673 0.17428628
0.132628 -0.10992212 0.0975682 -0.06738041 0.01415336 -0.027181806 -0.2232376 0.11606268
-0.11008341 0.10374655 -0.043569706 -0.035204086 0.25863135 0.0042961584 0.06968807 -0.1383088
-0.03811213 -0.25861794 -0.10332811 -0.12841308 -0.0036584085 -0.024870489 -0.20344222 -0.29008037
0.16843641 0.07420099 0.20775518 -0.20833649 -0.04189009 -0.23628248 0.23285846 0.13860886
-0.21917422 -0.13835306 0.03740889 -0.05956295 -0.07454336 0.18280311 -0.01432643 -0.10482707
-0.13287398 -0.39013892 -0.2047237 0.14240019 -0.17973584 -0.07931889 -0.012257182 0.06473685
-0.2754192 0.0853176 -0.117491454 0.08406285 0.04859013 -0.19051754 0.13491143 0.08667064
-0.01578165 0.14319174 0.005993133 0.0749421 0.008910521 -0.028500833 0.06306766 -0.124788
-0.124273874 -0.14413892 -0.13837224 0.09888201 0.24134882 -0.035029612 0.06523851 0.091283895
0.07032229 -0.11938707 0.13034955 0.07626045 -0.053836927 -0.06584623 -0.118721075 -0.13337311
-0.13071255 -0.26186642 -0.20292298 -0.17569305 -0.11235649 0.03171186 0.015660392 -0.116367474
0.00718936 0.103978574 -0.16421996 -0.13362855 0.16745253 0.15969956 -0.11240775 -0.015188376
-0.09637668 -0.1401659 -0.1711749 -0.0029978657 0.001248868 0.007920983 -0.07535061 -0.07997206
-0.005569591 -0.040938452 -0.02062163 0.1238017 0.083302364 -0.0650448 -0.18419214 -0.18776377
-0.32492316 -0.06714242 -0.1145693 0.08064133 -0.2411626 -0.17303477 -0.038655788 0.05565227
0.17387916 -0.16577742 0.17550443 -0.25072327 -0.08523351 0.123053 0.12030379 0.17481644
-0.1005845 -0.12750426 0.112165935 0.013665686 0.016229633 -0.08573216 0.15990506 0.13510959
0.098591045 -0.18889941 -0.0082607595 -0.12196481 0.15421042 -0.16867617 -0.124009974 -0.15014689
-0.058245216 -0.19213672 0.06821996 0.15456362 0.12953135 0.14198786 0.14018413 -0.022053497

shared_layers.0.bias f4 [128]
00000000: ab63 9f3d ec70 8f3c e331 0e3c 1412 0fbe
00000010: 3be2 1c3e b815 de3d b794 6cbc dd9a 1e3e
00000020: 2b4d 5fbc 55b8 8e3d 99fb a63d cd0a 5dbe
00000030: 7374 8e3c 85b2 35be a1dd 7b3e e8f6 11be
00000040: cb6d 47bd e7fd 1d3d f418 a8bd 4d16 11bc
00000050: 923a dfbd f1eb acbc 26ab 09bd 5478 e5bd
00000060: d79b 553e 2371 5b3e ebf3 d43d 7978 6ebe
00000070: d0fc c4bc be5a ea3c 60bc 9d3d 683b 373e
00000080: c85a 21bd 9ae7 063e 30af 353e 5cfd 7e3d
00000090: 1204 88be ade4 3a3d 6650 06bd 0188 16be
000000a0: 2282 a5bd 0d48 28be 9986 363e eab1 36be
000000b0: 4771 46be 9c36 b0bd 98d8 fdbd a1b5 993d
000000c0: 7c56 0d3e ee3f e0bd bd15 bbbd 9af4 f1bd
000000d0: 73cd 773d 129c e33d 143e 1a3e 3eb7 68be
000000e0: 18ea 48be 14d0 853d ba26 d63d bbb8 28be
000000f0: 3828 073e 0d97 38bd d5bb 0a3d 26cc 253e
00000100: 946c 02be b0dd c83d c16b 363d d734 a63c
00000110: 1938 b2bd a0c1 883d 33ab e6bd 5809 963d
00000120: 565f 593e 54d3 323e ce56 28be da3d 55be
00000130: c25b 06be 3fce fe3d 55ef d9bc 4acb 30be
00000140: 7a0f 8dbd 54f9 143e 11c7 2abe 7e18 f03d
00000150: 2141 d53d a3e5 07be 6f16 eb3d 18ae ffbd
00000160: dd8c bc3d 6b74 23be 4e8a f63d c1bd 2d3e
00000170: 6df3 42bd 4271 423e 6e11 e8bd b3a3 1cbe
00000180: 5ebe 0ebe 4304 8fbc 08c8 0b3e ef94 49bc
00000190: 4338 46be dac5 ed3b 63f1 fcbb becc 67be
000001a0: 620f 65bd c6cf e43c 11f5 393d 839a 283e
000001b0: 9096 31be 5b78 b03d 799d 91bd dbb6 dd3d
000001c0: a7c4 a53c ceb4 0fbe 9b88 dbbd eb09 49be
000001d0: 46cd 08be dc81 66be a976 ac3d 6884 243e
000001e0: a1c9 40be 2210 2dbd 4363 1f3e ce00 c7bd
000001f0: d718 22be 0e7b 453c b0af 143e 05c1 55be
0.07782682 0.0175099 0.008678886 -0.1397174 0.15320675 0.10843986 -0.014439753 0.15488763
-0.013629238 0.06968752 0.08153457 -0.21586151 0.017389512 -0.17743881 0.24596263 -0.14254344
-0.04868869 0.03857222 -0.082078844 -0.008855415 -0.10899843 -0.0211086 -0.033610485 -0.112045914
0.2086023 0.21429877 0.10398086 -0.23288144 -0.024046332 0.028607722 0.07701945 0.17893755
-0.039393216 0.13174286 0.1774261 0.06225334 -0.26565605 0.04562824 -0.032791518 -0.14700319
-0.080814615 -0.16433735 0.17824782 -0.17841306 -0.1937915 -0.08604166 -0.123948276 0.07505346
0.13802522 -0.109496936 -0.091350056 -0.11814232 0.060498666 0.111137524 0.15062743 -0.22726151
-0.1962055 0.065338284 0.10456605 -0.16476719 0.13198936 -0.04506593 0.033870537 0.16191158
-0.12736732 0.098079085 0.044536356 0.020288868 -0.08702106 0.06677556 -0.112631224 0.07326001
0.21227774 0.17463428 -0.16439363 -0.20824376 -0.1312094 0.12441682 -0.02660338 -0.17265049
-0.068877175 0.14548236 -0.166775 0.117234215 0.10412813 -0.13271193 0.11478888 -0.124843776
0.09206555 -0.15962379 0.12038098 0.16966917 -0.04759543 0.18988517 -0.113314494 -0.15296821
-0.13939807 -0.017458087 0.13650525 -0.012303575 -0.193574 0.0072562518 -0.007719205 -0.22636697
-0.055922873 0.027931105 0.04539973 0.16465192 -0.17342591 0.08616706 -0.07110114 0.108258925
0.020235373 -0.14033815 -0.10719415 -0.1963269 -0.13359556 -0.22510475 0.0842107 0.16066134
-0.18826915 -0.042251714 0.15565209 -0.0971695 -0.15829788 0.012053264 0.14520144 -0.20874412

shared_layers.2.weight f4 [128, 128]
00000000: 972a d63c 1632 4d3e ab2e db3c a104 843c
00000010: d5e7 a43d 7f6c 223d e8b2 a7bb 8da9 e43c
00000020: b632 2bbd a2a5 0e3e 5c0d 0dbd 791e 09bd
00000030: 4fd2 a9bc 28e2 2f3d 838e 693d 4de4 e33c
00000040: f8e2 6ebd 64b6 123e 3b94 e1bd e057 173d
00000050: 796d b7bc 323f 3e3e 5d94 00bd 769c 953c
00000060: 682b 0abe b3c0 ebbd 3423 1e3c a8b5 c33d
00000070: 9297 1ebc 859a 043e 3e13 96bd 1dcf d83d
00000080: 4a72 6b3b 6979 fe3b 494f e13c de79 79bc
00000090: 95aa c4bc b9b3 89bd 08a0 083d 670c 4b3c
000000a0: 1375 c9bd 289c ab3c 275c a93d d46b 9f3d
000000b0: a7d9 84bd a0a9 8cbd 9168 ee3c 7ea2 d73c
000000c0: 0a0a 603c a2e6 ee3d 6727 563c 0c84 80bc
000000d0: d85b 973c d7f3 08be bc7d 8f3b bef2 acbd
000000e0: cca2 8e3c 9c37 ab3d feb8 3abc 5b96 9139
000000f0: 8121 f83c 0d19 a13a 5607 84bb 74b3 9bbc
00000100: b911 283d 963d 98bc e3dc fd3b 923c 7d3d
00000110: db5d 5fbd 3a19 b7bd 1bb9 423d 2a76 133c
00000120: 5f84 29be f5b7 8bbe 5d68 a4bc 2eec 17bc
00000130: aa13 85bd 69a1 a9bd 0ce4 2a3e 93c3 58bd
00000140: 26b5 183d 52f5 c8bd ea88 70bd 8d77 c43d
00000150: a765 d73d 3987 f8bd d957 233d 536b b7bd
00000160: 5c91 54bc 3317 033e 8c0f 763c db67 5e3d
00000170: 7c7e bcbd 243a 2d3d 33c6 17bd 9f7f 443d
00000180: d39a 0abd 38bd 95bd 6afa cd3c a919 173d
00000190: 89a3 6e3e 3433 e9bd aa6f dcbc 5039 88bc
000001a0: 3007 b33d 9436 003d d1e5 6ebc 80ef aa3c
000001b0: b675 15be 0355 7bbd acc6 173e 473b 4b3d
000001c0: 0e46 ef3d 6900 c23a 453e 70bd ef0b b0bd
000001d0: 01ce 95bc e45b 733e 6cd2 0fbe 1230 fdbd
000001e0: f5e4 643d c8ac c93b d118 46bd 182c 8e3d
000001f0: 5cce 4bbc 0dee 89bc 592f ddbd f735 d3bd
00000200: c9af 8cbc be9a 3f3c 515b b2bd c381 45be
00000210: 71e1 eb3c 4323 cd3d b8e6 8cbd e162 fc3d
00000220: f312 293d 6351 343d c098 a9bc 88cf f13c
00000230: 169c 303c 4e94 753d 3ec6 c0bc af64 df3d
00000240: 4c00 b9bd 2d7f d13d 0a4f 0b3d bb7d 32be
00000250: 1808 d63c 9ac1 3ebd 6a5e 5cbd 7452 2dbe
00000260: 5b9c f73d c4f1 9b3d 1ec7 d8bd 6717 82bd
00000270: 8760 0dbe 46b3 383d 3d71 e0bd f304 183e
00000280: 47cc 87bd d32a dfbd 1bf6 39bd f0f7 633b
00000290: 6047 6ebc d90a 7f3d 1830 6abd a6fe 1dbe
000002a0: 12b2 9d3d a1a3 043d 479f 73bd e0e7 f6bc
000002b0: 97a1 f537 2fdb 82bd 123e 843d 53ee 3c3d
000002c0: 7b63 05bd eb49 c23d c1ca 01bd acde 093e
000002d0: 533b 363c 0e42 21bd 3c1d a33b a1cc d53d
000002e0: 0b77 3bbd 9923 b93b 0da1 f53d 660e 4d3e
000002f0: 9b0b f23c 33c3 073e 6cc0 a3bc 02e1 19bd
00000300: c708 bb3b c7bc be3c 4305 613d a9ea 2a3a
00000310: 289e 063e 50ac e2bd fe9e 8abd a875 053d
00000320: c577 7fbc 79ff 11bd 17da 95bd 5d53 2d3d
00000330: 8144 793d affc b7bd 34db 403d 2cbc 56bd
00000340: 873e ac3d c5c6 e0bd 3188 353d d0db 31bd
00000350: d398 19bd 9afb 1ebe c16b 263d 6a1e 583d
00000360: f8eb ffbb 673b 68be 3cb1 d93a afd3 7cbd
00000370: c46c c1bd 1058 283d efb2 b53c 6fb9 d43c
00000380: faad c53b 964c babc 0701 4a3d debd 703d
00000390: dc04 f03d 8971 b83d 78bf 933c 09c4 083d
000003a0: d5cb abbc 31e9 c63d b8fd bcbc b9fe ea3c
000003b0: be1e 6bbd 46d6 95bd d2b4 eb3d e47a 3f3d
000003c0: 1e95 0a3e 6b76 8a3c 4f88 653d 7321 92bc
000003d0: 8a59 21bd f2ae 07be 0d7c cfbd 9d30 fdbc
000003e0: 9b68 083c 8e22 7b3d 2dd6 713c abec d13d
000003f0: d68e 5a3c a06a a33d d778 93bc dd7a bbbc
0.026143355 0.20038638 0.026755651 0.016115488 0.08052031 0.03965425 -0.005117763 0.02791288
-0.04179641 0.13930371 -0.03443657 -0.033476327 -0.020730166 0.04294029 0.057020675 0.027818823
-0.058321923 0.14327389 -0.11014601 0.03694904 -0.022391068 0.18578795 -0.03139149 0.018263083
-0.1349312 -0.11511364 0.009651948 0.095561326 -0.009679692 0.1294957 -0.07327889 0.10586379
0.0035926276 0.007765938 0.027503626 -0.015226809 -0.024007121 -0.067237325 0.033355743 0.012393094
-0.09836783 0.020948485 0.0826953 0.077842385 -0.064868264 -0.06868291 0.029102596 0.0263226
0.0136742685 0.116650835 0.013070918 -0.015687965 0.018476412 -0.13374268 0.0043790024 -0.08444737
0.017411612 0.08360216 -0.011396645 0.0002776858 0.030289413 0.0012290791 -0.004029195 -0.019006468
0.041032527 -0.018584054 0.007747279 0.061825342 -0.054532867 -0.089403585 0.04753981 0.0090003405
-0.16554402 -0.27288786 -0.020069296 -0.009272618 -0.06497891 -0.0828274 0.16688555 -0.05292089
0.03728213 -0.09812416 -0.05872432 0.09593115 0.105174355 -0.12135167 0.0398787 -0.08956017
-0.0129741095 0.12801819 0.015018355 0.054298263 -0.092038125 0.042291775 -0.037054252 0.04797327
-0.033839058 -0.07311481 0.02514382 0.036889706 0.23304571 -0.11386719 -0.026908714 -0.016628891
0.08741605 0.03130205 -0.01458116 0.020866156 -0.14595684 -0.06136037 0.14821881 0.04961708
0.11683284 0.0014801148 -0.058653135 -0.08596026 -0.018286707 0.23765522 -0.14045113 -0.12362684
0.055882413 0.0061546303 -0.04836351 0.06942004 -0.012439337 -0.016837144 -0.108000465 -0.10313027
-0.017173665 0.011694608 -0.087088235 -0.19287781 0.028794022 0.10016491 -0.068799436 0.12323547
0.041277837 0.04402293 -0.02070272 0.029517904 0.010779401 0.059955887 -0.02353203 0.10907876
-0.0903326 0.10229335 0.034010924 -0.17430775 0.026126906 -0.04657135 -0.053800978 -0.16925985
0.12090369 0.076144725 -0.105848536 -0.0635212 -0.13806354 0.045092843 -0.109590985 0.14845638
-0.0663076 -0.1089684 -0.04540072 0.0034785233 -0.014543384 0.062266205 -0.057174772 -0.15429172
0.0769998 0.03238261 -0.05947807 -0.030139863 2.9281522e-05 -0.06389462 0.064571515 0.04612572
-0.032565575 0.09486755 -0.0316875 0.13463849 0.011122542 -0.039369635 0.0049778502 0.104394205
-0.045767825 0.0056499955 0.119936086 0.20025024 0.02954655 0.13258056 -0.019989215 -0.0375681
0.0057078335 0.023283375 0.05493666 0.00065199524 0.1314627 -0.11068022 -0.067686066 0.03258291
-0.01559252 -0.03564403 -0.07316988 0.04231583 0.060856346 -0.089837424 0.04708405 -0.05242555
0.08410364 -0.10975412 0.044319335 -0.04342252 -0.03749926 -0.15525666 0.040630106 0.05276338
-0.007810112 -0.2267891 0.0016608606 -0.061725315 -0.094445735 0.041099608 0.022180049 0.025967328
0.0060327025 -0.022741597 0.049317386 0.05877482 0.11719677 0.0900603 0.018035635 0.03339008
-0.020971218 0.097124465 -0.023070201 0.028685914 -0.057402365 -0.0731626 0.11509098 0.046748057
0.13533446 0.01690217 0.056038197 -0.017838215 -0.03939203 -0.1325033 -0.10131083 -0.03090697
0.008325721 0.06131225 0.014760536 0.10250219 0.013339719 0.079793215 -0.018001957 -0.022885734

shared_layers.2.bias f4 [128]
00000000: 14dc abbd 4c57 963d 1f85 083d 5dcb 9ebd
00000010: 75ee 88bb 1746 a7bd 0af1 993c 203e 243c
00000020: 08ac 55bd 7acf bd3d 6e2d 4bbd 4623 8c3d
00000030: 9238 be3d f36f ff3c ccab b43d fe70 92bd
00000040: b73f ecbc 3953 463a a131 023d 9ced 2fbd
00000050: abd9 943d d52b e6bc d705 dabc 72e2 9ebd
00000060: d485 ef3c 4820 0cbd 9a70 1d3d f771 99bd
00000070: 8ff0 85bd d1bb edba baa1 94bd b3b7 1d3d
00000080: dce3 1bbb 859c 2a3d 0d02 d4bd 050c 093d
00000090: 0c64 a7bd fe1d 45bd 749a babc d147 52bc
000000a0: 820b f7bc 5c85 b8bb 489f 833a f51b 6a3d
000000b0: d4ad afbc 9a43 aebc 103f b83c 2935 cebd
000000c0: d02e aebc d155 153c 373f c9bd 4957 c13c
000000d0: 2a7a 78bc 2b9d 79bd 27cf dd3d ef7f 863c
000000e0: 65bb 333d f00e 18bd 6fb7 99bd 5b60 c7bc
000000f0: 9a4f bcbc dc63 7abd a9f2 84bc 032f 2ebd
00000100: 5359 f43b 9234 953d ae62 d43c b308 c3bc
00000110: ba18 d73d 1fa5 09bd 31e7 e13c 045f 883d
00000120: 1584 c5bc 261d edbb 3921 88bd 0029 94bd
00000130: 8ef4 103d 75e3 efbc 8add b6bd 2afd b2bd
00000140: 9522 43bc 27f9 f7bd 194c 8dbb 29c7 65bd
00000150: e866 fabb ab53 41bd bfc6 313d 990d 943d
00000160: 00ee 9ebc c5c7 72bd 8738 2dbd b32e 8bbc
00000170: 4f04 aabc c521 523d 9843 67bc 29c2 47bd
00000180: 0c2d 9cbd e82c 3c3b 69c0 a4bc 8cdd a7bd
00000190: 0914 3b3d 3f60 f9bb 95ee 5d3d ff47 943b
000001a0: 3d21 b5bd ddcc babd 496d d83c 0522 aebd
000001b0: c4eb 653c 2efd c639 0c4a 9f3c 1916 bcbd
000001c0: aff0 8a3c 5175 edbc 01a7 2b3c f2c3 0ebd
000001d0: 085b 653d 355f 213d 6fd7 03bc c546 ae3b
000001e0: 6e1b 4dbd 8e52 90bd 9a73 733c 74a2 a03d
000001f0: e4b3 b83d efcf 063d 1dc0 71bc aa2a 9fbd
-0.08391586 0.07340869 0.03333008 -0.07753632 -0.004178817 -0.081676655 0.018791694 0.010024577
-0.052166015 0.09268089 -0.049603872 0.068426654 0.09288134 0.031181311 0.0882183 -0.07150458
-0.028838975 0.0007565502 0.03178561 -0.04295121 0.07268079 -0.028097073 -0.026614113 -0.07758035
0.029238619 -0.034210473 0.038437463 -0.0749244 -0.065400235 -0.0018137639 -0.072574094 0.038505267
-0.0023786938 0.041653175 -0.10351954 0.03345873 -0.08173379 -0.048124306 -0.022778727 -0.012834505
-0.030156855 -0.005631132 0.0010041976 0.05715557 -0.021445192 -0.02127247 0.022491008 -0.10068733
-0.021262556 0.0091146985 -0.098265104 0.023601191 -0.015165845 -0.060940903 0.10830527 0.016418425
0.043879885 -0.03712362 -0.0750569 -0.024337938 -0.022987176 -0.06113039 -0.01622899 -0.042525303
0.0074569373 0.072854176 0.02592596 -0.023807859 0.10502763 -0.033604737 0.027576061 0.06658748
-0.024110833 -0.007236141 -0.06646962 -0.07234383 0.035389476 -0.029283265 -0.08928974 -0.087396935
-0.0119101005 -0.12108069 -0.00431205 -0.056098137 -0.007641662 -0.047198933 0.04340243 0.07229156
-0.019400597 -0.059272546 -0.042290237 -0.016990041 -0.020754008 0.051301736 -0.014115237 -0.04876915
-0.076257795 0.002871329 -0.02011128 -0.081965536 0.045673404 -0.0076103504 0.054182608 0.004525184
-0.0884423 -0.09121106 0.026419299 -0.085025825 0.014033262 0.00037954136 0.019444488 -0.09183902
0.01696047 -0.028986605 0.010476829 -0.034854837 0.055995017 0.039397437 -0.008046969 0.005318495
-0.050074987 -0.07046996 0.0148591045 0.078434855 0.090186864 0.032913145 -0.014755276 -0.077718094

shared_layers.5.weight f4 [128, 128]
00000000: 3684 85bc 99c6 07be a43e 8b3d 97b3 c03c
00000010: 8465 3cbd cda8 303c 8e7f 503c 0ff0 55bd
00000020: c1ee a5bc 8e66 44bc 89df 1abe 352f 71be
00000030: 56b9 02bc deae f2bd 5a32 c03d 535f 0e3e
00000040: 2f0e 0bbd a8bf bbbd d469 043d ac03 12be
00000050: 2b8d 2a3d 20a0 e7bd 7314 04be 6d70 b6bc
00000060: fb93 ea3d 2cfb 323c abe9 373d 3722 ac3d
00000070: 3754 af3d befa 88bd 271a 043e 043e ee3d
00000080: 3a2d 9f3d 7033 793d 8b16 9c3d c17f 00bd
00000090: ab01 c83c abb5 923d 2756 27bd f9c3 103d
000000a0: cb19 093c b6b9 ba3c 551f d7bd a030 d4bd
000000b0: 5537 84bd 339d 33bd 4bad 05be 5429 9bbd
000000c0: 3cd2 54bd e3dd 91bc fc9a 833d c06a b1bd
000000d0: 9cc7 953d ae00 68bc 8b60 dfbd 66ec 0abe
000000e0: 9b16 ebbd 1620 ce3c 9ab8 a0bd 3425 5fbd
000000f0: 3d76 55bd d888 f5bd 56e5 19bd df80 44bc
00000100: 36e9 9c3d 238d 14be a84f 79bd e15b 8ebd
00000110: aba7 6dbe 3dc8 c13d 03a9 d13d d33f c43c
00000120: aae1 97bc 9e05 95bc 990a 423d cce1 053d
00000130: 007e 7f3d cbe8 babd 6ed0 913d 58a7 843d
00000140: bc8e 8abd c835 8f3c dcaf 543d 06af c0bc
00000150: 8269 96bd a653 463d 905c c2bd 770e 76bd
00000160: 8dfe d9bd 04a3 1a3d c3a8 8ebd 5aec aabd
00000170: 1941 183d 697e 06bd f0b3 803d 7bf2 0fbc
00000180: 97b3 12bd 959e e03d 3501 423d e2ff 573d
00000190: 1de0 fa3c dd4f 013d 0893 98bd 2cea 9abd
000001a0: ac8d 7c3d 0a65 a8bd 3dec f23c 342d d23d
000001b0: a937 e73c 744e 6dbd 6a71 a43c 48c3 a53d
000001c0: 8d09 b23d fa61 e5bc 27bf b3bd aa3b a83d
000001d0: ae88 09be d211 23be d360 ddbd b09c 66be
000001e0: f485 3dbd efe1 713d 5a98 9b3c 9b26 debd
000001f0: a149 3fbd 1a54 d1bd 846c 233c 88af 433d
00000200: ffe1 603d 2982 1dbd d29a a43d aec9 e73d
00000210: cac9 5f3d 3ce3 33bd 89e9 903d 9706 37bd
00000220: 7ded 22bd 3d02 04bd 1623 c73d 34bf a8bd
00000230: 34da a5bd 6f6e 2a3d bf2c e73c a5d9 99b9
00000240: cd71 55bb 4938 27be a352 b93d 1ec5 43bd
00000250: 5743 953d 4617 92bd 66b8 3abd e350 06bd
00000260: 7da1 2dbd 9c3d 70bd 7469 54be a567 b33c
00000270: 2c9d a93d 2177 fa3c f025 af3c 96dd 0b3d
00000280: 4789 813d 4d71 d03d 1328 2c3c ebea 0abd
00000290: 9e48 e63c ee8d 8a3d e495 bbbd c9ac 3c3c
000002a0: 5f99 993d 42eb c03d 888f 953c 0de8 1c3d
000002b0: c223 ffbd 34b5 1a3c cb71 a43d 905f 69bd
000002c0: 424c 0f3d 47d7 c4bc 752b 2d3d a5ed 33bc
000002d0: 2e6e be3d bcf9 203d b866 92bd 657e 813d
000002e0: b255 ffbc c2e9 6b3d 1bb8 ab3d b5af c8bd
000002f0: 1c89 ee3d 80ac 78bc fabe c6bd 4076 973c
00000300: 00b6 923b 20e9 e9bc 2b9e 62bd 019f a23d
00000310: 25a3 1e3d 207f 5bbc f191 c9bb a8fe 9f3d
00000320: b033 de3b 7495 233d 5352 1c3d 056e 553d
00000330: a5a0 883c 78c3 41bd 4b92 6abc e067 5dbe
00000340: 214b 4bbc dd8e 80bc acd5 943b da98 2cbd
00000350: a52e 55bd c6c9 41bb ec95 62bd 4644 4b3d
00000360: 06c0 af3d 5b04 64bc fb2a c7bd 9996 63bd
00000370: b4c5 783d 2b25 f13d db66 963a c393 863d
00000380: bf93 5abc e8f0 74bd 15ed ff3d 5003 353c
00000390: 2078 95bd e491 d0bc 8f75 febc b4f9 923d
000003a0: 092d f03c a3a1 88bd ecb4 283d ab6d c13c
000003b0: ea1f 58bd 956a bcbc e728 30ba eca0 48be
000003c0: 7b55 353d 4925 d3bd eff2 3dbd 3090 b03d
000003d0: 8037 063b c83a d0bd 52ca a1bd f053 5dbc
000003e0: 18d2 e3bd a53c 1e3c 7cd0 883d 4bb7 c0bb
000003f0: 277d 80bd bdcd 2fbd 04a2 0a3d fb54 32bd
-0.016298395 -0.13259353 0.06799057 0.023523135 -0.04599525 0.010782433 0.012725724 -0.05223089
-0.020255448 -0.011987342 -0.15124334 -0.23553164 -0.007978758 -0.118497595 0.09384604 0.13903551
-0.033949073 -0.09167415 0.032327488 -0.14259213 0.041638535 -0.11309838 -0.12898426 -0.022270406
0.11454006 0.010924142 0.044900578 0.084049635 0.085609846 -0.0668845 0.12900601 0.11632922
0.07772298 0.06084007 0.07621487 -0.031371836 0.024414858 0.07163557 -0.040853646 0.035343144
0.008367966 0.022793632 -0.10504023 -0.10360837 -0.06455866 -0.04385109 -0.13054387 -0.07576242
-0.051958308 -0.017806 0.06426045 -0.08662939 0.07313463 -0.014160318 -0.10907086 -0.13566741
-0.11478921 0.025161784 -0.0784771 -0.05447884 -0.052114714 -0.119889915 -0.037572227 -0.011993616
0.07661669 -0.14506964 -0.06086698 -0.06951118 -0.23208492 0.094620205 0.102373146 0.023956215
-0.018540222 -0.018191155 0.047373388 0.03268604 0.062376022 -0.09126433 0.07119833 0.06477231
-0.06765506 0.0174817 0.051925525 -0.023520958 -0.07344343 0.048419617 -0.09490311 -0.06007239
-0.10644255 0.03775312 -0.069657825 -0.08345862 0.037171457 -0.032835398 0.0628432 -0.008785839
-0.0358158 0.10967747 0.047364432 0.052734263 0.030624444 0.031570304 -0.07449919 -0.07564196
0.061658546 -0.08222397 0.029653663 0.10262528 0.028224783 -0.057936147 0.020073611 0.080938876
0.08693228 -0.02800082 -0.08776694 0.08214505 -0.13431045 -0.15924767 -0.108094834 -0.22520709
-0.046270326 0.059053358 0.018993545 -0.10847207 -0.046701077 -0.10221119 0.009974603 0.04777482
0.054903027 -0.03845421 0.08037342 0.11317764 0.0546358 -0.04391788 0.07075793 -0.04468402
-0.039777268 -0.032228697 0.09723489 -0.08239594 -0.080982596 0.041609224 0.028219579 -0.00029344592
-0.0032569051 -0.16330065 0.09048965 -0.047795407 0.07288235 -0.07133345 -0.045586012 -0.032791983
-0.042390335 -0.058652505 -0.20743352 0.021900008 0.08281931 0.030574383 0.021380395 0.034146868
0.06325012 0.101778604 0.010507601 -0.03391544 0.028110798 0.06765352 -0.09159449 0.011515805
0.07499956 0.09419872 0.018256918 0.03830724 -0.12457992 0.009442616 0.08029517 -0.0569759
0.034984834 -0.024028433 0.042277772 -0.010981952 0.09298359 0.039300665 -0.07148498 0.06322936
-0.031168792 0.057595976 0.08384725 -0.097991385 0.11647245 -0.015177846 -0.09704395 0.018489003
0.0044772625 -0.028553545 -0.055326622 0.07940484 0.038729805 -0.013397008 -0.006151431 0.07812244
0.006781064 0.03993745 0.038164448 0.052106876 0.016678164 -0.047305554 -0.0143171055 -0.21621656
-0.012408049 -0.015693123 0.0045420732 -0.042137958 -0.052046437 -0.002956973 -0.055318758 0.049625657
0.085815474 -0.013917054 -0.09724995 -0.055563543 0.06073542 0.11774667 0.0011474745 0.06571152
-0.0133408895 -0.05980006 0.12496392 0.011048153 -0.07298303 -0.025460191 -0.031061916 0.07176533
0.02931835 -0.06671455 0.041188166 0.023611864 -0.05276481 -0.023000041 -0.0006719962 -0.19592637
0.044270974 -0.10309846 -0.046374258 0.086212516 0.0020479858 -0.10167462 -0.07899918 -0.013508782
-0.111240566 0.0096580135 0.0668039 -0.005881225 -0.06273871 -0.042920817 0.033845916 -0.043538075

shared_layers.5.bias f4 [128]
00000000: e6cc 013e 5157 fb3d cd4e 963d d804 0e3e
00000010: 6246 a63d e4af 853d 8363 aa3d 8312 413d
00000020: 7e55 6d3e 094f ef3d a7ea e53d ca90 c93d
00000030: 5871 4fbd aa89 6e3e 2494 0c3e 76c5 6f3d
00000040: 535c 053e 863f 2ebc b8a5 523e f196 683e
00000050: d813 b83d 68cb f73c 5561 033e 23e2 c53d
00000060: 0f2c 003e 4643 a83d 091a 283d d868 a23d
00000070: 3b37 383e afd1 69bd 2a77 a23d fddd 603e
00000080: d8e6 bdbd b63a 933d abe8 8e3e 456f bfbd
00000090: d31b 8a3d 30fa 203e c275 e3bc 7eb3 a13c
000000a0: 57dd 963d 9652 953d 5e0e 253e 8300 8abd
000000b0: 9bcc fe3c 4ebe 9d3d d08c 0d3e 8c0f ac3d
000000c0: ec24 823e 9603 863d 46f4 f5bc 2a47 013e
000000d0: 2fb3 cd3d a2d4 903d 6dfb 603d 9394 0b3e
000000e0: 808c 9d3d ad94 e23d d193 363d 2ec3 193e
000000f0: e60d 46bd e1df d13c 39f3 bdbd 88f1 563e
00000100: 1680 8b3d 0a98 563d d510 4fbd 3f5c d7bd
00000110: 9245 863e 3ba2 a33d c974 503e ffe4 fe3d
00000120: d178 323d 5cc2 033e c871 3bbd 1f1c 043e
00000130: c4dd f83d f357 75bd 14e1 8c3d 7c28 e83d
00000140: e81e 5b3c 4eea c7bd 3726 1d3d 0100 c53c
00000150: 1af0 f03d 8f3b 903d ca71 373d 7ca4 42bd
00000160: 0c4b 103e feae 143e 57c1 303e e9f1 76bd
00000170: dfe1 c03d e62b 153e 5911 f33d a820 b93d
00000180: 7f92 1b3c 3cae 4b3e 1b35 1d3e 3f0c 7e3d
00000190: 8cd8 493e a17c d53d ae97 453e 796c 813d
000001a0: 5bb8 e93d ddb6 913e 3823 9e3c 40be 9b3d
000001b0: ed22 1c3e 98ee cb3d 5514 c73d 3408 703d
000001c0: b4a4 0f3e 1b8c cc3d 0423 2c3e bb7d 063e
000001d0: c1a2 2f3d 7272 e93d 4304 073e d880 233d
000001e0: a0c8 893d cf7b df3d fc0e 973d 356b 1e3e
000001f0: 5232 cebc 83b6 c8bd a0e8 1a3e f715 df3d
0.12675819 0.12272514 0.07339249 0.13869035 0.08118893 0.06527689 0.083197616 0.047136795
0.23177144 0.11684997 0.11226397 0.098420694 -0.050645202 0.23294702 0.13728386 0.058537923
0.130235 -0.010635262 0.20571029 0.2271383 0.0898816 0.030248359 0.12830098 0.09662273
0.12516807 0.082159564 0.041040454 0.079301536 0.17989819 -0.057084735 0.07932885 0.21959682
-0.092725456 0.071889326 0.27911887 -0.09347395 0.06743588 0.15720439 -0.027766112 0.019738909
0.07366436 0.07291143 0.16118762 -0.06738379 0.031103423 0.07702313 0.13823247 0.08401403
0.25418794 0.06543653 -0.030023705 0.12624803 0.10043942 0.070718065 0.05492728 0.13630895
0.07692814 0.11063514 0.044574562 0.15015861 -0.0483531 0.02561945 -0.09274907 0.20990574
0.0681154 0.05239109 -0.05055316 -0.105156414 0.26224953 0.079899274 0.2035705 0.12446021
0.04357225 0.12867111 -0.045762807 0.12901352 0.121516734 -0.059898328 0.06878868 0.11335847
0.013374068 -0.09761487 0.038366523 0.024047853 0.11764546 0.0704261 0.044786252 -0.047520146
0.14091128 0.14519879 0.17261253 -0.060289297 0.094180815 0.14567527 0.11868543 0.09039432
0.009495377 0.19890684 0.1535229 0.062023398 0.19711512 0.10424162 0.19296142 0.06319518
0.11412116 0.28459826 0.019303903 0.07604647 0.15247698 0.099576175 0.09720675 0.058601573
0.14027673 0.099876605 0.16810232 0.131339 0.042879824 0.11398782 0.1318522 0.039917797
0.06727719 0.109122865 0.07375905 0.15470584 -0.025170479 -0.09800436 0.15127802 0.10892861

actor_head.0.weight f4 [128, 128]
00000000: f82c 5abd 3f27 e5bd e69f 98bd 726a 65bd
00000010: 0963 fdbd d203 0fbc e49c ce3d 4a75 b8bd
00000020: 3962 3f3d 84d6 ccbd c1db a4bd 0cc4 70bd
00000030: 3b11 81bd 9f11 9ebd d963 05bd 0ad8 54bd
00000040: 8697 dd3c c8df 87bc a76a d93c 1d29 05be
00000050: 47fe c8bb ac08 debd 5657 ed3d 49fd 23bd
00000060: 4a7b 263d ffff a43b c42b 53bd 579a 143c
00000070: baea 7dbd 8a5a 9ebd 354e f6bd 4249 9b3d
00000080: b041 23ba 9e08 723c 18d3 703b d058 aebd
00000090: 54fc 3b3b dd98 9abd 5d5c 42bd a533 42bc
000000a0: b799 403e 10e7 9e3d 8353 4dbd e09e 953d
000000b0: c552 56bc 4a47 cd3d 21b1 c2bc d92a 43bd
000000c0: 465e 9dbd a383 b03c 10e7 833d 20f7 403d
000000d0: e339 ae3d 9243 de3d 25fb 743d b575 5abb
000000e0: 4f0e 01bd 7931 f1bb a485 eabc ef06 293c
000000f0: bf17 87bd 5be6 803d 661e 3bbd 4eb4 90bd
00000100: bfd2 923d 282a 8d3b ae18 f1bc 5f86 04bd
00000110: 923a da3c c208 8bbd d2cf a7bd c7d8 7fbd
00000120: b270 bcbd eafe 3cbd faad 3abd 2c98 d8bd
00000130: 7185 4bbd 0cff 6f3d a85d f43b ab9d 413d
00000140: 03a4 6d3b 4fa9 87bd 88fe 53bc 8e2a 23bd
00000150: f1b7 773c fea7 3fbd d217 3fbd 9594 e2bb
00000160: 988a 42bc 35af 88bc 6918 15be e6c7 4bbd
00000170: 0a95 983c d163 ed3a 6594 92bc c3c9 8d3d
00000180: 2097 68bd 07cd 1e3d dc2c 27bd 3ed5 0c3d
00000190: 9d4b d7bd 5afb 8ebd 6982 fdbc 9991 eabc
000001a0: 2b73 05bc 4031 d53c e2e8 e8bc 518a 2e3c
000001b0: c861 d5bc 5a5a 62bc f21b b8bd 7488 d13d
000001c0: b495 32bd b374 4f3d e5dd f5bc 767e efbd
000001d0: a8b2 f2bd e111 53bc b3c9 ea3c 2228 2e3d
000001e0: 210d b13d a86e a1bd cdcd a73d bbe2 3c3b
000001f0: 8cd0 683c 21ba ba3d 8f26 f0bd 7a23 833d
00000200: b26d 9a3c 7001 febb 598a 96bd 70c6 4fbd
00000210: 84b8 bcbc b57e 3ebd 7929 51bc 4a35 6b3d
00000220: 2141 803d d011 89bd 3899 d43c 9077 913c
00000230: 9aa5 69bb 6210 e3bd 8024 5e3d c55e bfbd
00000240: 9419 8bbd 70cb cebb 55df 063b 373b 213b
00000250: eca3 a5bc 1911 a3bd 160e 85bd 36a2 04be
00000260: fc7c 6a3c 0a5e d2bc c6e4 90bd 3d00 c0bd
00000270: 45fd 97bd d762 33bd ce9b 823c 7165 1f3d
00000280: 868e a83d 70ea ecbd 408f ab3c 566d a3bb
00000290: 49f3 53bd 0dd4 5cbd 5b51 53bd 5906 943d
000002a0: 0169 15bd fce2 5c3d 6e2e 8c3c 3f3a ec3c
000002b0: e376 c4bc 0dbf e73c 5576 813d 7aaf bebd
000002c0: cfb1 1cbd 3744 38bc d073 c7bd de2a 6fbd
000002d0: f3de babd d8b0 bcbd 8ef3 6fbd 5b70 34bd
000002e0: c0af 85bd d832 f8bc bec1 e5bc 0590 85bd
000002f0: 6dbb 073d c282 9d3d 5a4e 6abd 4f0e 8bbd
00000300: 8173 6dbd d240 773d 3f27 42bd 8cba 8fbd
00000310: ecc3 25bd 4054 453d 5f3c 503b b812 e4bc
00000320: 8d08 8e3c 3e0a abbb 481e 773d f7d8 02bc
00000330: 875f ff3a 99d6 41bc f80e 6bbd 2017 803d
00000340: bf5d 21bd 1383 babd da6f bdbd c4c6 93bd
00000350: b656 893d d2d6 ffbc 2bec 98bd 7c81 70bd
00000360: 3e61 d93c 8078 483d 894d 95bc ea37 823d
00000370: bb7e 513b 71eb 2dbd cf2f c4bc 4da6 4cbd
00000380: 720e 81bc c4ca e53b 8a9a 833d a565 883d
00000390: b821 013d 4459 ae3c a570 413d 8e92 63bd
000003a0: 515b 393d 6cdb 42bd 3416 87bd cb5c 03bc
000003b0: 5b02 563d 942b 153d 8e8d 53bd 1b49 8c3d
000003c0: 3e5a d7bc 57d6 08bd 6779 9fbd 13b6 543d
000003d0: 4889 1abb b8e8 9cbd ce12 823d 5c4f 983d
000003e0: a5cf 513d 65da 54bd 8be4 f73c ec17 f3bc
000003f0: 7d5b 96bc 1c22 2e3d 2d54 513c 0d1e 483d
-0.05326554 -0.11189126 -0.07452373 -0.056009717 -0.12372405 -0.008728938 0.10088518 -0.09006746
0.04672453 -0.10001853 -0.08049727 -0.058780715 -0.063021146 -0.07718205 -0.032565925 -0.051963843
0.027049791 -0.0165862 0.026540114 -0.13003965 -0.006133828 -0.10841498 0.11588924 -0.040036473
0.04064492 0.0050354 -0.05155541 0.009070001 -0.06199143 -0.07732113 -0.120266356 0.07582332
-0.0006227745 0.014772562 0.0036746915 -0.085130334 0.0028684335 -0.075486876 -0.047451366 -0.011853133
0.18808638 0.077589154 -0.05012847 0.073056936 -0.013081257 0.10023363 -0.023766102 -0.047648285
-0.07683997 0.021547144 0.06440556 0.047110677 0.08507135 0.10852732 0.059809823 -0.003333432
-0.031507786 -0.007360634 -0.028628178 0.0103165945 -0.06596326 0.06293937 -0.045683287 -0.070656404
0.07169103 0.004308004 -0.029430714 -0.03235471 0.026639257 -0.0678878 -0.081939355 -0.062462594
-0.092011824 -0.046141542 -0.045576073 -0.105758995 -0.049687807 0.05859284 0.0074574538 0.047269505
0.0036261089 -0.0662409 -0.012939103 -0.039835505 0.015119539 -0.04679107 -0.046653576 -0.006914685
-0.011873864 -0.016685108 -0.14560093 -0.049751185 0.018625755 0.0018111413 -0.017893026 0.069232486
-0.05678475 0.038769748 -0.040814266 0.03438305 -0.10512469 -0.06981535 -0.030945973 -0.02863388
-0.008145134 0.02602446 -0.02843136 0.010653094 -0.026047602 -0.013815487 -0.08989705 0.102311045
-0.0435998 0.050648402 -0.030013034 -0.116940424 -0.11850482 -0.012882681 0.02866063 0.042518742
0.08645082 -0.07882434 0.0819355 0.0028821665 0.014209878 0.091175325 -0.117261045 0.06403251
0.018851135 -0.007751636 -0.073506065 -0.050726354 -0.023037203 -0.046507556 -0.0127662355 0.057423867
0.06262422 -0.066928506 0.025951967 0.017757207 -0.0035651685 -0.11087109 0.054234028 -0.09344248
-0.06791988 -0.0063108727 0.0020579894 0.0024601945 -0.020219766 -0.079622455 -0.06496827 -0.12952504
0.014312025 -0.025679607 -0.07074885 -0.093750454 -0.07421354 -0.043795433 0.015943434 0.0389151
0.08230309 -0.11568153 0.02094233 -0.004987399 -0.051745687 -0.053913165 -0.05159126 0.07227773
-0.036477093 0.053927407 0.017111983 0.028836368 -0.02398247 0.028289342 0.06321398 -0.09310813
-0.03825551 -0.011246732 -0.09738886 -0.05839049 -0.091245554 -0.09213418 -0.05858188 -0.044052463
-0.06527662 -0.030297682 -0.028046485 -0.0652161 0.033137728 0.07690956 -0.057203628 -0.067898385
-0.05797148 0.06036455 -0.04740071 -0.07018003 -0.04047005 0.04817605 0.0031774265 -0.027840957
0.017338062 -0.005219727 0.060331613 -0.007986299 0.0019483425 -0.011830949 -0.057387322 0.06254411
-0.039396044 -0.09107032 -0.092498496 -0.07215646 0.06705992 -0.031230364 -0.074669205 -0.058717236
0.026535627 0.048943043 -0.018225448 0.06358321 0.0031966406 -0.042460863 -0.023948578 -0.049963284
-0.015753958 0.007012697 0.0642596 0.06660012 0.031526297 0.0212828 0.047226567 -0.055559687
0.0452531 -0.04757254 -0.06596032 -0.008017729 0.05224834 0.036418512 -0.05164867 0.06849881
-0.026288148 -0.033407535 -0.077868275 0.051931452 -0.002358036 -0.07661575 0.06351243 0.074370116
0.051223416 -0.05196609 0.030260345 -0.029674493 -0.018354172 0.042512998 0.012776417 0.048856784

actor_head.0.bias f4 [128]
00000000: 1fcd 14bd fd56 8d3c 3f74 873b 7c01 72bd
00000010: 2333 b13d c975 5fbd 6545 203d 5626 493e
00000020: 2910 61bd 00f0 15bd 7508 773d f1e4 14bd
00000030: 8af2 bebc ddcf d8bd 791f 8bbd 7d9e 98bc
00000040: c57b 6bbc 65ac 833d 9ba1 b63d 3012 c53d
00000050: e645 473e 3214 08bd 5704 aa3d c16a d1bd
00000060: 09cb 723e 2e0d 9fbd 1ef7 233e db17 573d
00000070: d058 013d bbea 03bd e3ff 3f3e f162 cb3c
00000080: 2476 16bc 50f5 013e f4d5 c03c 2be1 2d3e
00000090: d3b0 df3d e788 9c3d 9d58 aabd f544 ff3c
000000a0: ca0d e5bb dd0e 283d efe0 2e3d 1d23 3a3d
000000b0: 6896 b93d 02f3 8d3d f2f9 2d3d f2c0 dbbc
000000c0: aab1 d03d 39e4 203d cb6c 13bd 7e43 293d
000000d0: a305 673d 8340 293e c2d1 7b3c fc3a 77bd
000000e0: a5b9 21bd 93e5 163d 2b8d 143e dbe2 643d
000000f0: 52b2 e9ba e5f6 d4bd 97c4 bcbd a3af a3bd
00000100: 88c0 d4bd ed88 8fbd 75ea 953d ceb7 013e
00000110: fcc2 f9bb 9c31 483d 3693 26bd 51f2 9b3c
00000120: 9aef 123e 8926 f43d eb82 c33d 7688 edbd
00000130: 1b43 ba3d 30df 1e3e 2a21 cc3d b810 7e3d
00000140: 25cf 0e3e 51a5 9a3d 868c cabb 6755 cdbd
00000150: c18c b03c 2aa7 223d 212d bd3c abd4 b2bd
00000160: 45d3 aa3c 7f98 773d 7776 e4bd 97a8 27bd
00000170: 0ae5 fa3d 03be 663a f16a 133e 67e6 cf3d
00000180: 5a4f 85bd a459 663d 9c97 073d e73d e33d
00000190: eff8 1b3e 2b5b 7abd a048 e6bd 765f 923d
000001a0: ddd7 9abd a789 143e e28c 32bc 5499 943b
000001b0: 1878 0c3e 98c2 8f3d 0e9c 473e 46d1 98bd
000001c0: 504b 963d 3c29 b43d 3ba7 abbd 31ad a7ba
000001d0: 64bf 213e 5221 dd3d 4e7b b5bd eddc 113c
000001e0: 5c42 0f3e 39b1 95bc fc6e 9f3c a2a5 87bd
000001f0: ad6d 61bd 216f 87bd b9c9 043c 7774 44bd
-0.03632843 0.017253393 0.0041337307 -0.059083447 0.08652332 -0.054555688 0.03912868 0.1964353
-0.054947052 -0.036605835 0.0603108 -0.036351148 -0.023309011 -0.10586522 -0.06793112 -0.01863026
-0.014372771 0.06429366 0.089175425 0.096226096 0.19460258 -0.033222385 0.08301609 -0.1022544
0.23710264 -0.07766186 0.16012236 0.052512985 0.03157884 -0.03220628 0.18749957 0.024827452
-0.00918344 0.12691236 0.02353952 0.16980426 0.109223984 0.076432995 -0.08317683 0.031160811
-0.006990169 0.0410298 0.042694982 0.045443643 0.09061891 0.06931116 0.042474695 -0.026825402
0.10190137 0.03928015 -0.035992425 0.04132413 0.05640186 0.16528516 0.015369834 -0.060358986
-0.039483685 0.036840033 0.14506976 0.05588041 -0.0017829633 -0.10398654 -0.09217184 -0.079924844
-0.10388285 -0.070085384 0.0732011 0.12667772 -0.007622121 0.048875436 -0.040667735 0.019036444
0.14349213 0.119214125 0.09546455 -0.115982935 0.090948306 0.15514827 0.09967263 0.062027663
0.13946207 0.07551063 -0.0061813025 -0.10026055 0.021551492 0.0397102 0.023092808 -0.087319694
0.020852694 0.060448166 -0.11155408 -0.040932264 0.12250717 0.00088021177 0.14396264 0.10151368
-0.06509276 0.05623783 0.03310357 0.11095791 0.1523168 -0.0611221 -0.11244321 0.07147114
-0.07560704 0.14505635 -0.010897847 0.0045348797 0.13717687 0.07019538 0.19493124 -0.07461791
0.073385835 0.08796927 -0.08381506 -0.0012792704 0.15795666 0.10797371 -0.08861409 0.0089027705
0.13990158 -0.018272983 0.019462101 -0.06623389 -0.055036236 -0.06612993 0.008104735 -0.047962632

actor_head.2.weight f4 [4, 128]
00000000: ffb1 ffbc dc6b 0ebd 12a9 8b3d 4697 9abd
00000010: 2487 f4bd ee52 f6bc d53f 4cbd d1c6 a63d
00000020: f12e 5ebc f82f 8ebd 0a86 fa3c 4c26 933d
00000030: ab80 28bd 8d00 bdbc 7f40 263b 4b4d 6abd
00000040: 7999 473d 825f 16bd 8fe0 d23d b2af 383d
00000050: 06f7 843d 2ae4 b3bc d3bb ac3d c580 113d
00000060: aa20 bc3d 53fc 8e3d e24a f43d 56bc bc3c
00000070: a264 0e3e 84c7 d5bc 1aa5 db3d 007e 91bd
00000080: 1d5d 2cbc 3a64 983d 0bde 183d 7a4c 123d
00000090: 4b2f e23d 99f0 7e3d d127 043d 95e0 19bd
000000a0: 0ed5 043d 0552 7abd 83e4 0ebd 3da2 dbbc
000000b0: 95c9 1cbd d84a 563d f963 f039 a929 0bbd
000000c0: ec46 763d ba2d 8fbd 041e 743c 2afc b83d
000000d0: c559 5dbd 46ea ad3d 1b17 5bbb 5248 11bc
000000e0: 8112 36bd f976 90bd c3c8 0a3d 8bdf 14be
000000f0: f51f 373d cc91 62bd 04d8 a43a e29c e13c
00000100: e930 133d f762 733d a98a 943d 3044 173d
00000110: 5ba2 4dbd 9e80 bfbb 8c8c c2bd 418e 2b3d
00000120: 539e 713d b4fc c53d 070f 603d bf23 a8bc
00000130: fbb6 713d a682 b13d 5085 bc3d 849f b23d
00000140: 54e5 b83d 0c2d e53c e99d 18bd c7d4 b6bb
00000150: 2ad0 40bd 75ed 613d 2618 0f3d 2e6e b6bd
00000160: 12be 32bd 26a3 d2bd 4487 3e3d 8b25 a2bd
00000170: 8fbd 41bd c1d1 1fbc d837 e6bc b998 9f3c
00000180: 7610 6cbd f781 8c3a 6c52 de39 2c0a bf3c
00000190: 48fe 813d a472 6cbd 93b4 8cbd f206 12bd
000001a0: 8149 713d f867 7c3d 0e92 6dbd bcdc 8c3c
000001b0: de92 093e 99f6 653c d0cc 723d 185a f83c
000001c0: 61bc ee3c 985d 443d fa8b b3bc 5aea 9fbd
000001d0: a772 9b3d a6c0 9b3d 1fde 9bb9 6ec8 a83d
000001e0: d8a9 213d 96ff 94bd 29a7 e73c 79c4 b6bd
000001f0: d923 f2bc 1a90 b43d 43b5 1fbd 338f 3e3d
00000200: 203b aa3d b12b 55bd 9367 73bd 3f52 8ebd
00000210: 5e2c 0e3e 3241 2bbd 1394 4abc ea2f bb3d
00000220: f5aa b3bc 664d 22bc 420b 673c e3c4 983d
00000230: d63f fe3d 00fe 8abd 8ac0 89bd f763 8abc
00000240: 9b8a 0ebc ed2e c1bb 25a6 1bbd 8d50 473d
00000250: 413b fb3c 80f0 e13c 0378 d83d 5e1c 53bd
00000260: ead9 9a3d b3fb d53b 8d59 f93d 19fa b13c
00000270: cad1 dd3c 0be2 d3bb aeeb b03d 678d 703d
00000280: e3a7 093b fbf7 babd 6011 3f3d 862e 313d
00000290: 1e7c 723d bfc0 763d 255a fe3c bb96 e73c
000002a0: 12e4 2fbd 8cba b03d 99d7 d3bc 364d b13d
000002b0: 1dce 553c 437d 673d ef54 27bd a5f9 57bd
000002c0: 4b82 793d 7519 0c3c 7d0b ac3c 1380 4fbd
000002d0: 729f 97bc c540 903d 805b 853d 5a20 87bc
000002e0: 264e 713d 070a ecbc 0985 f13d 45be 923d
000002f0: 04ce 793d 0bf0 833b f8e2 ad3d e561 123c
00000300: fafc 4bbc d5f0 bdbc a211 da3d bd61 0bbc
00000310: f3b4 1f3d d9ff 43ba a6e6 37bc 114e 0a3d
00000320: f8b1 b43d 351c d63d 6e4b fc3d 6fbd d53c
00000330: 6f98 853d 81ca b63d 8057 c83d b3c8 ae3d
00000340: 8b9c 063c 87e3 8f3d 20e5 2fbd 00f8 5d3d
00000350: 9738 0dbd b88e 5abd a52a d13d f8d5 193d
00000360: 7c04 193c 8025 3a3d 1536 ea3c cc76 bcbb
00000370: 4488 9f3d 911c 25bc aa5b d73d 90fe 923c
00000380: 537b 45bd 2f37 24bd 22d4 033d f831 5a3d
00000390: 482d 8d3d 4c0e fbbc c115 d93c 7671 f3bc
000003a0: 232b 6bbd 5fcf 003e 2175 82bd 5927 023d
000003b0: 14f5 9cbc e41a 063d 13c5 393d 2365 883c
000003c0: d9b4 163d 9c35 5a3d 47ef a1bd 9b84 17bc
000003d0: 9c35 a83d 394d 43bd 0535 5d3d 7ae2 94bd
000003e0: fac4 923d 7a4d 20bd d84a 8a3c 6aa3 2bbd
000003f0: dd06 8d3c e7bd c8bc d29b cabc 8f78 833d
-0.031212805 -0.03477083 0.06819357 -0.07548384 -0.119398385 -0.03006884 -0.049865562 0.0814339
-0.013560996 -0.06942743 0.030581493 0.07185039 -0.041138332 -0.023071552 0.0025368033 -0.05720262
0.048730347 -0.036712177 0.102967374 0.04508943 0.064924285 -0.021959383 0.08434262 0.035523195
0.09185918 0.06981721 0.11928345 0.023039024 0.13905576 -0.026096113 0.1072485 -0.07104111
-0.010520247 0.07440992 0.03732113 0.035717465 0.11044177 0.06224117 0.032264534 -0.037567694
0.032429747 -0.061113376 -0.034885895 -0.02681076 -0.03827818 0.05231747 0.00045850853 -0.033975277
0.06012623 -0.069911435 0.014899734 0.090324715 -0.05404069 0.0849195 -0.003343052 -0.00886734
-0.04445124 -0.07053942 0.033882868 -0.145384 0.04470821 -0.055314824 0.0012576585 0.027540628
0.035935316 0.059420552 0.0725301 0.036930263 -0.050203662 -0.00584419 -0.094994634 0.04188371
0.05898888 0.0966734 0.05470183 -0.020524858 0.059012394 0.08667497 0.09205115 0.087218314
0.09028116 0.027975582 -0.03725997 -0.0055795643 -0.04707352 0.055158097 0.03493514 -0.08907734
-0.043638296 -0.10285024 0.046515718 -0.07917317 -0.047299918 -0.009754599 -0.0281028 0.019482004
-0.057632886 0.0010719885 0.0004240455 0.02332028 0.063473284 -0.057726517 -0.06870379 -0.035651155
0.05890799 0.06162259 -0.058000617 0.017195098 0.13434932 0.014035844 0.059277356 0.030316398
0.02914256 0.04794082 -0.021917332 -0.07808371 0.075902276 0.07605104 -0.00029729397 0.08241354
0.039468616 -0.07275312 0.02827795 -0.08924193 -0.02955811 0.08816548 -0.038991224 0.046523284
0.083120584 -0.05204362 -0.059424948 -0.06949281 0.13884112 -0.041810222 -0.012364405 0.09139998
-0.021932105 -0.009906149 0.014101805 0.07459428 0.124145195 -0.06786728 -0.06726177 -0.01689337
-0.008700038 -0.0058954866 -0.038000245 0.048660804 0.030667903 0.0275805 0.105697654 -0.051540725
0.07561095 0.006530249 0.121752836 0.021725701 0.027077574 -0.0064661554 0.08638702 0.0587286
0.002100461 -0.0912933 0.04664743 0.04325726 0.0592004 0.06024241 0.031048844 0.028270116
-0.042942114 0.08629331 -0.02585964 0.08657305 0.0130496295 0.056515943 -0.040852483 -0.052728314
0.060915273 0.008550991 0.021001572 -0.05065925 -0.018508647 0.07043604 0.06511593 -0.016494919
0.05891242 -0.028813375 0.117929526 0.07165197 0.060987487 0.004026418 0.084905565 0.008934473
-0.012450451 -0.023186127 0.106478944 -0.008507189 0.038990926 -0.0007476784 -0.0112244245 0.033765856
0.08823007 0.10454599 0.123190746 0.026091306 0.06523215 0.08925343 0.09782314 0.08534374
0.008216034 0.07025819 -0.04294312 0.05419159 -0.034477796 -0.053358763 0.10213212 0.037557572
0.009339448 0.04544592 0.028590241 -0.0057514664 0.077896625 -0.010077612 0.105155304 0.01794365
-0.048213314 -0.04009169 0.032184727 0.05327031 0.06893402 -0.030646466 0.02649963 -0.029717188
-0.057414185 0.12579106 -0.06369997 0.031775806 -0.019159831 0.03274049 0.04535396 0.016649788
0.036793564 0.053273782 -0.07906967 -0.009247924 0.0821335 -0.047681067 0.05400564 -0.072697595
0.071664765 -0.039136387 0.016881391 -0.04190389 0.017215187 -0.024504615 -0.024732504 0.06419479

actor_head.2.bias f4 [4]
00000000: 8d86 133d dc72 843d de6c 3ebe 750e 2dbe
0.03601699 0.0646722 -0.18596217 -0.16900046
