training/models/ppo_weights_ep_2000.pth (torch, 285417 bytes, 13 tensors)

shared_layers.0.weight f4 [128, 24]
-0.1724618 0.008386786 0.042445097 -0.20611656 -0.053027112 0.07020278 -0.12361883 0.0337761
0.02011251 -0.06869677 -0.1710052 -0.021238906 -0.15101233 0.013058385 0.13714264 -0.17934628
-0.0503705 -0.08889878 -0.093788795 0.18597852 -0.07964281 -0.18948793 -0.09758828 0.13022074
-0.27916807 0.17422538 -0.11828081 0.13864277 0.21973053 -0.07412696 0.21281767 -0.09352427
0.09380141 -0.038299173 -0.03824887 0.18346685 0.04454484 -0.004558504 -0.09803521 0.080590196
-0.09788767 -0.119364396 0.010922924 0.07387505 -0.047005154 0.13631667 -0.19773306 -0.19426975
-0.3057471 -0.29887217 0.077530354 0.09710493 -0.12575959 0.048803475 -0.08382568 -0.14993104
0.18617661 0.07488173 0.10073659 0.1928717 -0.11373723 0.100358695 0.16467194 -0.079023294
-0.116724044 -0.04236224 0.06969243 0.14941779 0.21016285 0.13867182 0.17274228 0.028916806
-0.20850004 -0.3310436 -0.058953956 0.17972112 0.05837364 0.25572672 -0.17685576 -0.037048552
0.17804758 0.1563036 -0.05651305 0.1288976 0.092409946 0.061915953 -0.118553184 0.16772501
0.23814145 -0.062018294 -0.08767257 -0.014918288 0.10970607 -0.09851745 0.19659553 0.12962216
-0.2946123 0.11592025 -0.14848879 0.1378892 -0.21668556 0.015861094 0.090630054 0.16561799
0.132242 -0.1164776 0.093253404 -0.07410323 0.01235319 -0.027941223 -0.22137524 0.12540261
-0.0962819 0.11659687 -0.06002573 -0.03304325 0.25388813 0.0021308782 0.06687248 -0.1383088
-0.026238684 -0.24752767 -0.10332811 -0.12254401 0.0022429903 -0.009394922 -0.18773472 -0.2841721
0.17546 0.08417323 0.21254039 -0.20240803 -0.037092086 -0.23035137 0.23766203 0.14343512
-0.20877463 -0.1335133 0.04192121 -0.05252762 -0.07454336 0.18280311 -0.009575894 -0.10482707
-0.12415899 -0.39182368 -0.2047237 0.120573945 -0.20143215 -0.08463376 -0.018711058 0.060835436
-0.27765545 0.09038153 -0.11963329 0.08724059 0.046485458 -0.18730101 0.13284965 0.08458553
-0.017467264 0.14115277 0.0047695395 0.07049727 0.008910521 -0.028500833 0.060893018 -0.124788
-0.12696421 -0.14618559 -0.13991064 0.097361535 0.24027914 -0.036698177 0.063774765 0.08949891
0.06858854 -0.12116882 0.12826043 0.07775883 -0.052937888 -0.06584623 -0.118721075 -0.13337311
-0.13071255 -0.26186642 -0.18651474 -0.18871045 -0.11235649 0.03171186 0.013736364 -0.116367474
0.00718936 0.103978574 -0.16421996 -0.13362855 0.16745253 0.15969956 -0.11240775 -0.015188376
-0.09637668 -0.1401659 -0.1711749 -0.0029978657 0.001248868 0.007920983 -0.07535061 -0.07997206
-0.005569591 -0.040938452 -0.02062163 0.1238017 0.083302364 -0.0650448 -0.18419214 -0.18776377
-0.32554787 -0.07558293 -0.112957746 0.07975251 -0.24251579 -0.17363514 -0.03922723 0.05570896
0.17476232 -0.15779959 0.1773443 -0.25079635 -0.0829052 0.12316264 0.122864604 0.17755
-0.090564944 -0.121279955 0.115390226 0.014724724 0.016229633 -0.08573216 0.16266522 0.13510959
0.11030846 -0.17407909 -0.003900082 -0.11748831 0.15668246 -0.16421089 -0.119986475 -0.1461432
-0.051849738 -0.18406545 0.07302415 0.15867676 0.1344034 0.14611775 0.14500746 -0.018356172
00000000: d399 30be bb68 093c e9da 2d3d 3810 53be
00000010: f532 59bd 7ac6 8f3d df2b fdbd cf58 0a3d
00000020: fec2 a43c e4b0 8cbd fd1b 2fbe 37fd adbc
00000030: faa2 1abe d6f2 553c 1f6f 0c3e 8da6 37be
00000040: 4c51 4ebd 9010 b6bd 5714 c0bd 2771 3e3e
00000050: c51b a3bd 2009 42be 5ddc c7bd 9658 053e
00000060: 1eef 8ebe 2368 323e 363d f2bd 5ff8 0d3e
00000070: 0a01 613e e0cf 97bd e0ec 593e a789 bfbd
00000080: f41a c03d 98df 1cbd d9aa 1cbd bcde 3b3e
00000090: a674 363d 815f 95bb afc6 c8bd 790c a53d
000000a0: 5579 c8bd 5275 f4bd 10f6 323c cd4b 973d
000000b0: 7a88 40bd 9996 0b3e 897a 4abe a6ee 46be
000000c0: e28a 9cbe c605 99be 3cc8 9e3d f3de c63d
000000d0: 1fc7 00be 27e6 473d ccac abbd 8687 19be
000000e0: 15a5 3e3e 985b 993d fc4e ce3d 2980 453e
000000f0: 11ef e8bd dc88 cd3d c39f 283e f7d6 a1bd
00000100: 040d efbd 0784 2dbd e8ba 8e3d fa00 193e
00000110: ee34 573e fcff 0d3e 5ae3 303e f0e2 ec3c
00000120: 0981 55be 8c7e a9be b479 71bd d008 383e
00000130: 3319 6f3d 9dee 823e ad19 35be 39c0 17bd
00000140: 1b52 363e 0d0e 203e 3a7a 67bd bcfd 033e
00000150: 6d41 bd3d 959b 7d3d 03cc f2bd 1bc0 2b3e
00000160: 5adb 733e e506 7ebd ad8d b3bd d66b 74bc
00000170: 93ad e03d 84c3 c9bd 5750 493e acbb 043e
00000180: 6cd7 96be 9967 ed3d 720d 18be d432 0d3e
00000190: d2e2 5dbe 20ef 813c 409c b93d c397 293e
000001a0: 726a 073e cf8b eebd a4fb be3d 6fc3 97bd
000001b0: 0965 4a3c fee4 e4bc 31b0 62be 8b69 003e
000001c0: 722f c5bd 57ca ee3d 8add 75bd 5c58 07bd
000001d0: a0fd 813e 34a6 0b3b 70f4 883d d2a0 0dbe
000001e0: 82f2 d6bc e577 7dbe b09d d3bd 5bf8 fabd
000001f0: 22ff 123b 29ed 19bc 883d 40be 017f 91be
00000200: c9ab 333e 0463 ac3d 30a4 593e 0d44 4fbe
00000210: dfed 17bd 3be1 6bbe ad5d 733e a8e0 123e
00000220: 04c9 55be b6b7 08be 93b5 2b3d 3427 57bd
00000230: 30aa 98bd bd30 3b3e 36e4 1cbc 93af d6bd
00000240: 1247 febd 1d9d c8be 17a3 51be 79ef f63d
00000250: 3b44 4ebe 7754 adbd ef47 99bc 942e 793d
00000260: db28 8ebe f419 b93d 4c02 f5bd 32ab b23d
00000270: 8967 3e3d d6cb 3fbe bd09 083e 2e3b ad3d
00000280: 8217 8fbc 5a8a 103e cc49 9c3b df60 903d
00000290: 6ffd 113c 947a e9bc f56a 793d da90 ffbd
000002a0: e802 02be adb1 15be bc44 0fbe 7c65 c73d
000002b0: bc0b 763e d450 16bd 589c 823d 344b b73d
000002c0: 2678 8c3d 5c27 f8bd b456 033e 0540 9f3d
000002d0: 66d5 58bd 63da 86bd 0924 f3bd f692 08be
000002e0: 83d9 05be 5b13 86be b8fd 3ebe 503d 41be
000002f0: 291b e6bd 4ce4 013d 7d0e 613c 1252 eebd
00000300: b994 eb3b b8f2 d43d 4729 28be ecd5 08be
00000310: ad78 2b3e 4888 233e 0936 e6bd abd8 78bc
00000320: 2361 c5bd a687 0fbe 7948 2fbe d777 44bb
00000330: 0eb1 a33a 03c7 013c 6c51 9abd 64c8 a3bd
00000340: 1e81 b6bb 14af 27bd b1ee a8bc bf8b fd3d
00000350: 6e9a aa3d 3536 85bd dd9c 3cbe 2545 40be
00000360: 36ae a6be 39cb 9abd 6456 e7bd 4955 a33d
00000370: 0f56 78be 69cd 31be bbac 20bd 142f 643d
00000380: e5f4 323e 3796 21be bf99 353e 6168 80be
00000390: 34ca a9bd b23c fc3d 70a0 fb3d abcf 353e
000003a0: 1d7a b9bd a061 f8bd b651 ec3d f83f 713c
000003b0: 02f4 843c 5894 afbd b691 263e 2b5a 0a3e
000003c0: 67e9 e13d ca41 32be 8598 7fbb b69d f0bd
000003d0: 5e71 203e e626 28be 78bb f5bd 90a6 15be
000003e0: 6460 54bd a77b 3cbe b08d 953d 297c 223e
000003f0: 0ba1 093e e49f 153e d67c 143e af5f 96bc

shared_layers.0.bias f4 [128]
0.07782682 0.020389268 0.0095831575 -0.13861841 0.14937586 0.113282606 -0.016478384 0.15289664
-0.013629238 0.07228817 0.08624679 -0.21586151 0.022331964 -0.17743881 0.24589634 -0.14482996
-0.04868869 0.03554375 -0.082078844 0.0052122422 -0.106684245 -0.019439032 -0.030195639 -0.11496536
0.20781797 0.21026064 0.10796198 -0.23288144 -0.01778656 0.022752754 0.07701945 0.18196651
-0.039805632 0.13327825 0.17671295 0.0690841 -0.25997922 0.06354746 -0.01566005 -0.14458847
-0.0807756 -0.16380261 0.17847031 -0.17841306 -0.1937915 -0.08604166 -0.123948276 0.07215768
0.13822308 -0.10744296 -0.091350056 -0.117701516 0.06383346 0.10821901 0.15178783 -0.21906278
-0.1962055 0.06693444 0.09504475 -0.16656348 0.13527411 -0.047519848 0.034466874 0.16635802
-0.12866206 0.10097453 0.04538282 0.023395393 -0.08877982 0.05308152 -0.112631224 0.07326001
0.21578994 0.17580195 -0.16439363 -0.20824376 -0.1318464 0.12231678 -0.028420188 -0.1754933
-0.068877175 0.1409818 -0.16922104 0.11438042 0.10450957 -0.13328217 0.11478888 -0.124843776
0.09395955 -0.15636586 0.12398829 0.1662063 -0.04759543 0.18396255 -0.11343253 -0.15296821
-0.13939807 -0.029876865 0.13650525 -0.015008175 -0.19541977 0.006271279 -0.007719205 -0.22636697
-0.055922873 0.029926846 0.04539973 0.16465192 -0.17292856 0.08616706 -0.07411712 0.105730884
0.021382784 -0.14033815 -0.10719415 -0.1963269 -0.13536973 -0.22514278 0.08201182 0.15711996
-0.18085568 -0.040771987 0.15383673 -0.097167835 -0.15829788 0.00856362 0.14592743 -0.20874412
00000000: ab63 9f3d 6507 a73c ad02 1d3c fcf1 0dbe
00000010: fcf5 183e b600 e83d adfd 86bc f090 1c3e
00000020: 2b4d 5fbc d20b 943d 28a2 b03d cd0a 5dbe
00000030: 86f1 b63c 85b2 35be 40cc 7b3e 4e4e 14be
00000040: cb6d 47bd 5396 113d f418 a8bd 75cb aa3b
00000050: 457d dabd 9b3e 9fbc d85c f7bc f572 ebbd
00000060: 3cce 543e 914e 573e 2c1b dd3d 7978 6ebe
00000070: 1fb5 91bc fc63 ba3c 60bc 9d3d 6e55 3a3e
00000080: 3b0b 23bd 187a 083e 3df4 343e f77b 8d3d
00000090: ff1b 85be 2c25 823d 8149 80bc 000f 14be
000000a0: ae6d a5bd dfbb 27be ecc0 363e eab1 36be
000000b0: 4771 46be 9c36 b0bd 98d8 fdbd 68c7 933d
000000c0: 5a8a 0d3e 0e0b dcbd bd15 bbbd 7e0d f1bd
000000d0: 1ebb 823d eea1 dd3d 456e 1b3e fe51 60be
000000e0: 18ea 48be ec14 893d d2a6 c23d 9e8f 2abe
000000f0: 4c85 0a3e 2ca4 42bd 232d 0d3d c259 2a3e
00000100: fdbf 03be bccb ce3d 56e3 393d b2a7 bf3c
00000110: 32d2 b5bd 026c 593d 33ab e6bd 5809 963d
00000120: 0af8 5c3e 6d05 343e ce56 28be da3d 55be
00000130: be02 07be 3881 fa3d 74d1 e8bc 84b4 33be
00000140: 7a0f 8dbd 885d 103e 4848 2dbe 4840 ea3d
00000150: 1d09 d63d 1f7b 08be 6f16 eb3d 18ae ffbd
00000160: dd6d c03d 5f1e 20be 93ed fd3d fc31 2a3e
00000170: 6df3 42bd ae60 3c3e 504f e8bd b3a3 1cbe
00000180: 5ebe 0ebe 54c0 f4bc 08c8 0b3e d9e4 75bc
00000190: 1f1c 48be 4d7f cd3b 63f1 fcbb becc 67be
000001a0: 620f 65bd 2529 f53c 11f5 393d 839a 283e
000001b0: 2f14 31be 5b78 b03d b7ca 97bd 6f89 d83d
000001c0: f32a af3c ceb4 0fbe 9b88 dbbd eb09 49be
000001d0: 5d9e 0abe d48b 66be d0f5 a73d 0ee4 203e
000001e0: 3b32 39be 8700 27bd 6087 1d3e eeff c6bd
000001f0: d718 22be 6d4e 0c3c 006e 153e 05c1 55be

shared_layers.2.weight f4 [128, 128]
0.026143355 0.1910869 0.031388626 0.023727322 0.08118719 0.040576063 -0.0034025277 0.011774309
-0.04179641 0.13993092 -0.035769653 -0.033476327 -0.032471944 0.04294029 0.05737095 0.027518742
-0.058321923 0.14740774 -0.11014601 0.043382984 -0.020920124 0.18661973 -0.027582888 0.023200078
-0.13818567 -0.117681384 -0.00032591325 0.095561326 -0.005218911 0.09896552 -0.07327889 0.09063105
-0.0018733118 -0.004888222 0.03088411 -0.00537588 -0.02187361 -0.060660627 0.024127468 0.019394994
-0.098825954 0.023140525 0.089289434 0.077842385 -0.064868264 -0.06868291 0.029102596 0.027553657
0.0136742685 0.115344696 0.013070918 -0.015687965 0.013471728 -0.1388456 0.003404127 -0.08540049
0.017411612 0.08101388 -0.010677296 0.0012020024 0.032846894 0.005119482 -0.025968038 -0.016026601
0.04604872 -0.014865077 0.010115483 0.061520316 -0.06475118 -0.08270998 0.04753981 0.0090003405
-0.16037922 -0.2709622 -0.020069296 -0.009272618 -0.06856318 -0.0875644 0.17256364 -0.05292089
0.03728213 -0.092318356 -0.05872432 0.0994196 0.10559627 -0.11953301 0.0398787 -0.08956017
-0.030881634 0.12780079 0.015856981 0.037961885 -0.092038125 0.031488717 -0.058794774 0.04797327
-0.033839058 -0.08330641 0.02514382 0.029317416 0.23610395 -0.113481425 -0.026908714 -0.016628891
0.08741605 0.031861875 -0.01458116 0.020866156 -0.14379515 -0.06136037 0.13912122 0.03887674
0.11671567 0.0014801148 -0.058653135 -0.08596026 -0.030071411 0.2191381 -0.14045113 -0.111955665
0.051530562 0.00014226271 -0.04647837 0.05354569 -0.012439337 -0.034956448 -0.104423 -0.10313027
-0.017173665 0.039190743 -0.08701147 -0.19166923 0.024406545 0.10110717 -0.07123196 0.125626
0.041277837 0.041880656 -0.022042574 0.029517904 0.014840668 0.059955887 -0.024318187 0.10836294
-0.0903326 0.094232515 0.034010924 -0.17678715 0.01989623 -0.0414707 -0.054975156 -0.16203514
0.12270807 0.07526816 -0.104585685 -0.0635212 -0.13881291 0.056083683 -0.109590985 0.15550937
-0.06811975 -0.11406031 -0.04829266 0.015452677 -0.010640978 0.06430407 -0.06933882 -0.15014133
0.076557636 0.034732394 -0.063268885 -0.030139863 2.9281522e-05 -0.06389462 0.064571515 0.04731881
-0.021825325 0.093871914 -0.0316875 0.1407502 0.0077980044 -0.041515037 0.0051052193 0.09897615
-0.045767825 0.005198284 0.121172 0.20336525 0.037048 0.13199896 -0.017101046 -0.029226627
-0.00051940756 0.027574314 0.057115268 0.012159439 0.12965648 -0.11442351 -0.067686066 0.03258291
-0.017736917 -0.037879128 -0.07316988 0.04231583 0.060683295 -0.08972086 0.046205785 -0.049716722
0.08410364 -0.10900261 0.044319335 -0.0388762 -0.036639955 -0.15661876 0.040630106 0.05276338
-0.004415628 -0.22056177 -0.0009646965 -0.06234147 -0.094445735 0.04097708 0.022880355 0.025967328
0.0060327025 -0.04380621 0.049317386 0.07043064 0.11940001 0.09024358 0.018035635 0.03339008
-0.020971218 0.09525385 -0.023070201 0.028685914 -0.051680833 -0.0731626 0.12403656 0.047490124
0.13751183 0.01690217 0.056038197 -0.017838215 -0.025861429 -0.08852664 -0.09499967 -0.051235013
0.00375595 0.061359067 0.011075638 0.10676482 0.013339719 0.070711166 -0.018237518 -0.022885734
00000000: 972a d63c 49ac 433e 5c91 003d cd5f c23c
00000010: 7845 a63d 1633 263d f1fc 5ebb 08e9 403c
00000020: b632 2bbd 0d4a 0f3e 3383 12bd 791e 09bd
00000030: 4d01 05bd 28e2 2f3d cdfd 6a3d fc6e e13c
00000040: f8e2 6ebd 0ef2 163e 3b94 e1bd 5bb2 313d
00000050: ae60 abbc 3e19 3f3e 82f5 e1bc 170e be3c
00000060: 8b80 0dbe f002 f1bd 56df aab9 a8b5 c33d
00000070: 6603 abbb 6fae ca3d 3e13 96bd c69c b93d
00000080: ea89 f5ba 612d a0bb ac00 fd3c 2628 b0bb
00000090: 4930 b3bc 4777 78bd f8a6 c53c 40e2 9e3c
000000a0: 4365 cabd 3391 bd3c 61dd b63d d46b 9f3d
000000b0: a7d9 84bd a0a9 8cbd 9168 ee3c 35b8 e13c
000000c0: 0a0a 603c d739 ec3d 6727 563c 0c84 80bc
000000d0: 86b8 5c3c 8a2d 0ebe c617 5f3b 74e6 aebd
000000e0: cca2 8e3c 9bea a53d d3ef 2ebc 828c 9d3a
000000f0: 778a 063d 54c1 a73b ecba d4bc 384a 83bc
00000100: 959d 3c3d a78c 73bc 69bb 253c bafc 7b3d
00000110: 449c 84bd da63 a9bd 1bb9 423d 2a76 133c
00000120: 733a 24be 8fbb 8abe 5d68 a4bc 2eec 17bc
00000130: da6a 8cbd f754 b3bd 86b4 303e 93c3 58bd
00000140: 26b5 183d 6811 bdbd ea88 70bd 819c cb3d
00000150: db42 d83d b9cd f4bd d957 233d 536b b7bd
00000160: 7bfb fcbc 36de 023e 80e6 813c ec7d 1b3d
00000170: 7c7e bcbd 50fa 003d cad2 70bd 9f7f 443d
00000180: d39a 0abd 8d9c aabd 6afa cd3c 142b f03c
00000190: 3cc5 713e f368 e8bd aa6f dcbc 5039 88bc
000001a0: 3007 b33d 9981 023d d1e5 6ebc 80ef aa3c
000001b0: 093f 13be 0355 7bbd cb75 0e3e 373d 1f3d
000001c0: a008 ef3d 6900 c23a 453e 70bd ef0b b0bd
000001d0: 5258 f6bc bd65 603e 6cd2 0fbe 0349 e5bd
000001e0: b611 533d 5b2c 1539 1a60 3ebd ba52 5b3d
000001f0: 5cce 4bbc 7e2e 0fbd badb d5bd f735 d3bd
00000200: c9af 8cbc 7986 203d 1233 b2bd f044 44be
00000210: 3cf0 c73c 4711 cf3d 10e2 91bd 1aa4 003e
00000220: f312 293d 0d8b 2b3d a192 b4bc 88cf f13c
00000230: 4626 733c 4e94 753d ef36 c7bc 64ed dd3d
00000240: 4c00 b9bd fafc c03d 0a4f 0b3d b107 35be
00000250: 6bfd a23c 2edd 29bd a12d 61bd 8aec 25be
00000260: 5e4e fb3d 3126 9a3d 0531 d6bd 6717 82bd
00000270: f924 0ebe 01b8 653d 3d71 e0bd d93d 1f3e
00000280: 5e82 8bbd 7498 e9bd 86ce 45bd 3a2d 7d3c
00000290: 7f57 2ebc dab1 833d 8301 8ebd a6be 19be
000002a0: 40ca 9c3d 8e43 0e3d 1e93 81bd e0e7 f6bc
000002b0: 97a1 f537 2fdb 82bd 123e 843d 5ed1 413d
000002c0: 06cb b2bc eb3f c03d c1ca 01bd d220 103e
000002d0: 6786 ff3b ac0b 2abd af49 a73b 02b4 ca3d
000002e0: 0b77 3bbd 5e56 aa3b 0729 f83d fb3e 503e
000002f0: a5bf 173d bc2a 073e 7e17 8cbc ae6c efbc
00000300: da28 08ba 87e3 e13c b3f1 693d 6238 473c
00000310: abc4 043e e056 eabd fe9e 8abd a875 053d
00000320: 034d 91bc 2527 1bbd 17da 95bd 5d53 2d3d
00000330: 0c8f 783d 92bf b7bd 4742 3d3d c3a3 4bbd
00000340: 873e ac3d c33c dfbd 3188 353d a63c 1fbd
00000350: c713 16bd ab60 20be c16b 263d 6a1e 583d
00000360: f9b0 90bb f2da 61be b0e3 7cba c559 7fbd
00000370: c46c c1bd 95d7 273d 956f bb3c 6fb9 d43c
00000380: faad c53b 246e 33bd 0701 4a3d f03d 903d
00000390: fe87 f43d a0d1 b83d 78bf 933c 09c4 083d
000003a0: d5cb abbc 7314 c33d b8fd bcbc b9fe ea3c
000003b0: 48af 53bd 46d6 95bd e106 fe3d 0185 423d
000003c0: e7cf 0c3e 6b76 8a3c 4f88 653d 7321 92bc
000003d0: 59db d3bc 744d b5bd 308f c2bd cedb 51bd
000003e0: 6226 763b a553 7b3d 9876 353c 84a7 da3d
000003f0: d68e 5a3c 04d1 903d d966 95bc dd7a bbbc

shared_layers.2.bias f4 [128]
-0.07896157 0.07351975 0.03333008 -0.077841155 -0.004178817 -0.08180794 0.018132413 0.009254189
-0.052166015 0.091275886 -0.04618799 0.070914544 0.08997652 0.03278099 0.09299758 -0.07041096
-0.027811995 0.0008652524 0.03052428 -0.035947256 0.077936545 -0.026129102 -0.02913383 -0.07758035
0.032659575 -0.034389332 0.03929215 -0.0749244 -0.05733464 0.005909363 -0.07176184 0.031706464
-0.002570214 0.043955628 -0.09709143 0.037160482 -0.08173379 -0.048124306 -0.021967262 -0.012834505
-0.02929694 -0.0012796172 0.0018500116 0.058180664 -0.01723609 -0.020710517 0.028804114 -0.10068733
-0.013748744 0.0091146985 -0.098265104 0.025313659 -0.015861267 -0.052648734 0.106681965 0.015875697
0.043879885 -0.03712362 -0.0750569 -0.019129861 -0.02356449 -0.062225796 -0.012477462 -0.042525303
0.0075394576 0.07430818 0.02775294 -0.046866834 0.10276367 -0.031703983 0.025938816 0.07046721
-0.021099938 -0.007570244 -0.06646962 -0.07234383 0.03641042 -0.028216172 -0.08928974 -0.08487559
-0.0119101005 -0.11904348 -0.0048847585 -0.056098137 -0.007641662 -0.047198933 0.042451095 0.07229156
-0.021534357 -0.057135634 -0.044835083 -0.019622356 -0.023555407 0.053789604 -0.014115237 -0.048504204
-0.076257795 0.003023821 -0.014638022 -0.08129327 0.04850177 -0.009396349 0.05678223 0.004525184
-0.0884423 -0.09121106 0.026419299 -0.084551506 0.00930106 0.0014394384 0.020750768 -0.09145932
0.014326367 -0.028986605 0.010006105 -0.028380606 0.056052342 0.039424375 -0.008046969 0.013496136
-0.04852004 -0.070496656 0.0065937415 0.08345624 0.090126514 0.02989761 -0.014755276 -0.07504408
00000000: 9bb6 a1bd 8691 963d 1f85 083d 2f6b 9fbd
00000010: 75ee 88bb ec8a a7bd 6d8a 943c e29e 173c
00000020: 08ac 55bd daee ba3d 9e2f 3dbd a53b 913d
00000030: 9c45 b83d 5c45 063d 8475 be3d 9f33 90bd
00000040: fbd5 e3bc 1bd2 623a 0e0e fa3c 6e3d 13bd
00000050: 329d 9f3d b30c d6bc 12aa eebc 72e2 9ebd
00000060: 0cc6 053d d4db 0cbd cef0 203d f771 99bd
00000070: bad7 6abd 54a3 c13b dff7 92bd a3de 013d
00000080: 0971 28bb d10a 343d dfd7 c6bd 9735 183d
00000090: 0c64 a7bd fe1d 45bd b0f4 b3bc d147 52bc
000000a0: 2300 f0bc d4b8 a7ba 177c f23a d94e 6e3d
000000b0: b332 8dbc 1aa9 a9bc 9bf6 eb3c 2935 cebd
000000c0: 6942 61bc d155 153c 373f c9bd 975e cf3c
000000d0: 7def 81bc 33a6 57bd 137c da3d c00d 823c
000000e0: 65bb 333d f00e 18bd 6fb7 99bd 3ab6 9cbc
000000f0: 510a c1bc 7ae0 7ebd 456e 4cbc 032f 2ebd
00000100: 8e0d f73b e32e 983d 225a e33c 70f7 3fbd
00000110: c275 d23d 09dc 01bd a47d d43c 1d51 903d
00000120: c7d9 acbc cf0f f8bb 3921 88bd 0029 94bd
00000130: 1823 153d 9a25 e7bc 8add b6bd 41d3 adbd
00000140: 9522 43bc 11cd f3bd 5310 a0bb 29c7 65bd
00000150: e866 fabb ab53 41bd 33e1 2d3d 990d 943d
00000160: d268 b0bc 0e07 6abd fea4 37bd 10bf a0bc
00000170: 45f7 c0bc 7d52 5c3d 9843 67bc 58ac 46bd
00000180: 0c2d 9cbd 4c2b 463b 50d4 6fbc 167d a6bd
00000190: cba9 463d 25f3 19bc 7c94 683d ff47 943b
000001a0: 3d21 b5bd ddcc babd 496d d83c 5729 adbd
000001b0: 7963 183c 8aab bc3a 84fd a93c 064f bbbd
000001c0: 23b9 6a3c 5175 edbc a5f0 233c 727e e8bc
000001d0: 2497 653d 747b 213d 6fd7 03bc e61e 5d3c
000001e0: f3bc 46bd 8d60 90bd 5010 d83b 1beb aa3d
000001f0: 4094 b83d d5eb f43c 1dc0 71bc b6b0 99bd

shared_layers.5.weight f4 [128, 128]
-0.025413785 -0.14456168 0.06799057 0.011733202 -0.04599525 0.0022806553 0.009066049 -0.057442013
-0.020255448 -0.018078065 -0.15330137 -0.22394295 -0.0145706395 -0.12726228 0.08352219 0.13146766
-0.044454694 -0.07969947 0.022305839 -0.14678891 0.031571314 -0.11804585 -0.13156165 -0.022270406
0.10396695 0.012319188 0.044900578 0.084049635 0.07170304 -0.080847345 0.11720483 0.10647009
0.07443401 0.053211 0.06816668 -0.04077421 0.024414858 0.07163557 -0.018958589 0.035343144
-0.005339198 -0.0036908952 -0.10499122 -0.112555936 -0.06729664 -0.04655475 -0.14563642 -0.07576242
-0.06672875 -0.017806 0.06426045 -0.093083434 0.06473004 -0.025961855 -0.11434586 -0.1347384
-0.11478921 0.025161784 -0.0784771 -0.055653315 -0.0573143 -0.123228185 -0.03975621 -0.011993616
0.06759587 -0.12442275 -0.060214244 -0.071894035 -0.23818073 0.086453594 0.08815935 0.011591084
-0.029875856 -0.02761214 0.047373388 0.03268604 0.051235538 -0.102013014 0.07119833 0.06477231
-0.06765506 0.0174817 0.037139963 -0.023520958 -0.07344343 0.048419617 -0.106706746 -0.06007239
-0.116157286 0.03505385 -0.069657825 -0.09287047 0.03873044 -0.04046026 0.0628432 -0.013297937
-0.0358158 0.09711956 0.03674633 0.04608948 0.030624444 0.023000168 -0.07530205 -0.07564196
0.061658546 -0.08222397 0.029653663 0.09868376 0.019053046 -0.052414723 0.009780319 0.080938876
0.07763367 -0.02800082 -0.09739125 0.07359311 -0.15108722 -0.15701613 -0.108094834 -0.22795941
-0.046270326 0.05030914 0.006349824 -0.12518626 -0.064468265 -0.109484494 0.009974603 0.047870856
0.052268863 -0.042708293 0.08037342 0.10786985 0.0546358 -0.04627446 0.07413441 -0.038318798
-0.039777268 -0.02729645 0.09666847 -0.06715209 -0.069070354 0.05208752 0.034473933 -0.0005535335
-0.007200069 -0.1588775 0.086501375 -0.044659417 0.06984806 -0.07304319 -0.042498484 -0.032791983
-0.046283547 -0.050067782 -0.2024427 0.021900008 0.07219588 0.017118946 0.017697219 0.029903613
0.06431811 0.1014524 0.008044611 -0.03614169 0.028110798 0.06765352 -0.08728055 0.011515805
0.06737275 0.076396525 0.024631342 0.036701303 -0.12848566 0.012879023 0.07338054 -0.0569759
0.03235661 -0.024028433 0.042277772 -0.0065179165 0.091847286 0.034841903 -0.06409461 0.06203735
-0.031168792 0.057595976 0.08384725 -0.10055884 0.11779902 -0.011009399 -0.097017296 0.018489003
0.0018061771 -0.023781855 -0.054703802 0.07447622 0.04874135 -0.015119455 -0.008742189 0.07276074
0.0024034807 0.036452886 0.038164448 0.052106876 0.010806911 -0.038185928 -0.0143171055 -0.22044286
-0.012408049 -0.015693123 0.00871862 -0.042137958 -0.052046437 -0.002956973 -0.05562877 0.049625657
0.083193064 -0.009915589 -0.09486054 -0.05684012 0.067607984 0.1173558 0.0011474745 0.06835763
-0.0133408895 -0.06599272 0.121745445 0.00762377 -0.075654216 -0.01323761 -0.020016069 0.07176533
0.02931835 -0.06671455 0.041188166 0.024696482 -0.05583382 -0.011937188 0.0047165165 -0.19592637
0.043100514 -0.10309846 -0.050916914 0.08475235 -0.0004371297 -0.09663723 -0.07899918 -0.013866247
-0.111240566 0.0065312213 0.061132655 -0.011887268 -0.058545765 -0.03403981 0.033845916 -0.035478886
00000000: 9230 d0bc fa07 14be a43e 8b3d 9e3c 403c
00000010: 8465 3cbd 0c77 153b c489 143c 5148 6bbd
00000020: c1ee a5bc 7318 94bc 09fb 1cbe 4d51 65be
00000030: b1b9 6ebc 0b51 02be af0d ab3d 759f 063e
00000040: 2016 36bd 7a39 a3bd bcba b63c d54f 16be
00000050: ec50 013d 06c2 f1bd 19b8 06be 6d70 b6bc
00000060: a0ec d43d 6bd6 493c abe9 373d 3722 ac3d
00000070: 0bd9 923d 4b93 a5bd 1609 f03d fe0c da3d
00000080: dc70 983d c7f3 593d f99a 8b3d dc02 27bd
00000090: ab01 c83c abb5 923d 0b4f 9bbc f9c3 103d
000000a0: 70f4 aebb f2e2 71bb a305 d7bd ba83 e6bd
000000b0: d2d2 89bd 32b0 3ebd b721 15be 5429 9bbd
000000c0: 15a9 88bd e3dd 91bc fc9a 833d 87a2 bebd
000000d0: 2f91 843d f5ad d4bc 2a2e eabd ddf8 09be
000000e0: 9b16 ebbd 1620 ce3c 9ab8 a0bd bbf4 63bd
000000f0: 66c2 6abd 0f5f fcbd 68d7 22bd df80 44bc
00000100: b46f 8a3d 5bd1 febd 36a3 76bd 2e3d 93bd
00000110: a6e5 73be 950e b13d e48c b43d 88e8 3d3c
00000120: 36be f4bc db32 e2bc 990a 423d cce1 053d
00000130: 5bdc 513d 33ec d0bd 6ed0 913d 58a7 843d
00000140: bc8e 8abd c835 8f3c 1320 183d 06af c0bc
00000150: 8269 96bd a653 463d 1189 dabd 770e 76bd
00000160: dfe3 edbd a094 0f3d c3a8 8ebd df32 bebd
00000170: cfa3 1e3d a8b9 25bd f0b3 803d 97df 59bc
00000180: 97b3 12bd 9fe6 c63d 5283 163d 53c8 3c3d
00000190: 1de0 fa3c d96a bc3c f637 9abd 2cea 9abd
000001a0: ac8d 7c3d 0a65 a8bd 3dec f23c b61a ca3d
000001b0: 2215 9c3c d2b0 56bd a23d 203c 48c3 a53d
000001c0: 67fe 9e3d fa61 e5bc 1075 c7bd fcb7 963d
000001d0: 9cb6 1abe d6c8 20be d360 ddbd 316e 69be
000001e0: f485 3dbd f510 4e3d 2f12 d03b d430 00be
000001f0: f007 84bd 6839 e0bd 846c 233c 3b14 443d
00000200: e017 563d e4ee 2ebd d29a a43d deea dc3d
00000210: cac9 5f3d 4a8a 3dbd c8d3 973d 2cf4 1cbd
00000220: 7ded 22bd ce9c dfbc 1efa c53d 0987 89bd
00000230: c274 8dbd b959 553d 8a34 0d3d 011b 11ba
00000240: 8eee ebbb c9b0 22be a227 b13d cbec 36bd
00000250: 800c 8f3d ab97 95bd e412 2ebd e350 06bd
00000260: d193 3dbd e013 4dbd 244d 4fbe a567 b33c
00000270: 6fdb 933d 083d 8c3c c2f9 903c 6cf8 f43c
00000280: 37b9 833d 47c6 cf3d 8bcd 033c 4f09 14bd
00000290: 9e48 e63c ee8d 8a3d 25c0 b2bd c9ac 3c3c
000002a0: b9fa 893d c875 9c3d abc7 c93c 1b54 163d
000002b0: bf91 03be 8a02 533c 8948 963d 905f 69bd
000002c0: 5d88 043d 47d7 c4bc 752b 2d3d 3f94 d5bb
000002d0: 6e1a bc3d 62b6 0e3d 0944 83bd e01a 7e3d
000002e0: b255 ffbc c2e9 6b3d 1bb8 ab3d cbf1 cdbd
000002f0: 9d40 f13d c460 34bc 01b1 c6bd 4076 973c
00000300: 3fbd ec3a 2ad2 c2bc 1811 60bd fd86 983d
00000310: 03a5 473d 97b7 77bc 663b 0fbc 9503 953d
00000320: b783 1d3b 9f4f 153d 5352 1c3d 056e 553d
00000330: 780f 313c d968 1cbd 4b92 6abc c6bb 61be
00000340: 214b 4bbc dd8e 80bc 8bd8 0e3c da98 2cbd
00000350: a52e 55bd c6c9 41bb feda 63bd 4644 4b3d
00000360: 2061 aa3d ff74 22bc 3e46 c2bd 30d1 68bd
00000370: 0e76 8a3d 3d58 f03d db66 963a 16ff 8b3d
00000380: bf93 5abc 3127 87bd ad55 f93d d1d0 f93b
00000390: 99f0 9abd 90e2 58bc bdf8 a3bc b4f9 923d
000003a0: 092d f03c a3a1 88bd ecb4 283d 4750 ca3c
000003b0: 01b2 64bd 3294 43bc 028d 9a3b eca0 48be
000003c0: 2a8a 303d 4925 d3bd 418e 50bd a492 ad3d
000003d0: 8e2e e5b9 bde9 c5bd 52ca a1bd 412f 63bc
000003e0: 18d2 e3bd db03 d63b 3c66 7a3d d1c2 42bc
000003f0: afcd 6fbd 546d 0bbd 04a2 0a3d 4f52 11bd

shared_layers.5.bias f4 [128]
0.119580254 0.12997843 0.072751656 0.14220618 0.073254034 0.06092902 0.0813695 0.04260545
0.22291288 0.1105697 0.10321178 0.10071819 -0.060095277 0.2240712 0.13777246 0.05965522
0.13366929 -0.009271996 0.19769785 0.21844725 0.09176041 0.028759615 0.118701525 0.08998109
0.124782465 0.078326784 0.036600556 0.07345739 0.1877375 -0.057672285 0.079511724 0.21141051
-0.092725456 0.075567424 0.2740227 -0.0913189 0.06274825 0.15264118 -0.030183654 0.02145427
0.06676653 0.07434074 0.1592645 -0.06738379 0.03037781 0.07000809 0.13884331 0.08644801
0.2466915 0.071362585 -0.04600174 0.13144286 0.10265308 0.065779135 0.053088095 0.13474321
0.07353353 0.11066752 0.04359186 0.14812689 -0.0483531 0.030874154 -0.09441204 0.21117754
0.071089916 0.0510645 -0.05055316 -0.10529784 0.2574569 0.074199915 0.19781873 0.13061649
0.041160706 0.13545229 -0.045762807 0.13969591 0.12918074 -0.059898328 0.07597123 0.11433995
0.011211222 -0.10090436 0.031030433 0.023820415 0.12648478 0.06535424 0.04302586 -0.047520146
0.14384495 0.1385967 0.17001213 -0.06360093 0.09028712 0.14840558 0.12626639 0.09042463
0.0076564644 0.19041073 0.14627661 0.061532345 0.19483511 0.105318196 0.18558706 0.062638134
0.12190922 0.27932262 0.015941337 0.07019785 0.15687191 0.10148159 0.09460337 0.054008093
0.14171459 0.10131216 0.16090351 0.13303927 0.036948532 0.12103146 0.123959176 0.031533558
0.06333119 0.114374556 0.071801305 0.15630464 -0.022681413 -0.09800436 0.14802183 0.108349726
00000000: 7ee6 f43d 1119 053e d2fe 943d 7f9e 113e
00000010: 3606 963d b590 793d 0da5 a63d 0d83 2e3d
00000020: 4643 643e 5e72 e23d b360 d33d 5745 ce3d
00000030: 7726 76bd ec72 653e 3914 0d3e 0859 743d
00000040: 9ae0 083e 92e9 17bc 4e71 4a3e a3b0 5f3e
00000050: e2ec bb3d 4999 eb3c c919 f33d 0148 b83d
00000060: f38d ff3d cb69 a03d 77ea 153d d470 963d
00000070: 423e 403e c639 6cbd 0bd7 a23d ff7b 583e
00000080: d8e6 bdbd 18c3 9a3d b44c 8c3e 6705 bbbd
00000090: 2882 803d f84d 1c3e b643 f7bc dec0 af3c
000000a0: e4bc 883d f53f 983d 3c16 233e 8300 8abd
000000b0: e3da f83c 6760 8f3d f12c 0e3e a70b b13d
000000c0: b29c 7c3e 8c26 923d 526c 3cbd f598 063e
000000d0: c73b d23d 36b7 863d e772 593d 20fa 093e
000000e0: bf98 963d a7a5 e23d 618d 323d 93ae 173e
000000f0: e60d 46bd cbeb fc3c 1a5b c1bd ed3e 583e
00000100: 9797 913d 0229 513d d510 4fbd 65a6 d7bd
00000110: 64d1 833e 20f6 973d fe90 4a3e 54c0 053e
00000120: 2198 283d 01b4 0a3e c871 3bbd 720c 0f3e
00000130: f547 043e f357 75bd ce96 9b3d 102b ea3d
00000140: 46af 373c f2a6 cebd 8933 fe3c 0823 c33c
00000150: 3a85 013e 72d8 853d e23b 303d 7ca4 42bd
00000160: 174c 133e 4bec 0d3e a917 2e3e 3441 82bd
00000170: 74e8 b83d a2f7 173e fa4b 013e 8c30 b93d
00000180: 14e3 fa3b 08fb 423e 89c9 153e 5709 7c3d
00000190: db82 473e 11b1 d73d 890a 3e3e 6c48 803d
000001a0: 8bab f93d 6003 8f3e 6897 823c e4c3 8f3d
000001b0: 08a3 203e 94d5 cf3d 69bf c13d 9737 5d3d
000001c0: a11d 113e c07c cf3d e4c3 243e 723b 083e
000001d0: 5857 173d 58df f73d 4fde fd3d 5529 013d
000001e0: c8b3 813d 353d ea3d 900c 933d 530e 203e
000001f0: 5fce b9bc 83b6 c8bd 0993 173e 76e6 dd3d

actor_head.0.weight f4 [128, 128]
-0.058757782 -0.10788452 -0.05988146 -0.06441981 -0.11514754 6.1040664e-05 0.11220598 -0.092223816
0.057464782 -0.093445 -0.07831824 -0.064821996 -0.063021146 -0.065071225 -0.017896147 -0.063442685
0.035030074 -0.018857406 0.039847888 -0.104426704 -0.005402896 -0.11353067 0.12655637 -0.03158191
0.048317857 0.019822031 -0.038391925 0.01980614 -0.065450706 -0.07732113 -0.11908766 0.08795081
-0.0006227745 0.018574849 0.015892196 -0.085130334 0.016056417 -0.063922375 -0.047451366 -0.009987422
0.19662698 0.08469903 -0.0435981 0.073056936 -0.015527622 0.10677426 -0.011634935 -0.040530995
-0.063702464 0.025281858 0.06440556 0.03933922 0.10033416 0.117942065 0.06871847 0.011650976
-0.023824232 0.0032549598 -0.02868382 0.010972353 -0.06596326 0.06927384 -0.045683287 -0.06556374
0.08245555 0.017130297 -0.029430714 -0.03235471 0.039556466 -0.04936229 -0.07133608 -0.054885827
-0.09587701 -0.053398155 -0.045576073 -0.093906336 -0.050956577 0.05859284 0.01504306 0.046240773
0.005471151 -0.0662409 -0.025380878 -0.03246338 0.014813373 -0.056523755 -0.03852702 -0.006914685
0.0017880357 -0.005103153 -0.14939371 -0.055049025 0.02701917 0.013485392 -0.02029577 0.07932225
-0.05678475 0.051060844 -0.02744623 0.04583753 -0.10260862 -0.055456895 -0.01851111 -0.019444302
0.023713866 0.040286805 -0.019366048 0.009062785 -0.03406178 -0.0023441256 -0.09453127 0.10825354
-0.051013734 0.060575843 -0.019345066 -0.12291601 -0.12827672 -0.015200486 0.040246677 0.0526598
0.09865525 -0.08727073 0.090849586 -0.0014272855 0.007196712 0.091175325 -0.1104338 0.07381309
0.019991172 -0.0056080283 -0.071807966 -0.048728544 -0.020770099 -0.0439359 -0.01051767 0.058615405
0.06438659 -0.06545308 0.027138205 0.018947927 -0.0035651685 -0.10913483 0.056591757 -0.09211484
-0.06791154 -0.0063108727 0.004204411 0.0054236907 -0.01854022 -0.079622455 -0.0637491 -0.12881294
0.017451832 -0.021008532 -0.06873418 -0.09245183 -0.07237179 -0.043795433 0.016872691 0.04205529
0.08230309 -0.115710676 0.02335113 -0.004987399 -0.050470375 -0.0515617 -0.05159126 0.07305278
-0.034538515 0.05638296 0.019764053 0.028836368 -0.022789825 0.031582 0.06575538 -0.09110932
-0.035939097 -0.009636062 -0.09738886 -0.057260692 -0.090746194 -0.08993935 -0.057410687 -0.04248466
-0.06405177 -0.027281096 -0.028046485 -0.06372821 0.033137728 0.077590704 -0.057203628 -0.06610548
-0.054295637 0.06279528 -0.04740071 -0.07018003 -0.040692627 0.049644653 0.005018311 -0.0264017
0.018091427 -0.0038616413 0.060331613 -0.00635976 0.0026343386 -0.011830949 -0.05698088 0.06378841
-0.03954002 -0.09107032 -0.0922475 -0.07210018 0.070107825 -0.029949944 -0.07358623 -0.058717236
0.029641565 0.051298007 -0.016006965 0.062663935 0.006054138 -0.040641576 -0.021744724 -0.04922095
-0.015753958 0.008645439 0.06693323 0.06912044 0.03374442 0.023099367 0.04988166 -0.054704852
0.0452531 -0.044974267 -0.06381357 -0.0068293614 0.05453821 0.03904867 -0.05006678 0.07111825
-0.024127066 -0.03232291 -0.075018354 0.053265087 -0.0011683614 -0.07559556 0.06670637 0.07604425
0.053789657 -0.0510989 0.032980114 -0.027683416 -0.018354172 0.042512998 0.0142583735 0.051587008
00000000: 00ac 70bd 8ff2 dcbd 4346 75bd 89ee 83bd
00000010: 79d2 ebbd f502 8038 40cc e53d d7df bcbd
00000020: 3160 6b3d 1860 bfbd 5065 a0bd 65c1 84bd
00000030: 3b11 81bd 1044 85bd f19a 92bc 3dee 81bd
00000040: b27b 0f3d d97a 9abc 8a37 233d abdd d5bd
00000050: c70a b1bb c582 e8bd fe97 013e 085c 01bd
00000060: f2e8 453d d061 a23c da40 1dbd 7c40 a23c
00000070: 050b 86bd 8a5a 9ebd 3be4 f3bd 8e1f b43d
00000080: b041 23ba 482a 983c 5a30 823c d058 aebd
00000090: bf88 833c bce9 82bd 5d5c 42bd 49a2 23bc
000000a0: 9558 493e af76 ad3d ec93 32bd e09e 953d
000000b0: 9167 7ebc 77ac da3d 74a0 3ebc d403 26bd
000000c0: 7076 82bd e61b cf3c 10e7 833d 2922 213d
000000d0: ff7b cd3d 9c8b f13d 45bc 8c3d bce3 3e3c
000000e0: 092b c3bc 2a51 553b 55fa eabc 62c5 333c
000000f0: bf17 87bd 71df 8d3d 661e 3bbd 4846 86bd
00000100: 75de a83d d654 8c3c ae18 f1bc 5f86 04bd
00000110: f605 223d 1d30 4abd a718 92bd f6cf 60bd
00000120: 2a5b c4bd 06b8 5abd faad 3abd f751 c0bd
00000130: d8b7 50bd 0cff 6f3d 2b77 763c f766 3d3d
00000140: 5747 b33b 4fa9 87bd 8feb cfbc 52f8 04bd
00000150: cab3 723c 7485 67bd 82ce 1dbd 9594 e2bb
00000160: 865c ea3a 5a38 a7bb aafa 18be 167b 61bd
00000170: 4e57 dd3c d5f1 5c3c 5143 a6bc b473 a23d
00000180: 2097 68bd 2d25 513d ebd6 e0bc 22c0 3b3d
00000190: 7824 d2bd c526 63bd 9da4 97bc a849 9fbc
000001a0: 9543 c23c c703 253d 8ca5 9ebc 137c 143c
000001b0: 5d84 0bbd e79f 19bb 9c99 c1bd 08b4 dd3d
000001c0: c7f3 50bd 601e 783d 8b79 9ebc 64bb fbbd
000001d0: f95a 03be 760b 79bc b3d9 243d cdb1 573d
000001e0: c40b ca3d ffba b2bd 590f ba3d c113 bbba
000001f0: 65d2 eb3b 21ba ba3d 1e2b e2bd 512b 973d
00000200: 87c4 a33c 8dc3 b7bb 0e10 93bd 9597 47bd
00000210: 0e26 aabc 21f6 33bd 4e52 2cbc b516 703d
00000220: 1edd 833d 440c 86bd f150 de3c af38 9b3c
00000230: 9aa5 69bb 1582 dfbd c2cc 673d b5a6 bcbd
00000240: 3515 8bbd 70cb cebb 28c5 893b 37b9 b13b
00000250: a9e1 97bc 1911 a3bd e38e 82bd 8ae7 03be
00000260: 25f7 8e3c 161a acbc 81c4 8cbd 6357 bdbd
00000270: a937 94bd d762 33bd 9938 8a3c 2b42 2c3d
00000280: 868e a83d b8f9 ecbd de4a bf3c 566d a3bb
00000290: 06ba 4ebd 5c32 53bd 5b51 53bd b29c 953d
000002a0: 4278 0dbd d2f1 663d 39e8 a13c 3f3a ec3c
000002b0: bab1 babc 215c 013d c2aa 863d 8697 babd
000002c0: e034 13bd 93e0 1dbc d073 c7bd 308a 6abd
000002d0: 24d9 b9bd 1f32 b8bd 7827 6bbd 6504 2ebd
000002e0: 932d 83bd 9b7c dfbc bec1 e5bc f083 82bd
000002f0: 6dbb 073d e0e7 9e3d 5a4e 6abd 4f62 87bd
00000300: 1a65 5ebd d09a 803d 3f27 42bd 8cba 8fbd
00000310: 50ad 26bd 3158 4b3d a570 a43b 6148 d8bc
00000320: 7934 943c 9713 7dbb 481e 773d 8965 d0bb
00000330: dea4 2c3b 99d6 41bc c964 69bd 7fa3 823d
00000340: b7f4 21bd 1383 babd 42ec bcbd 42a9 93bd
00000350: b194 8f3d 9659 f5bc 61b4 96bd 7c81 70bd
00000360: ded2 f23c dc1d 523d 0a21 83bc f355 803d
00000370: ca61 c63b c877 26bd fe21 b2bc e89b 49bd
00000380: 720e 81bc 99a5 0d3c 4a14 893d 048f 8d3d
00000390: 9737 0a3d e23a bd3c b650 4c3d 3212 60bd
000003a0: 515b 393d f036 38bd b0b0 82bd d6c8 dfbb
000003b0: 7563 5f3d 80f1 1f3d d312 4dbd 72a6 913d
000003c0: 20a6 c5bc 0765 04bd 39a3 99bd 7e2c 5a3d
000003d0: b423 99ba d8d1 9abd 599d 883d 16bd 9b3d
000003e0: 8b52 5c3d 154d 51bd 2816 073d 55c8 e2bc
000003f0: 7d5b 96bc 1c22 2e3d f49b 693c e64c 533d

actor_head.0.bias f4 [128]
-0.022143103 0.019862631 0.0041337307 -0.05584775 0.080128 -0.05073305 0.052718297 0.18888265
-0.049951978 -0.032888476 0.059348524 -0.036351148 -0.014839109 -0.10586522 -0.06700595 -0.0181675
-0.015705213 0.06616889 0.08940578 0.09345739 0.18897212 -0.039180685 0.0704175 -0.1022544
0.22567652 -0.07766186 0.15849882 0.055315815 0.031726614 -0.029757587 0.17806791 0.024827452
-0.00918344 0.12482965 0.021607034 0.16633669 0.10405411 0.06950073 -0.08360321 0.02949215
-0.006990169 0.043535907 0.039959136 0.03983674 0.07366756 0.062041584 0.042474695 -0.017365273
0.099328436 0.034527887 -0.039475046 0.041451227 0.052373983 0.15687272 0.018258022 -0.060358986
-0.03179765 0.027326927 0.13871428 0.050167475 -0.0014300625 -0.0886558 -0.09252833 -0.079924844
-0.104923174 -0.070085384 0.0623484 0.12348737 -0.009933542 0.04832103 -0.037523348 0.026014548
0.1333327 0.11655842 0.087580174 -0.11686136 0.090110525 0.15393789 0.09801369 0.053468034
0.13727987 0.07062241 -0.0060949083 -0.10026055 0.021551492 0.04046193 0.014698259 -0.08712402
0.022143474 0.06441836 -0.10833643 -0.0422887 0.11090761 0.0011239257 0.13786569 0.09207781
-0.06430581 0.05623783 0.032469645 0.10319109 0.1487888 -0.0611221 -0.10862898 0.06938941
-0.07594041 0.1371122 -0.010897847 0.0076695327 0.13742808 0.060336437 0.18479012 -0.074015945
0.07096382 0.08755206 -0.08381506 -0.001563256 0.15182815 0.10330633 -0.0883539 0.008216759
0.13133052 -0.016503835 0.019462101 -0.0755304 -0.055841446 -0.067886725 0.0098848445 -0.05061972
00000000: 7465 b5bc f5b6 a23c 3f74 873b 9cc0 64bd
00000010: 261a a43d 75cd 4fbd 24ef 573d 746a 413e
00000020: 729a 4cbd 11b6 06bd 7017 733d f1e4 14bd
00000030: bc1f 73bc ddcf d8bd 6a3a 89bd 02d4 94bc
00000040: 38a8 80bc 8e83 873d 611a b73d 9766 bf3d
00000050: e881 413e ed7b 20bd 0d37 903d c16a d1bd
00000060: bf17 673e 2e0d 9fbd 844d 223e d692 623d
00000070: c4f3 013d 2fc6 f3bc 6f57 363e f162 cb3c
00000080: 2476 16bc b0a6 ff3d 3c01 b13c 2a54 2a3e
00000090: 521a d53d 6656 8e3d 2938 abbd 8599 f13c
000000a0: ca0d e5bb b552 323d 31ac 233d d92b 233d
000000b0: 05df 963d 511f 7e3d f2f9 2d3d 9e41 8ebc
000000c0: b56c cb3d 1d6d 0d3d 96b0 21bd c3c8 293d
000000d0: 1a86 563d 3ea3 203e d991 953c fc3a 77bd
000000e0: 413e 02bd b8dc df3c 1e0b 0e3e 697c 4d3d
000000f0: ef70 bbba 2c91 b5bd 7e7f bdbd a3af a3bd
00000100: f6e1 d6bd ed88 8fbd 0961 7f3d f2e6 fc3d
00000110: 4cc0 22bc 46ec 453d 15b2 19bd 761c d53c
00000120: 5e88 083e 2eb6 ee3d 3c5d b33d 0255 efbd
00000130: de8b b83d e5a1 1d3e 67bb c83d 4c01 5b3d
00000140: 1893 0c3e 7ba2 903d ccb7 c7bb 6755 cdbd
00000150: c18c b03c 69bb 253d f7d0 703c 146e b2bd
00000160: 3b66 b53c c6ed 833d 7ddf ddbd ea36 2dbd
00000170: 8723 e33d b050 933a aa2c 0d3e 4a93 bc3d
00000180: c4b2 83bd a459 663d e4fe 043d da55 d33d
00000190: 175c 183e 2b5b 7abd df78 debd 091c 8e3d
000001a0: a586 9bbd 2467 0c3e e28c 32bc b450 fb3b
000001b0: f2b9 0c3e 5723 773d 9f39 3d3e ac95 97bd
000001c0: 7b55 913d 7f4e b33d 3ba7 abbd 2be6 ccba
000001d0: d778 1b3e 4592 d33d e4f2 b4bd 969f 063c
000001e0: 827b 063e 0d33 87bc fc6e 9f3c afaf 9abd
000001f0: 00ba 64bd 3208 8bbd 0bf4 213c a056 4fbd

actor_head.2.weight f4 [4, 128]
-0.04244344 -0.032917257 0.06819357 -0.078909114 -0.12404373 -0.026086379 -0.05966423 0.084378354
-0.010390032 -0.065823846 0.022394361 0.07185039 -0.0556826 -0.023071552 0.0039997795 -0.05799212
0.050099973 -0.038587946 0.110191435 0.05226231 0.07053097 -0.016308023 0.085849516 0.035523195
0.0963417 0.06981721 0.12600902 0.023526356 0.14634225 -0.027978389 0.113244295 -0.07104111
-0.010520247 0.08073901 0.04038426 0.04197008 0.11605227 0.054184377 0.03283627 -0.036268774
0.032429747 -0.058324944 -0.03470484 -0.030614471 -0.044229083 0.05985462 0.00045850853 -0.027282486
0.06624795 -0.0653527 0.017459262 0.097583614 -0.050090857 0.09302079 -0.006246271 -0.00886734
-0.05943177 -0.07039485 0.031111619 -0.15591264 0.044103645 -0.06993122 0.0016097631 0.027540628
0.03500332 0.059420552 0.072446436 0.044386063 -0.05032635 -0.0009440471 -0.09625876 0.047272354
0.06101331 0.10228112 0.054756172 -0.018183496 0.06581798 0.09231946 0.09833954 0.0928581
0.09710153 0.026145604 -0.029922942 -0.0055795643 -0.04707352 0.055656377 0.03427716 -0.08873189
-0.053277276 -0.11838338 0.04921893 -0.07811876 -0.050655875 -0.009902189 -0.03194822 0.024752533
-0.05785569 0.0010719885 0.00018237293 0.024337033 0.07061218 -0.057726517 -0.07515277 -0.028341988
0.05862583 0.06147814 -0.058000617 0.014244025 0.14167319 0.019400986 0.06533769 0.03127301
0.033879846 0.0548399 -0.021917332 -0.08353281 0.07857693 0.08019838 -0.00037975152 0.092053056
0.04106064 -0.07450812 0.02827795 -0.074813105 -0.028940672 0.085968785 -0.039667286 0.048855606
0.094075136 -0.05389301 -0.059424948 -0.06606759 0.14253487 -0.045797303 -0.0028638444 0.08747107
-0.025103368 -0.013500959 0.021180058 0.07459428 0.13801537 -0.06786728 -0.06872482 -0.016103905
-0.010069824 -0.0040196725 -0.04614895 0.040691756 0.024101572 0.021922266 0.10323787 -0.051540725
0.07012688 0.006530249 0.11406439 0.021247514 0.018851709 -0.004583859 0.07946555 0.0587286
0.002100461 -0.09856736 0.043590818 0.035864457 0.052577473 0.067176335 0.030477066 0.026971126
-0.042942114 0.083531104 -0.026040751 0.08946077 0.017717175 0.047958404 -0.040852483 -0.059414595
0.053824835 0.0037738315 0.018442255 -0.05881739 -0.022458075 0.061337106 0.0680193 -0.016494919
0.073237374 -0.029882964 0.11969553 0.081344284 0.061592076 0.018405624 0.08455345 0.008934473
-0.011518314 -0.023186127 0.10561705 -0.016904283 0.03847755 -0.0056273104 -0.010523293 0.02837842
0.085335 0.09789605 0.12218531 0.023750676 0.057512745 0.08270542 0.09056109 0.0788805
0.00044376246 0.07117764 -0.05074144 0.05419159 -0.034477796 -0.053857062 0.10192639 0.037212145
0.017734988 0.060221463 0.025886482 -0.006755116 0.080108754 -0.009929893 0.1078561 0.01196577
-0.047990467 -0.04009169 0.03193976 0.051041003 0.06082899 -0.030646466 0.032948606 -0.03702419
-0.057132013 0.12501189 -0.06369997 0.034726605 -0.027447695 0.026424298 0.03835893 0.015693007
0.03114889 0.04546105 -0.07906967 -0.0045513785 0.0781961 -0.05248538 0.05408809 -0.08309421
0.068821594 -0.037381336 0.016881391 -0.056331385 0.016597766 -0.022308182 -0.02405554 0.061866418
00000000: 2cd9 2dbd 3fd4 06bd 12a9 8b3d 1a9b a1bd
00000010: a40a febd 1ab3 d5bc 7b62 74bd 8fce ac3d
00000020: f43a 2abc a7ce 86bd 6174 b73c 4c26 933d
00000030: 7013 64bd 8d00 bdbc 9510 833b 2589 6dbd
00000040: a135 4d3d 650e 1ebd 0cac e13d 0111 563d
00000050: 8b72 903d 6798 85bc dfd1 af3d c580 113d
00000060: cc4e c53d 53fc 8e3d 8208 013e 58ba c03c
00000070: beda 153e ef32 e5bc a0ec e73d 007e 91bd
00000080: 1d5d 2cbc 7e5a a53d f769 253d d2e8 2b3d
00000090: d0ac ed3d 70f0 5d3d 537f 063d 918e 14bd
000000a0: 0ed5 043d 23e6 6ebd aa26 0ebd 33cb fabc
000000b0: 8e29 35bd 1e2a 753d f963 f039 857f dfbc
000000c0: 01ad 873d a3d7 85bd ba06 8f3c ebd9 c73d
000000d0: 122c 4dbd af81 be3d 85ad ccbb 5248 11bc
000000e0: ba6e 73bd 2d2b 90bd cbdd fe3c 90a7 1fbe
000000f0: 06a6 343d 1938 8fbd b0fe d23a e29c e13c
00000100: a45f 0f3d f762 733d cc5e 943d 29ce 353d
00000110: 0123 4ebd ee79 77ba 5023 c5bd a8a0 413d
00000120: 18e9 793d c478 d13d 0248 603d 8ef5 94bc
00000130: 94cb 863d fc11 bd3d 3e66 c93d 632c be3d
00000140: 2bdd c63d 4e2f d63c f520 f5bc c7d4 b6bb
00000150: 2ad0 40bd f1f7 633d 3566 0c3d 11b9 b5bd
00000160: 4639 5abd fc72 f2bd ca99 493d bafc 9fbd
00000170: 897c 4fbd ca3c 22bc 23dc 02bd d3c5 ca3c
00000180: 17fa 6cbd f781 8c3a 5c3b 3f39 755e c73c
00000190: 1e9d 903d a472 6cbd b2e9 99bd 752d e8bc
000001a0: a321 703d 81d0 7b3d 0e92 6dbd c55f 693c
000001b0: c712 113e d1ee 9e3c c4cf 853d 2118 003d
000001c0: 98c5 0a3d ce9f 603d fa8b b3bc 4013 abbd
000001d0: f1ec a03d 0c3f a43d 6319 c7b9 5086 bc3d
000001e0: 342f 283d b797 98bd 29a7 e73c 9d37 99bd
000001f0: fd14 edbc 6710 b03d 2a7a 22bd d11c 483d
00000200: 77aa c03d ebbe 5cbd 9367 73bd 724e 87bd
00000210: a9f4 113e f495 3bbd 56af 3bbb 0824 b33d
00000220: 94a5 cdbc 2033 5dbc cd81 ad3c e3c4 983d
00000230: e753 0d3e 00fe 8abd 99bf 8cbd 56ec 83bc
00000240: e7fb 24bc 75b7 83bb ae06 3dbd 66ac 263d
00000250: a970 c53c 5396 b33c 606e d33d 5e1c 53bd
00000260: af9e 8f3d b3fb d53b 979a e93d 440f ae3c
00000270: e66e 9a3c 3234 96bb d6be a23d 678d 703d
00000280: e3a7 093b afdd c9bd 498c 323d 9ce6 123d
00000290: 7a5b 573d bf93 893d 0aab f93c 8df2 dc3c
000002a0: 12e4 2fbd 5b12 ab3d 6a53 d5bc 3537 b73d
000002b0: 9c23 913c 0870 443d ef54 27bd b85c 73bd
000002c0: 6e77 5c3d 6352 773b 3614 973c 81ea 70bd
000002d0: fff9 b7bc 9e3c 7b3d b44d 8b3d 5a20 87bc
000002e0: 7afd 953d 1ecd f4bc ee22 f53d d597 a63d
000002f0: f947 7c3d 64c7 963c 5c2a ad3d e561 123c
00000300: 4fb7 3cbc d5f0 bdbc c04d d83d da7a 8abc
00000310: a39a 1d3d 4d65 b8bb e469 2cbc dc79 e83c
00000320: 1ec4 ae3d b97d c83d 4b3c fa3d c790 c23c
00000330: 7c92 6b3d 7661 a93d 1878 b93d 198c a13d
00000340: caa8 e839 95c5 913d 42d6 4fbd 00f8 5d3d
00000350: 9738 0dbd 3999 5cbd c8be d03d c36b 183d
00000360: f748 913c c8aa 763d e30f d43c 055a ddbb
00000370: 0f10 a43d fdb0 22bc a9e3 dc3d 140c 443c
00000380: a791 44bd 2f37 24bd 44d3 023d 5f10 513d
00000390: d227 793d 4c0e fbbc 1ef5 063d ada6 17bd
000003a0: 4203 6abd 1e03 003e 2175 82bd 7c3d 0e3d
000003b0: fdd9 e0bc c577 d83c 411e 1d3d 9f8e 803c
000003c0: f52b ff3c 5e35 3a3d 47ef a1bd bb23 95bb
000003d0: 4725 a03d e9fa 56bd 798b 5d3d 4c2d aabd
000003e0: 56f2 8c3d 2c1d 19bd d84a 8a3c bdbb 66bd
000003f0: 0af8 873c a6bf b6bc 2010 c5bc a467 7d3d

actor_head.2.bias f4 [4]
0.03733149 0.061580572 -0.18457225 -0.17234777
00000000: e8e8 183d e93b 7c3d 8200 3dbe ef7b 30be
