training/models/ppo_weights.pth (torch, 57031 bytes, 11 tensors)

shared_layers.0.weight f4 [64, 2]
-0.27774167 -0.606126 -0.038798716 -0.48025557 0.16450913 -0.28332254 -0.04673423 0.56176436
0.5598315 0.66420776 0.6185164 0.6948633 -0.63747436 0.18577392 -0.017157264 -0.3459431
-0.038963303 0.36626863 0.33267865 0.023678325 -0.0127450945 -0.049736172 0.19130276 -0.40042368
-0.17809755 0.02562847 -0.5094361 -0.7030459 0.39045203 0.38540426 -0.2446721 0.34945974
-0.07669298 -0.6290735 0.21674962 0.110963166 0.34641442 -0.60272354 -0.25580862 0.41463685
0.6566767 -0.11921758 -0.026691295 -0.028501824 -0.9135927 0.26084736 -0.07109562 0.016035011
0.52470464 0.051461976 0.24616432 -0.4250552 0.23686014 0.6962339 -0.66245556 0.10371843
0.21129605 -0.46342522 0.3856508 0.377995 0.47397193 -0.3142417 -0.014936058 0.41294912
-0.77350986 0.2199678 -0.6201537 -0.35336605 -0.05808375 0.15611044 0.12160981 0.41319114
0.7142728 -0.43416694 0.41292498 -0.6799026 0.006949972 -0.57615507 -0.57208073 0.28133607
-0.018228007 -0.025144916 -0.09352354 -0.4232259 0.7566783 -0.6374364 -0.20883368 0.01263535
0.09090239 -0.022468872 -0.16272072 -0.21305968 -0.049603477 0.39841202 -0.04821683 -0.0021597168
-0.059625853 0.58510566 -0.0341121 -0.4398506 -0.4299932 -0.46334416 -0.32288513 0.63822687
-0.031429693 -0.041211855 -0.1746286 -0.18921274 -0.41178536 -0.53185195 -0.016090171 0.13569714
0.65570813 0.11461223 -0.45089436 0.01891944 0.09110596 0.18444504 -0.23634453 -0.38138834
-0.33198655 -0.46337217 -0.25895697 -0.090864375 -0.08264863 0.39952874 -0.37891236 0.5710558
00000000: 2834 8ebe 132b 1bbf 67eb 1ebd 0fe4 f5be
00000010: 1575 283e a70f 91be 646c 3fbd cacf 0f3f
00000020: 1e51 0f3f 8509 2a3f 1757 1e3f 90e2 313f
00000030: 8531 23bf 853b 3e3e 648d 8cbc 741f b1be
00000040: fc97 1fbd 9087 bb3e db54 aa3e 0cf9 c13c
00000050: cdd0 50bc 28b8 4bbd dfe4 433e 5504 cdbe
00000060: 345f 36be ccf2 d13c 676a 02bf d1fa 33bf
00000070: 54e9 c73e b553 c53e 538b 7abe 63ec b23e
00000080: 3611 9dbd f60a 21bf 9df3 5d3e a840 e33d
00000090: 3b5d b13e 174c 1abf 59f9 82be 484b d43e
000000a0: f71b 283f 5928 f4bd b4a7 dabc a87c e9bc
000000b0: 36e1 69bf c98d 853e 959a 91bd db5b 833c
000000c0: 0b53 063f cbc9 523d 8012 7c3e d6a0 d9be
000000d0: 778b 723e 633c 323f b096 29bf 546a d43d
000000e0: fe5d 583e 1246 edbe 0674 c53e 9088 c13e
000000f0: 73ac f23e 4ae4 a0be 5eb6 74bc 116e d33e
00000100: be04 46bf 3d3f 613e 65c2 1ebf 65ec b4be
00000110: 3ae9 6dbd 6adb 1f3e 900e f93d ca8d d33e
00000120: 95da 363f 214b debe e76a d33e 190e 2ebf
00000130: 97bc e33b e67e 13bf e273 12bf 480b 903e
00000140: e752 95bc b6fc cdbc 4589 bfbd 11b1 d8be
00000150: abb5 413f 082f 23bf 7fd8 55be 8004 4f3c
00000160: 082b ba3d a410 b8bc 43a0 26be 512c 5abe
00000170: 042d 4bbd a9fc cb3e 037f 45bd 098a 0dbb
00000180: 3d3a 74bd 7cc9 153f 21b9 0bbd 1934 e1be
00000190: 1228 dcbe 723b edbe 3351 a5be d662 233f
000001a0: 6cbc 00bd c3cd 28bd d7d1 32be fcc0 41be
000001b0: 88d5 d2be 7327 08bf 89cf 83bc 31f4 0a3e
000001c0: 7ddc 273f d1b9 ea3d a0db e6be f1fc 9a3c
000001d0: c395 ba3d 29df 3c3e 4d04 72be 5545 c3be
000001e0: 24fa a9be 1e3f edbe 0296 84be 1a17 babd
000001f0: af43 a9bd 088f cc3e cd00 c2be b730 123f

shared_layers.0.bias f4 [64]
-0.1905992 0.76307267 0.28276262 -0.15662381 -0.97264075 0.104386665 0.7674812 -0.020391252
1.1353091 0.59626985 1.2708458 -1.2843039 -1.0007273 -0.34285545 -0.48556155 -0.66334444
1.1047403 0.8870396 -0.73673356 0.4996123 0.07089508 1.2067121 -0.8902765 1.5133615
0.4238488 0.0028824487 0.729249 0.755434 -1.2330257 -1.008427 0.044180073 0.76521987
-0.2476161 0.5470956 1.5623164 -0.07209681 -0.10999141 0.32865644 0.8862557 -0.6348521
0.7789788 -0.19567163 -0.4777761 -0.7257288 0.88374674 -0.49867454 -1.1788576 1.2600063
1.362804 0.79987484 -0.23437378 0.48711398 1.3507034 -0.6183637 -0.7262848 0.814089
-0.26043192 -0.20644508 -0.5849044 -0.7704155 -0.22022906 -0.4766345 0.35752672 0.15294024
00000000: 702c 43be bb58 433f 43c6 903e fe61 20be
00000010: fcfe 78bf adc8 d53d a679 443f 8e0b a7bc
00000020: cf51 913f 24a5 183f 13ab a23f 1264 a4bf
00000030: d517 80bf c08a afbe 869b f8be f1d0 29bf
00000040: 2168 8d3f 0715 633f 929a 3cbf 2fcd ff3e
00000050: 7131 913d 8b75 9a3f 29e9 63bf d4b5 c13f
00000060: b602 d93e 77e7 3c3b 10b0 3a3f 1f64 413f
00000070: c9d3 9dbf 2314 81bf 2af6 343d 73e5 433f
00000080: 138f 7dbe 750e 0c3f fcf9 c73f 7ea7 93bd
00000090: 2d43 e1bd a845 a83e a7e1 623f ab85 22bf
000000a0: 286b 473f 255e 48be 129f f4be 5dc9 39bf
000000b0: 3a3d 623f 4552 ffbe cee4 96bf e347 a13f
000000c0: 5d70 ae3f 99c4 4c3f aeff 6fbe 0167 f93e
000000d0: d9e3 ac3f 154d 1ebf cded 39bf 2368 503f
000000e0: 5557 85be 5766 53be 4bbc 15bf f339 45bf
000000f0: ba83 61be 7009 f4be be0d b73e 5e9c 1c3e

shared_layers.2.weight f4 [64, 64]
0.06523332 -0.0040277615 -0.031870194 -0.10406758 -0.07504514 -0.1216478 0.033919126 -0.056962643
0.0059572617 0.11116908 -0.08345537 -0.04180225 0.0015492737 -0.026083497 -0.075192146 -0.030000092
0.11469956 -0.09514309 -0.11371166 -0.010307658 0.121073864 -0.05585196 0.007180694 -0.0075949887
0.07992911 0.061758377 0.0558406 0.029966302 0.05326918 -0.057086065 -0.0068073035 -0.03539745
-0.09585466 -0.00010888132 -0.095497325 -0.030364497 -0.080222085 0.10730444 -0.07499 -0.08440246
-0.10267461 0.032606877 -0.09868971 0.028948639 0.04429118 -0.04693637 0.11700314 -0.079861365
0.006256453 -0.03190513 0.117328405 0.082967944 0.046369616 -0.08902144 0.10500153 -0.13052619
0.06430672 0.11812583 0.11496927 -0.06995083 -0.053317614 0.012051476 0.04947202 -0.11831543
0.046584815 0.18892467 0.0007936471 0.039464027 0.13410422 -0.0044615413 0.1042359 -0.13047855
0.19171463 -0.035301622 0.61568666 0.12015373 0.3242165 -0.10533971 0.079150274 0.053959437
0.16406637 0.05840206 -0.021597693 0.04247454 -0.061001528 0.690312 0.1254257 0.5606
0.130052 0.053813223 0.03202728 -0.07540527 0.14942072 0.09011214 -0.025927292 -0.09453286
-0.030911852 -0.21515672 0.47108078 0.052889448 -0.057555135 0.0053748083 -0.4822409 -0.131625
0.5374481 -0.06804897 -0.061701316 0.18399875 0.2601216 -0.009223492 -0.044811033 0.82585484
0.06452514 0.3400532 0.1077472 0.041903265 0.60996646 0.10531515 -0.07215333 0.25354698
0.049554747 0.015280137 0.12307634 0.0015780611 -0.11646689 0.09232913 0.047122594 0.15651457
-0.031052077 0.28898555 -0.11749777 0.08542812 0.061286364 -0.01101794 -0.025072567 -0.100638755
0.12165482 0.15894064 0.48997062 0.23191449 0.1046427 -0.050320804 0.09555292 -0.046990916
0.0069778264 0.024281275 0.055451654 -0.011292287 0.033574745 0.59773225 0.05920105 0.3964776
0.12333805 -0.10462215 0.019357743 -0.11493756 -0.005344641 0.008880282 0.075284556 -0.056848966
0.109069675 -0.16036224 0.34716052 0.1409255 -0.07395196 -0.069502525 -0.5082629 -0.11108007
0.2975122 0.07284861 0.047311716 0.14697474 0.19747293 -0.05243064 -0.094172865 0.63098264
0.09995379 0.12894464 -0.082796834 0.031957693 0.63020307 0.10085994 0.01471626 0.21561612
0.041122034 -0.043135613 0.120956115 -0.039901994 -0.06775841 0.01962156 -0.030455366 0.004430845
0.042907022 0.23440772 0.008886213 -0.054352745 -0.012977559 -0.13772443 -0.23914905 -0.10834687
0.46050552 0.0765504 0.5527451 -0.09025458 0.015021353 0.062313903 -0.07111358 -0.1247481
0.2175387 0.13599388 0.039208744 0.009729558 -0.04460685 0.65461105 -0.15571833 0.65709776
-0.06751536 0.113854796 0.042384487 -0.31596097 0.006520486 -0.18288662 -0.077958494 0.023330383
0.01812915 -0.32754117 0.49693716 0.014551193 0.07470466 -0.003534521 0.012687247 -0.14852124
0.49627063 0.09526037 -0.0866871 -0.14704365 0.28323054 -0.018901594 -0.15800941 0.49978158
0.09070193 0.36401418 0.004895008 0.02436598 0.55860263 -0.08175752 -0.07838246 0.34990904
-0.04196708 -0.05599403 -0.20280102 -0.017487459 -0.02504406 -0.03820313 -0.15903223 0.031588558
00000000: 0c99 853d 50fb 83bb 528a 02bd 6221 d5bd
00000010: 44b1 99bd 7b22 f9bd c8ee 0a3d a951 69bd
00000020: 2235 c33b 9dac e33d a6ea aabd d638 2bbd
00000030: 0011 cb3a 0fad d5bc 57fe 99bd c1c2 f5bc
00000040: 9ae7 ea3d 61da c2bd a9e1 e8bd 74e1 28bc
00000050: 93f5 f73d 06c5 64bd 074c eb3b 62df f8bb
00000060: e0b1 a33d 5af6 7c3d 1db9 643d e47b f53c
00000070: c930 5a3d 14d3 69bd cd0f dfbb ebfc 10bd
00000080: 734f c4bd 3757 e4b8 1a94 c3bd f7be f8bc
00000090: 7a4b a4bd 6ec2 db3d 5b94 99bd 32db acbd
000000a0: 1147 d2bd ca8e 053d d51d cabd b225 ed3c
000000b0: ab6a 353d 5a40 40bd 589f ef3d 5b8e a3bd
000000c0: ef02 cd3b f4ae 02bd e049 f03d 19eb a93d
000000d0: 11ee 3d3d df50 b6bd 0b0b d73d a8a8 05be
000000e0: 3eb3 833d f5eb f13d 0275 eb3d 6142 8fbd
000000f0: 9263 5abd 8e73 453c 2ca3 4a3d 5c4f f2bd
00000100: b8cf 3e3d 7875 413e c10c 503a 08a5 213d
00000110: 9e52 093e 1f32 92bb a279 d53d 2b9c 05be
00000120: d750 443e 6f98 10bd a49d 1d3f 2913 f63d
00000130: b5ff a53e 59bc d7bd 8a19 a23d 9204 5d3d
00000140: 0401 283e 0037 6f3d a5ed b0bc c9f9 2d3d
00000150: bddc 79bd 4ab8 303f 986f 003e 7b83 0f3f
00000160: 5a2c 053e 416b 5c3d 0a2f 033d 146e 9abd
00000170: bf01 193e b78c b83d 7965 d4bc 729a c1bd
00000180: da3a fdbc 0b52 5cbe 8031 f13e 9ba2 583d
00000190: efbe 6bbd 291f b03b 47e8 f6be b4c8 06be
000001a0: 3396 093f 425d 8bbd 85ba 7cbd 2b6a 3c3e
000001b0: a92e 853e 211e 17bc c68b 37bd 396b 533f
000001c0: c225 843d 741b ae3e 90aa dc3d c2a2 2b3d
000001d0: c326 1c3f 78af d73d 20c5 93bd e9d0 813e
000001e0: ebf9 4a3d 8a59 7a3c 730f fc3d f2d6 ce3a
000001f0: 3186 eebd 0e17 bd3d 9f03 413d 5b45 203e
00000200: ed60 febc eaf5 933e aca2 f0bd f0f4 ae3d
00000210: 6907 7b3d 9784 34bc fc64 cdbc b11b cebd
00000220: 2a26 f93d 56c1 223e 6edd fa3e fe7a 6d3e
00000230: e94e d63d 301d 4ebd 40b1 c33d 8c79 40bd
00000240: 40a6 e43b 86e9 c63c 4621 633d 4903 39bc
00000250: ac85 093d fb04 193f cd7c 723d 1dff ca3e
00000260: a998 fc3d 2344 d6bd 2194 9e3c 6264 ebbd
00000270: 1922 afbb 9a7e 113c ca2e 9a3d 76da 68bd
00000280: ec5f df3d 0036 24be 06bf b13e c64e 103e
00000290: 2074 97bd 5757 8ebd 841d 02bf f37d e3bd
000002a0: 8553 983e a731 953d eec9 413d 8c80 163e
000002b0: 5836 4a3e 83c1 56bd b4dd c0bd 1488 213f
000002c0: 93b4 cc3d 100a 043e 6391 a9bd 12e6 023d
000002d0: fd54 213f a88f ce3d 781c 713c 79ca 5c3e
000002e0: 946f 283d f8ae 30bd d7b7 f73d 4670 23bd
000002f0: ecc4 8abd 65bd a03c 887d f9bc 9f30 913b
00000300: 46bf 2f3d 9408 703e 7b97 113c fca0 5ebd
00000310: d49f 54bc a207 0dbe 7de3 74be f7e4 ddbd
00000320: 61c7 eb3e 75c6 9c3d b480 0d3f 65d7 b8bd
00000330: 1f1c 763c dd3c 7f3d ffa3 91bd ef7b ffbd
00000340: 77c2 5e3e fb41 0b3e 5999 203d b968 1f3c
00000350: acb5 36bd 9794 273f a074 1fbe 8f37 283f
00000360: 7e45 8abd b42c e93d 5b9b 2d3d a3c5 a1be
00000370: cda9 d53b a146 3bbe b4a8 9fbd 5c1f bf3c
00000380: 9583 943c 7ab3 a7be 8c6e fe3e 2168 6e3c
00000390: c2fe 983d 6ca3 67bb 2cde 4f3c f415 18be
000003a0: 2f17 fe3e de17 c33d 0289 b1bd 9c92 16be
000003b0: 9803 913e 84d7 9abc 38cd 21be 5fe3 ff3e
000003c0: efc1 b93d 1160 ba3e 4e66 a03b 2a9b c73c
000003d0: 9500 0f3f 7d70 a7bd fc86 a0bd 4727 b33e
000003e0: ace5 2bbd ff59 65bd 12ab 4fbe dc41 8fbc
000003f0: 3329 cdbc e37a 1cbd 58d9 22be 0163 013d

shared_layers.2.bias f4 [64]
-0.07172624 0.12702559 0.091338314 0.534137 0.09156751 0.14590602 -0.043118007 -0.05329919
0.03775971 -0.12881584 0.0024929824 0.043025274 0.08955863 0.1164763 -0.28139555 0.068984054
0.07673944 0.43653914 -0.12227187 0.49717548 0.009692682 0.44507727 0.84102464 0.13265891
0.27299893 0.106620714 0.12332622 0.046845675 0.52779126 -0.22023629 -0.05180889 0.068493746
0.09173677 -0.036330935 -0.090968244 -0.11732817 0.039874222 0.11700062 0.38620147 0.105086125
0.20949653 0.03530391 -0.14780727 0.44895783 -0.19655997 -0.06502565 0.3005923 0.09953549
0.54719424 0.05105368 0.433554 0.060727526 -0.10357733 0.18474013 0.14706816 0.42773077
0.04927886 0.07014965 -0.049740117 0.1266818 0.091735676 0.07597223 0.42530084 -0.02704038
00000000: 35e5 92bd ff12 023e 950f bb3d 34bd 083f
00000010: bf87 bb3d 6368 153e 829c 30bd 4050 5abd
00000020: eda9 1a3d 4de8 03be 4e61 233b 453b 303d
00000030: 846a b73d 208b ee3d 1413 90be 8347 8d3d
00000040: 9129 9d3d 0f82 df3e ad69 fabd c98d fe3e
00000050: 0ece 1e3c 2be1 e33e 644d 573f bdd7 073e
00000060: 84c6 8b3e f65b da3d 7592 fc3d 40e1 3f3d
00000070: 541d 073f 9f85 61be 8f35 54bd 7346 8c3d
00000080: 7de0 bb3d bfcf 14bd 8f4d babd c049 f0bd
00000090: 2753 233d 059e ef3d 33bc c53e 6537 d73d
000000a0: 4286 563e d59a 103d ca5a 17be cddd e53e
000000b0: 0447 49be 2b2c 85bd 3ce7 993e 43d9 cb3d
000000c0: ec14 0c3f aa1d 513d cafa dd3e 6dbd 783d
000000d0: 5a20 d4bd 842c 3d3e 0999 163e 87ff da3e
000000e0: a1d8 493d 9faa 8f3d 4bbc 4bbd e0b8 013e
000000f0: eadf bb3d 5497 9b3d 08c1 d93e c983 ddbc

actor_head.0.weight f4 [64, 64]
-0.021923544 0.07071539 -0.04465992 -0.02199905 0.09080604 0.05290127 0.088741854 -0.039220855
-0.08018627 -0.05953784 0.15035082 0.09917566 0.055858772 0.04938303 0.027935475 0.028569167
-0.039560262 -0.08446063 0.05610132 -0.009041321 0.101198204 -0.04955346 -0.029354684 -0.03338717
-0.029321339 0.083029464 -0.0759003 -0.038162455 -0.10454744 -0.14167315 -0.1007929 0.0044536493
-0.057466 -0.08572661 0.08034828 0.06379992 0.07463382 0.042739157 -0.022709524 0.09282178
-0.094309606 -0.0411632 0.03539875 0.05340766 -0.13490108 -0.12355861 -0.066713445 0.0004443675
0.08489588 -0.05885171 -0.031559333 -0.11755695 -0.02868716 -0.10531092 -0.0025990738 -0.049763113
0.0051774285 -0.045182362 0.051365487 0.03866518 0.00024973537 -0.11498799 -0.09454959 0.07358522
0.058227506 0.107277036 0.057313565 -0.0015269332 0.032828547 -0.12051994 -0.059856966 0.075235814
0.046705898 0.056491356 -0.13724607 -0.10374163 0.00048142025 0.0074917283 -0.01633326 0.16982205
0.011564263 0.11999841 -0.044311192 0.14505057 -0.07458171 0.0015357096 -0.047267105 0.01223642
-0.08017161 -0.08996211 -0.0936058 0.066799924 -0.10753601 0.12107581 0.08145247 0.12870577
0.0018748998 0.0812756 0.011936459 -0.10741856 -0.020242598 0.08638674 -0.06049172 0.042153604
-0.029838977 0.018839493 0.12833007 -0.06383647 0.06623783 0.057580642 -0.12776503 0.08254999
0.10876794 0.009862185 -0.02831275 0.089665435 0.04407555 -0.08839468 -0.05783202 -0.07999647
-0.079429954 -0.106105514 0.018394569 -0.0817177 -0.07154308 0.07841622 -0.11036129 -0.082158804
0.04415793 0.102288276 -0.10870414 0.03669815 -0.043281127 0.10352331 0.064803585 -0.10056971
0.14116713 -0.121676914 0.051831324 0.020299401 0.08268242 -0.007608006 0.07409577 0.04466177
0.0023022934 0.1349468 -0.048568286 0.056616724 -0.010569482 -0.10150756 -0.03741562 0.1187295
-0.057372525 0.11216158 0.049380124 0.08046383 0.027770678 0.09438052 -0.058306783 -0.079215825
-0.08659966 -0.09826276 -0.07271746 0.091130644 0.0014365041 0.12690167 0.008779346 0.08716761
0.004790984 -0.03205694 -0.074755326 0.00022426911 0.12108433 -0.078286245 0.049308278 0.071040004
0.15585497 0.13705277 0.054899227 0.07638814 -0.05723611 0.02904166 0.070888214 0.06731761
-0.010161679 0.09225465 0.0658513 0.016929712 -0.111873865 -0.00045790695 -0.010778561 -0.024433553
-0.0040230895 -0.08862411 -0.0138006145 0.05988292 -0.15273108 -0.08886874 0.09933383 -0.06038502
-0.022447133 -0.111681975 -0.00096302247 -0.0053034113 0.0601901 0.059922203 -0.012826187 -0.00033518835
0.043263376 0.0040244334 0.03693319 0.066208936 0.1206874 -0.037300505 0.06535279 0.025517125
-0.116709225 0.11018623 -0.10503821 -0.043808445 0.051759217 -0.03802021 0.0740603 -0.08978545
-0.101173446 0.016374087 -0.11274531 -0.027511075 0.08756859 0.0656026 -0.06505915 0.0020832035
-0.19174802 -0.06397493 -0.09522673 -0.12275089 0.05608011 -0.11886906 0.080698706 -0.0075137997
-0.05526602 -0.0772607 0.1095434 0.052127313 0.05124811 -0.00038463104 -0.071145386 0.057180613
0.0082933465 0.0046912017 -0.121784315 0.030837081 0.07770805 -0.11608489 -0.056615274 -0.056355372
00000000: 0199 b3bc 3bd3 903d 52ed 36bd 5a37 b4bc
00000010: 84f8 b93d 01af 583d 4abe b53d 0ca6 20bd
00000020: b338 a4bd f3dd 73bd 91f5 193e 9c1c cb3d
00000030: 2bcc 643d dc45 4a3d f0d8 e43c e309 ea3c
00000040: f109 22bd b2f9 acbd 7fca 653d 0d22 14bc
00000050: 0141 cf3d 92f8 4abd 3c79 f0bc fcc0 08bd
00000060: 4e33 f0bc 5a0b aa3d 9e71 9bbd 3c50 1cbd
00000070: f81c d6bd c412 11be 826c cebd ebef 913b
00000080: 7861 6bbd 6f91 afbd a48d a43d 88a9 823d
00000090: 9ed9 983d 410f 2f3d 5309 babc 5819 be3d
000000a0: 6525 c1bd be9a 28bd 48fe 103d fec1 5a3d
000000b0: 8223 0abe 4c0c fdbd 0fa1 88bd fff9 e839
000000c0: e4dd ad3d 7e0e 71bd 5c44 01bd b3c1 f0bd
000000d0: 5601 ebbc 40ad d7bd 3955 2abb 68d4 4bbd
000000e0: 6ba7 a93b 2411 39bd 9e64 523d 615f 1e3d
000000f0: eaee 8239 d37e ebbd 37a3 c1bd d9b3 963d
00000100: f77f 6e3d 10b4 db3d a1c1 6a3d 6023 c8ba
00000110: 3a77 063d 29d3 f6bd 942c 75bd 3c15 9a3d
00000120: af4e 3f3d 7b63 673d 3c8a 0cbe 7e76 d4bd
00000130: 2267 fc39 2c7d f53b 54cd 85bc d5e5 2d3e
00000140: 0978 3d3c bac1 f53d a77f 35bd 2388 143e
00000150: 4cbe 98bd dd49 c93a 279b 41bd 447b 483c
00000160: 0331 a4bd 0e3e b8bd 66b4 bfbd 66ce 883d
00000170: d73b dcbd 98f6 f73d 8dd0 a63d 72cb 033e
00000180: 33bf f53a d273 a63d 2391 433c 43fe dbbd
00000190: ced3 a5bc 88eb b03d 2ac6 77bd 42a9 2c3d
000001a0: df70 f4bc 4855 9a3c f568 033e b2bc 82bd
000001b0: b3a7 873d aed9 6b3d d6d4 02be f80f a93d
000001c0: bac1 de3d 0195 213c 24f0 e7bc 83a2 b73d
000001d0: 9088 343d 4508 b5bd 45e1 6cbd 30d5 a3bd
000001e0: 2cac a2bd d94d d9bd 35b0 963c 9c5b a7bd
000001f0: 2e85 92bd af98 a03d 1a05 e2bd e042 a8bd
00000200: f2de 343d 847c d13d 47a0 debd cd50 163d
00000210: 8d47 31bd 0704 d43d beb7 843d 7ef7 cdbd
00000220: 1e8e 103e bf31 f9bd 154d 543d ee4a a63c
00000230: 6755 a93d 944c f9bb 86bf 973d 43ef 363d
00000240: 13e2 163b 7e2f 0a3e 8aef 46bd f0e6 673d
00000250: 9f2b 2dbc 32e3 cfbd 1f41 19bd 7428 f33d
00000260: 74ff 6abd f8b4 e53d d042 4a3d 38ca a43d
00000270: 557f e33c 934a c13d 18d3 6ebd e83b a2bd
00000280: 2a5b b1bd fc3d c9bd e4ec 94bd b4a2 ba3d
00000290: 1449 bc3a 83f2 013e 3fd7 0f3c ef84 b23d
000002a0: b0fd 9c3b 234e 03bd 5219 99bd c829 6b39
000002b0: 10fb f73d 8a54 a0bd 7af7 493d 6c7d 913d
000002c0: 7298 1f3e 9057 0c3e 03de 603d 6371 9c3d
000002d0: 6970 6abd c6e8 ed3c d72d 913d d1dd 893d
000002e0: 2c7d 26bc 02f0 bc3d 0cdd 863d 2eb0 8a3c
000002f0: 201e e5bd 3b13 f0b9 9098 30bc e028 c8bc
00000300: 1fd4 83bb 8f80 b5bd f91b 62bc cb47 753d
00000310: 8965 1cbe d000 b6bd 896f cb3d 4856 77bd
00000320: 0de3 b7bc 85b9 e4bd 5873 7cba 3dc8 adbb
00000330: e589 763d fc70 753d ed24 52bc 38bc afb9
00000340: f034 313d 65df 833b 4247 173d 8d98 873d
00000350: f52a f73d 6ac8 18bd afd7 853d 4a09 d13c
00000360: 3f05 efbd 51a9 e13d 461e d7bd 7c70 33bd
00000370: 7901 543d 14bb 1bbd edac 973d 6fe1 b7bd
00000380: 0634 cfbd f322 863c 03e7 e6bd e85e e1bc
00000390: 2957 b33d a85a 863d bb3d 85bd 5b86 083b
000003a0: 9859 44be 4a05 83bd 3b06 c3bd d264 fbbd
000003b0: 42b4 653d 9f71 f3bd 5d45 a53d 5236 f6bb
000003c0: 9f5e 62bd dc3a 9ebd 4a58 e03d 7383 553d
000003d0: 8ae9 513d 4ea8 c9b9 acb4 91bd 3836 6a3d
000003e0: d1e0 073c a7b8 993b 0e6a f9bd 0c9e fc3c
000003f0: 6625 9f3d eabd edbd 6be5 67bd e4d4 66bd

actor_head.0.bias f4 [64]
0.026572542 -0.095623456 0.05921173 0.06741149 -0.035301805 -0.16372731 0.014971386 -0.08416415
-0.035101306 -0.07805357 -0.061640594 0.012217669 0.08028558 -0.03678641 -0.1197924 -0.065667614
0.024600442 0.0855174 -0.039509263 0.11701655 0.08958328 -0.033655163 -0.09350617 0.049690157
0.16031706 0.031025909 -0.0029238095 -0.008075761 -0.053151544 0.051770642 -0.05277829 0.10757363
-0.1257264 0.089493886 -0.042799715 0.05645139 0.10247817 0.11445446 -0.11025113 -0.07376043
-0.13876674 -0.121404134 -0.09232181 -0.009351149 0.121816106 -0.11746952 0.03338673 -0.0021527181
-0.10644403 0.07616717 -0.03261257 -0.12200638 -0.094010994 0.014323112 0.050720908 0.041529488
0.11429926 -0.10289817 0.05822057 0.09702394 -0.0142439455 -0.12185182 -0.15886213 0.15469515
00000000: a9ae d93c 3bd6 c3bd 0088 723d 090f 8a3d
00000010: a098 10bd 22a8 27be 8b4a 753c 415e acbd
00000020: 63c6 0fbd 8dda 9fbd d97a 7cbd 9e2c 483c
00000030: c46c a43d 59ad 16bd b855 f5bd be7c 86bd
00000040: de86 c93c bf23 af3d 77d4 21bd 5fa6 ef3d
00000050: 7077 b73d ffd9 09bd 2a80 bfbd e887 4b3d
00000060: 282a 243e 0c2a fe3c 629d 3fbb 3250 04bc
00000070: 6fb5 59bd 740d 543d 0c2e 58bd 904f dc3d
00000080: 6cbe 00be 9248 b73d c14e 2fbd 9339 673d
00000090: 13e0 d13d 1a67 ea3d 58cb e1bd b50f 97bd
000000a0: de18 0ebe bba2 f8bd 3813 bdbd 9035 19bc
000000b0: b97a f93d dc93 f0bd 86c0 083d 9e14 0dbb
000000c0: 54ff d9bd 89fd 9b3d c294 05bd 7bde f9bd
000000d0: d688 c0bd 7cab 6a3c bac0 4f3d d31a 2a3d
000000e0: bb15 ea3d 47bc d2bd b178 6e3d 7db4 c63d
000000f0: 705f 69bc 728d f9bd c1ac 22be 6868 1e3e

actor_head.2.weight f4 [4, 64]
-0.06921712 0.116379656 -0.03200702 0.10201396 -0.053111322 -0.08371233 0.07955616 -0.011051761
0.07702279 -0.015627641 0.065735064 -0.073385365 0.008903851 0.03435861 0.04748577 0.1646714
0.11491472 0.025909131 -0.107213594 0.052560095 0.056595437 0.05563256 -0.07730688 -0.043757312
-0.059827182 0.046968784 0.018684164 -0.1086219 0.08541486 0.016500177 0.017888952 -0.1135919
0.04752511 0.11949721 0.019958146 -0.09369536 0.05035098 0.07437039 0.07075915 0.057730973
0.039856695 -0.08513998 0.05953348 -0.117006704 0.06871612 -0.12726843 0.015229733 0.07522454
-0.041647118 0.1354654 -0.07274795 -0.03482581 -0.11398086 0.054800913 -0.074390136 0.058084354
-0.10883713 -0.04149915 0.09307325 0.10006439 -0.05719553 -0.11495481 -0.020302048 0.06480994
-0.052563395 -0.07639471 -0.02293079 0.077564195 0.1134951 -0.009869337 0.065844364 0.10168307
-0.10154219 0.013254251 0.1341464 -0.08852717 -0.07344244 0.0047237705 0.12436573 -0.06422207
0.12218602 0.015179259 -0.068444625 -0.049980238 0.050241448 0.019941933 0.048472516 -0.012620149
0.14153662 0.021759111 0.058642484 -0.040443107 0.029133838 -0.07541303 0.04527322 -0.0988511
-0.054716308 0.060888164 0.007260909 0.065949045 -0.018326228 0.059340887 -0.011226664 0.056729384
0.0068673994 0.08454776 0.022745125 -0.0006529242 0.08776557 -0.111261114 -0.06782267 0.08354235
-0.1040872 0.10805291 -0.05761543 -0.074567996 -0.10031071 0.04640478 0.11852782 0.12344613
-0.04638807 0.042799573 0.062493447 0.061355457 -0.1071199 0.123468176 0.05769718 0.132719
-0.087929934 0.16246031 -0.16413262 0.051797308 0.01184567 0.09723687 0.048855186 -0.018344188
-0.11958146 0.017644875 -0.0057724337 0.011585202 0.019484244 0.07094297 -0.005446255 0.023941474
-0.14673972 -0.15740417 -0.0880359 0.048589326 0.034968227 0.0043284637 -0.09813591 0.12193394
-0.010550966 0.08562382 0.06412563 -0.08352814 0.0799725 -0.060401805 -0.039717056 0.04495255
-0.07308562 -0.040036052 0.1692716 -0.072252885 0.16612943 -0.123984106 -0.03824347 -0.08663101
0.075260684 0.035646934 -0.062257 0.034760594 -0.06589238 -0.09138699 -0.118738085 -0.20748678
0.04836184 -0.14754538 -0.13575566 0.05588979 -0.11071688 -0.041531663 0.076565735 0.08694966
0.027458059 0.05648428 -0.056480296 0.027486484 0.030627996 -0.032229766 0.032249745 -0.021763569
-0.01519576 0.028484842 -0.16336606 0.09516834 -0.045510337 0.07207633 0.029069131 0.1366165
0.11481342 0.03513895 0.0034752302 0.1067815 -0.071146816 0.01113015 0.07184078 0.12151644
-0.042817164 0.016921818 -0.034952506 -0.06271053 0.047304876 -0.13250501 -0.02751623 0.21062009
-0.09602726 -0.09553795 -0.21280184 -0.053459186 0.005973914 0.0592861 -0.09899698 0.07531374
-0.07191132 0.15828045 0.15194084 0.012887245 -0.021681374 -0.053930808 -0.08125757 0.016491257
0.06420312 -0.0838649 0.036298215 0.0007055849 -0.1369476 0.07802179 -0.12198079 -0.24236847
0.07640915 -0.18237396 -0.18846454 0.10570577 0.078227654 0.044816263 0.11095425 0.09850754
-0.032856308 -0.11253633 -0.15979683 0.053773846 0.09748964 0.0877583 -0.05460027 0.053402122
00000000: b5c1 8dbd 7558 ee3d cb19 03bd b2ec d03d
00000010: 428b 59bd 5f71 abbd 57ee a23d 7212 35bc
00000020: 20be 9d3d 8a05 80bc 1ba0 863d 114b 96bd
00000030: 75e1 113c 9dbb 0c3d 7080 423d 9f9f 283e
00000040: 6958 eb3d 633f d43c cd92 dbbd 4149 573d
00000050: 9ed0 673d f8de 633d 1253 9ebd de3a 33bd
00000060: 590d 75bd 5762 403d 880f 993c 2975 debd
00000070: fced ae3d 612b 873c da8b 923c dfa2 e8bd
00000080: b1a9 423d f4ba f43d 447f a33c 5ae3 bfbd
00000090: d43c 4e3d 814f 983d 2cea 903d 5077 6c3d
000000a0: c640 233d df5d aebd 61d9 733d 36a1 efbd
000000b0: 0abb 8c3d a852 02be 2186 793c 530f 9a3d
000000c0: 2b96 2abd 71b7 0a3e e1fc 94bd 82a5 0ebd
000000d0: cc6e e9bd ec76 603d db59 98bd dce9 6d3d
000000e0: 00e6 debd 03fb 29bd 309d be3d 8fee cc3d
000000f0: dc45 6abd 6d6d ebbd 7b50 a6bc 13bb 843d
00000100: b74c 57bd d474 9cbd 5ad9 bbbc fad9 9e3d
00000110: 1e70 e83d 00b3 21bc 69d9 863d 373f d03d
00000120: 5af5 cfbd 5c28 593c ad5d 093e bc4d b5bd
00000130: fd68 96bd dcc9 9a3b 76b3 fe3d dc86 83bd
00000140: aa3c fa3d 6db2 783c b22c 8cbd 14b8 4cbd
00000150: fac9 4d3d 445d a33c 1e8b 463d bec4 4ebc
00000160: faee 103e 2a40 b23c 1a33 703d aca7 25bd
00000170: 16aa ee3c 2672 9abd 6970 393d 7272 cabd
00000180: 351e 60bd de65 793d ebec ed3b 4b10 873d
00000190: e320 96bc 6e0f 733d 0bf0 37bc 125d 683d
000001a0: ec07 e13b 6027 ad3d fc53 ba3c 0029 2bba
000001b0: 6fbe b33d dedc e3bd 9de6 8abd 4018 ab3d
000001c0: ab2b d5bd d84a dd3d 28fe 6bbd 1bb7 98bd
000001d0: b46f cdbd f012 3e3d b7be f23d 53d1 fc3d
000001e0: 6b01 3ebd 9b4e 2f3d 21f9 7f3d dc4f 7b3d
000001f0: ae61 dbbd e2dc fc3d e153 6c3d 7de7 073e
00000200: 9c14 b4bd ff5b 263e 6212 28be 6a29 543d
00000210: 5714 423c 2024 c73d 601c 483d 8d46 96bc
00000220: 20e7 f4bd fc8b 903c af26 bdbb dccf 3d3c
00000230: 6c9d 9f3c 8c4a 913d 8076 b2bb e920 c43c
00000240: f042 16be 8f2e 21be 2a4c b4bd 9a05 473d
00000250: d83a 0f3d c9d5 8d3b 7bfb c8bd 80b8 f93d
00000260: f5dd 2cbc 8b5b af3d 4c54 833d cd10 abbd
00000270: 9fc8 a33d e267 77bd 5aae 22bd 2a20 383d
00000280: eaad 95bd d8fc 23bd 8955 2d3e 52f9 93bd
00000290: d51d 2a3e 61eb fdbd 2fa5 1cbd 996b b1bd
000002a0: 4622 9a3d 8502 123d 3201 7fbd 2061 0e3d
000002b0: 96f2 86bd 1a29 bbbd f42c f3bd 6a77 54be
000002c0: 1117 463d 2316 17be 8803 0bbe b1ec 643d
000002d0: 88bf e2bd 1b1d 2abd 7fce 9c3d aa12 b23d
000002e0: b9ef e03c 0f5c 673d e257 67bd 562b e13c
000002f0: 90e7 fa3c 5c03 04bd 4f18 043d 8349 b2bc
00000300: a3f7 78bc 0b59 e93c 6f49 27be 9ee7 c23d
00000310: 0c69 3abd c19c 933d 6322 ee3c 32e5 0b3e
00000320: 4c23 eb3d dced 0f3d b0c0 633b 42b0 da3d
00000330: 6cb5 91bd 3c5b 363c 4221 933d 9cdd f83d
00000340: 0d61 2fbd a09f 8a3c 5c2a 0fbd 616e 80bd
00000350: c2c2 413d 65af 07be b769 e1bc cbac 573e
00000360: f1a9 c4bd 67a9 c3bd bae8 59be 05f8 5abd
00000370: d3c0 c33b fbd5 723d eebe cabd 173e 9a3d
00000380: 3e46 93bd 4514 223e 6196 1b3e 0625 533c
00000390: 239d b1bc 8de6 5cbd 5e6a a6bd ac18 873c
000003a0: ed7c 833d 5cc1 abbd 70ad 143d 00f7 383a
000003b0: fe3b 0cbe e3c9 9f3d 10d1 f9bd 712f 78be
000003c0: 677c 9c3d 3dc0 3abe d9fc 40be 447c d83d
000003d0: d235 a03d 4291 373d fb3b e33d 52be c93d
000003e0: 5694 06bd 7379 e6bd c8a1 23be f741 5c3d
000003f0: a6a8 c73d a0ba b33d 88a4 5fbd 2fbc 5a3d

actor_head.2.bias f4 [4]
0.059931 0.07773788 -0.056523386 0.038977373
00000000: 357a 753d 0a35 9f3d 1185 67bd bda6 1f3d

critic_head.0.weight f4 [64, 64]
0.043997232 0.1024917 0.0009625427 0.58292323 0.062082376 0.15211229 0.031647902 -0.014214143
-0.29248223 0.08030754 0.10224079 0.0810471 0.13373066 0.0313689 -0.21102606 0.35680208
0.10336762 0.48712212 0.0682724 0.5658555 -0.08322292 0.50032395 0.41920924 0.36241114
0.2936091 0.04069662 0.08006324 0.070241824 0.5824835 0.28486398 0.16508687 0.18566754
0.11258068 0.06335331 0.21560608 -0.089793764 0.0018859137 0.13066222 0.28881866 0.013939287
-0.27068 0.11198172 0.08374991 0.4219406 0.3367551 -0.0687798 0.32047918 0.01783755
0.26284993 -0.32501188 0.59922236 0.1279611 0.16690344 0.07019912 0.098423816 0.24573842
0.19562897 -0.15664633 -0.1049835 0.0809409 0.31671613 -0.08636913 0.33829078 0.0957102
0.042485062 0.11960264 0.09714479 0.7548368 -0.018506909 0.24147138 -0.010494922 0.051956832
-0.23716259 0.052530874 0.20589308 0.058017686 0.10097627 0.08730045 -0.21338136 0.19748072
0.108698964 0.41427058 0.106846265 0.6190578 0.0034145964 0.68320256 0.4059121 0.4481723
0.49820334 -0.1092902 0.26006183 0.004070252 0.6216214 0.19798155 0.120949864 0.14153011
0.18979985 0.09014676 0.38763648 0.078271896 0.05180773 0.3467196 0.2123346 0.20533311
-0.2648766 -0.0030005425 0.12148055 0.3515621 0.2778682 -0.060954086 0.35923186 0.21741618
0.51912075 -0.2606025 0.6094004 0.09636818 0.015319062 0.05482687 0.057725888 0.40870452
0.18188258 -0.39886063 -0.020694315 0.041792117 0.09199702 0.02126675 0.39701504 -0.044577777
0.08412928 0.16716883 -0.036398422 -0.179609 0.06388553 -0.1406367 0.092594534 -0.051138
0.17697182 0.05932617 -0.12374673 -0.09979785 0.06143673 -0.11694183 0.20777707 -0.026667502
0.061955348 0.03479717 -0.068318024 0.14182393 0.07789145 -0.014544923 -0.08347717 -0.1578011
-0.09427769 -0.10552266 -0.036125638 0.09363063 -0.079542115 -0.09744087 0.13274272 0.08371353
0.05711011 0.14286639 -0.15870266 0.017744685 -0.07547737 0.02729115 -0.26384866 0.027570339
0.1287567 0.03186613 0.15168983 -0.057150826 -0.16644293 -0.120735735 -0.15405346 0.08020659
-0.37836418 0.042952877 -0.08013435 -0.03364544 0.011959552 0.047894787 0.088062756 -0.17478548
-0.058532838 0.04634762 -0.09946831 0.11988893 0.06518008 -0.008235701 -0.008637732 0.08519203
0.09429611 -0.0349778 -0.05253666 0.031951617 -0.08553093 -0.12219189 0.003488926 0.10020146
0.39853156 0.087117806 -0.12156705 0.12485881 -0.05753611 0.03741478 -0.076262794 -0.02695936
0.024537997 -0.043100934 -0.011744891 -0.019384837 0.0077379965 0.078097396 0.038545337 0.098320454
0.062558286 0.03941804 -0.09753923 -0.120314196 0.13579653 -0.025367912 -0.041993164 -0.075653434
0.037975453 -0.050701775 0.031013178 -0.11066358 -0.00218198 -0.034881458 0.11760563 -0.048781596
-0.2672115 -0.10369991 -0.086712465 0.21690309 0.01028803 -0.08322914 -0.116832 -0.063727476
0.105077185 0.19124275 0.19241308 -0.09154673 -0.15577406 -0.15342866 -0.060983367 0.12046808
-0.055137493 0.2093426 -0.116276935 -0.06491987 -0.05645839 -0.11721858 0.15348005 -0.05076123
00000000: 7136 343d 2be7 d13d 2653 7c3a 753a 153f
00000010: 174a 7e3d 53c3 1b3e 3ba1 013d 70e2 68bc
00000020: 3bc0 95be 4878 a43d 9f63 d13d 06fc a53d
00000030: b1f0 083e ad7c 003d 3717 58be c3ae b63e
00000040: 67b2 d33d 1268 f93e 66d2 8b3d e8db 103f
00000050: c770 aabd 3b15 003f 98a2 d63e f48d b93e
00000060: ef53 963e 80b1 263d 32f8 a33d f2da 8f3d
00000070: a31d 153f b1d9 913e 880c 293e a21f 3e3e
00000080: b390 e63d 61bf 813d d7c7 5c3e cbe5 b7bd
00000090: c330 f73a 51cc 053e 0ae0 933e 9b61 643c
000000a0: 9296 8abe ac56 e53d 1385 ab3d 9908 d83e
000000b0: 2a6b ac3e 6cdc 8cbd d915 a43e 0e20 923c
000000c0: 4494 863e f567 a6be a366 193f 3c08 033e
000000d0: bce8 2a3e 8ec4 8f3d 6d92 c93d daa2 7b3e
000000e0: f652 483e e567 20be 9701 d7bd 58c4 a53d
000000f0: 9e28 a23e 4ce2 b0bd 7334 ad3e b603 c43d
00000100: d104 2e3d 3bf2 f43d d9f3 c63d fc3c 413f
00000110: cd9b 97bc 4644 773e e5f2 2bbc b0d0 543d
00000120: c0da 72be 9d2a 573d a3d5 523e f4a3 6d3d
00000130: a6cc ce3d 94ca b23d a580 5abe 6338 4a3e
00000140: 909d de3d 461b d43e 37d2 da3d 927a 1e3f
00000150: 6cc7 5f3b 5de6 2e3f b6d3 cf3e d776 e53e
00000160: 8214 ff3e 8ad3 dfbd d326 853e c05f 853b
00000170: 9422 1f3f adbb 4a3e 90b4 f73d 45ed 103e
00000180: e45a 423e dd9e b83d 4a78 c63e 044d a03d
00000190: 5834 543d 3b85 b13e 3e6e 593e d842 523e
000001a0: e89d 87be c0a4 44bb cbca f83d f3ff b33e
000001b0: be44 8e3e feaa 79bd 3ded b73e 59a2 5e3e
000001c0: 19e5 043f b16d 85be aa01 1c3f ae5c c53d
000001d0: cefc 7a3c 2492 603d fb71 6c3d b841 d13e
000001e0: 6d3f 3a3e 7637 ccbe 2087 a9bc 362e 2b3d
000001f0: ef68 bc3d 9b37 ae3c 8e45 cb3e 3097 36bd
00000200: f94b ac3d 4e2e 2b3e 8316 15bd 6ceb 37be
00000210: 6bd6 823d 1103 10be 34a2 bd3d 1476 51bd
00000220: 1a38 353e ffff 723d ed6e fdbd d162 ccbd
00000230: 15a5 7b3d 337f efbd 83c3 543e ce75 dabc
00000240: e4c4 7d3d 7a87 0e3d 52ea 8bbd 4b3a 113e
00000250: 8d85 9f3d d44d 6ebc 14f6 aabd 9d96 21be
00000260: a914 c1bd 441c d8bd 7af8 13bd 6ac1 bf3d
00000270: fae6 a2bd 148f c7bd b5ed 073e 0072 ab3d
00000280: 4aec 693d 914b 123e f382 22be 4d5d 913c
00000290: e193 9abd b191 df3c 2c17 87be 31db e13c
000002a0: ccd8 033e 0f86 023d 9454 1b3e fc16 6abd
000002b0: 0470 2abe 4c44 f7bd 31c0 1dbe 5a43 a43d
000002c0: f3b8 c1be 5bef 2f3d 7a1d a4bd cdcf 09bd
000002d0: fff1 433c 532d 443d 3f5a b43d f7fa 32be
000002e0: 21c0 6fbd 01d7 3d3d 0bb6 cbbd 5488 f53d
000002f0: 227d 853d 09ef 06bc 4685 0dbc 2979 ae3d
00000300: 521e c13d e244 0fbd ae30 57bd b3df 023d
00000310: d72a afbd be3f fabd 77a6 643b 6c36 cd3d
00000320: 540c cc3e d26a b23d 25f8 f8bd fab5 ff3d
00000330: fcaa 6bbd 3e40 193d ab2f 9cbd e0d9 dcbc
00000340: e903 c93c 9b8a 30bd a56d 40bc f3cc 9ebc
00000350: 058f fd3b 87f1 9f3d b7e1 1d3d 3c5c c93d
00000360: 8f1e 803d d074 213d a6c2 c7bd 4a67 f6bd
00000370: 3f0e 0b3e 5ed0 cfbc 0601 2cbd 30f0 9abd
00000380: 268c 1b3d aaac 4fbd 590f fe3c 96a3 e2bd
00000390: 8dff 0ebb dcdf 0ebd 38db f03d 36cf 47bd
000003a0: f2cf 88be 9e60 d4bd 4e96 b1bd d81b 5e3e
000003b0: 208f 283c 0a74 aabd 9e45 efbd 8d83 82bd
000003c0: b532 d73d 24d5 433e ef07 453e da7c bbbd
000003d0: 3c83 1fbe 671c 1dbe b2c9 79bd f8b7 f63d
000003e0: dad7 61bd e85d 563e 9a22 eebd b5f4 84bd
000003f0: ea40 67bd 4b10 f0bd e029 1d3e 02eb 4fbd

critic_head.0.bias f4 [64]
0.08968267 -0.031860653 -0.15791644 -0.13988508 -0.07861499 -0.0785808 -0.05038513 0.0262471
-0.06587398 -0.22076537 0.10589898 0.0142544275 0.004429579 0.15567274 0.048250295 -0.00472153
-0.08377379 -0.050170586 0.08927109 -0.019960925 0.02129936 -0.01601237 0.12437524 -0.07774889
-0.08439059 -0.12432443 -0.052236892 0.12208183 -0.048364412 0.0781881 0.047474995 0.18449894
-0.12893602 0.029403945 0.01266475 -0.029452255 0.15814872 -0.05515769 0.08658561 0.10882112
0.00649154 0.06616447 0.093823716 -0.0749316 0.010657623 -0.023472536 0.1492415 0.08634501
-0.0030348198 0.036873884 0.08177375 0.03990807 0.08761115 -0.09585249 0.1771295 0.04178571
-0.115708 0.08922054 -0.054625086 0.13264307 0.076281756 -0.09204714 -0.030172609 0.07396727
00000000: 8cab b73d 5180 02bd d9b4 21be 093e 0fbe
00000010: e500 a1bd f8ee a0bd a360 4ebd 2904 d73c
00000020: f0e8 86bd 5110 62be 90e1 d83d 678b 693c
00000030: 0026 913b ad68 1f3e 1aa2 453d 10b7 9abb
00000040: 9891 abbd ac7f 4dbd c3d3 b63d 1885 a3bc
00000050: ff7b ae3c 602c 83bc 72b8 fe3d cf3a 9fbd
00000060: f9d4 acbd cf9d febd 5af6 55bd 0a06 fa3d
00000070: c319 46bd 1521 a03d 2475 423d 4aed 3c3e
00000080: ce07 04be 8be0 f03c d07f 4f3c db45 f1bc
00000090: bdf1 213e 08ed 61bd cc53 b13d 9bdd de3d
000000a0: fcb6 d43b 3d81 873d a626 c03d bd75 99bd
000000b0: 509d 2e3c 7a49 c0bc c4d2 183e a7d5 b03d
000000c0: d4e3 46bb 1209 173d ff78 a73d a576 233d
000000d0: 7a6d b33d 4f4e c4bd 7061 353e 7e27 2b3d
000000e0: 51f8 ecbd 42b9 b63d 8ebe 5fbd 96d3 073e
000000f0: 9c39 9c3d 3683 bcbd 8c2c f7bc 277c 973d

critic_head.2.weight f4 [1, 64]
0.36308345 0.2730858 -0.25175607 -0.24535064 0.36561117 0.3200132 0.3196068 0.31512243
0.05341177 -0.09297209 -0.1296229 -0.32606065 -0.022853578 -0.25520205 0.26790503 0.021475278
0.28610876 -0.056613136 -0.42309636 -0.06278187 0.014190644 -0.28106496 0.43675575 0.2527317
0.30516893 0.022147406 -0.345017 0.27701485 0.30020985 0.3208349 -0.31043175 -0.31651416
-0.19205347 -0.085122176 -0.098700084 0.10165281 -0.27942464 -0.20910783 -0.14039151 0.28873497
-0.06275987 -0.3401143 -0.12413506 0.321618 0.051624626 0.26972777 0.25872213 -0.41970122
0.28822705 0.319408 -0.137439 0.38687143 0.2670779 -0.007927623 -0.30033436 -0.2698647
0.27770984 -0.2212182 0.2500407 0.3425586 0.30259982 0.005611986 0.33336347 0.27177697
00000000: 13e6 b93e e7d1 8b3e 2ce6 80be 333d 7bbe
00000010: 6331 bb3e c5d8 a33e 81a3 a33e ba57 a13e
00000020: 4dc6 5a3d 2768 bebd debb 04be 6cf1 a6be
00000030: 6d37 bbbc d8a9 82be d92a 893e ecec af3c
00000040: d97c 923e 2de3 67bd 16a0 d8be c893 80bd
00000050: e07f 683c bfe7 8fbe 739e df3e 0d66 813e
00000060: 1a3f 9c3e 7a6e b53c 11a6 b0be e4d4 8d3e
00000070: 1bb5 993e 7944 a43e e9f0 9ebe 250e a2be
00000080: aaa9 44be 8954 aebd 4523 cabd 592f d03d
00000090: bf10 8fbe 5d20 56be cbc2 0fbe 12d5 933e
000000a0: 3f88 80bd 7623 aebe 863a febd 1dab a43e
000000b0: 5874 533d c219 8a3e 3a77 843e 14e3 d6be
000000c0: 7f92 933e 7289 a33e cfbc 0cbe 0314 c63e
000000d0: 6fbe 883e dce2 01bc 6dc5 99be b52b 8abe
000000e0: fc2f 8e3e 0687 62be 5605 803e d763 af3e
000000f0: 5dee 9a3e c0e4 b73b 9eae aa3e 5a26 8b3e
