training/models/ppo_weights.pth (torch, 285257 bytes, 13 tensors)

shared_layers.0.weight f4 [128, 24]
-0.1724618 0.008386786 0.042445097 -0.20611656 -0.053027112 0.07020278 -0.12361883 0.0337761
0.02011251 -0.06869677 -0.1710052 -0.021238906 -0.15101233 0.013058385 0.13714264 -0.17934628
-0.0503705 -0.08889878 -0.093788795 0.18597852 -0.07964281 -0.18948793 -0.09758828 0.13022074
-0.28458783 0.17833354 -0.1146616 0.14108123 0.22324629 -0.07235258 0.2155505 -0.09223247
0.09576176 -0.037155196 -0.03785266 0.18497513 0.04336477 -0.0035631785 -0.099653885 0.078285545
-0.101752155 -0.12418615 0.01837312 0.06569743 -0.042851746 0.13628565 -0.20023434 -0.19426975
-0.30298233 -0.30158103 0.07871141 0.09948723 -0.11952179 0.049604416 -0.08117505 -0.148912
0.18749376 0.0715019 0.10396554 0.19275787 -0.11240174 0.10300007 0.16704436 -0.075036995
-0.12125032 -0.04098559 0.06361133 0.14611122 0.21462627 0.14221725 0.17222653 0.028916806
-0.20855427 -0.3349216 -0.05631801 0.18322796 0.06983888 0.25875995 -0.17490496 -0.0343537
0.17805535 0.15628678 -0.057927545 0.13111813 0.08953692 0.06314662 -0.12059416 0.17283896
0.2264583 -0.076970324 -0.08690216 -0.012371288 0.11459167 -0.096417084 0.1950334 0.12962216
-0.28915948 0.12834723 -0.14006473 0.14676936 -0.21957487 0.026599137 0.09439161 0.17546447
0.13369115 -0.10816675 0.09918052 -0.06622746 0.015855184 -0.02645148 -0.22225386 0.115942776
-0.10992747 0.10354911 -0.042355515 -0.034248877 0.25806117 0.0032131944 0.070841044 -0.1383088
-0.038613517 -0.2593525 -0.10332811 -0.12810624 -0.003351513 -0.024870489 -0.20341767 -0.29089546
0.1677321 0.07306788 0.20748752 -0.20833649 -0.04215804 -0.23628248 0.2325896 0.13833943
-0.21920255 -0.13862267 0.037138887 -0.06026815 -0.07454336 0.18280311 -0.014592847 -0.10482707
-0.13415454 -0.39125773 -0.2047237 0.14288951 -0.17925948 -0.07967591 -0.012616885 0.06359674
-0.27634645 0.084402986 -0.11872436 0.083743654 0.047356162 -0.19083883 0.13367704 0.085434005
-0.01643714 0.14195421 0.0045556524 0.0743888 0.008910521 -0.028500833 0.061837025 -0.124788
-0.12489262 -0.14473209 -0.13894692 0.09830176 0.24076594 -0.035609476 0.06465037 0.09070327
0.06973083 -0.119964935 0.12976283 0.075862445 -0.054236174 -0.06584623 -0.118721075 -0.13337311
-0.13071255 -0.26186642 -0.20332174 -0.176258 -0.11235649 0.03171186 0.015073995 -0.116367474
0.00718936 0.103978574 -0.16421996 -0.13362855 0.16745253 0.15969956 -0.11240775 -0.015188376
-0.09637668 -0.1401659 -0.1711749 -0.0029978657 0.001248868 0.007920983 -0.07535061 -0.07997206
-0.005569591 -0.040938452 -0.02062163 0.1238017 0.083302364 -0.0650448 -0.18419214 -0.18776377
-0.32291362 -0.06556168 -0.11181452 0.082030535 -0.24011026 -0.17067301 -0.03639847 0.057177026
0.17525353 -0.162887 0.1769759 -0.24762732 -0.08380415 0.12613955 0.12172107 0.17598009
-0.09905414 -0.12631871 0.11321322 0.01511607 0.015639648 -0.08573216 0.16128011 0.13510959
0.09833149 -0.18983655 -0.007864903 -0.12168405 0.1551875 -0.16803609 -0.1225832 -0.14967777
-0.057106093 -0.19234443 0.06859506 0.15506369 0.12988546 0.14250438 0.14044492 -0.021409111
00000000: d399 30be bb68 093c e9da 2d3d 3810 53be
00000010: f532 59bd 7ac6 8f3d df2b fdbd cf58 0a3d
00000020: fec2 a43c e4b0 8cbd fd1b 2fbe 37fd adbc
00000030: faa2 1abe d6f2 553c 1f6f 0c3e 8da6 37be
00000040: 4c51 4ebd 9010 b6bd 5714 c0bd 2771 3e3e
00000050: c51b a3bd 2009 42be 5ddc c7bd 9658 053e
00000060: 7fb5 91be 119d 363e b3d3 eabd 9977 103e
00000070: ad9a 643e 972d 94bd 45b9 5c3e 61e4 bcbd
00000080: be1e c43d 0c30 18bd 640b 1bbd 1f6a 3d3e
00000090: 429f 313d 3784 69bb 5617 ccbd 2c54 a03d
000000a0: 6f63 d0bd 4f55 febd 3a83 963c 608c 863d
000000b0: 5085 2fbd 778e 0b3e 3b0a 4dbe a6ee 46be
000000c0: 8020 9bbe d468 9abe 7333 a13d f6bf cb3d
000000d0: d7c7 f4bd 002e 4b3d 1b3f a6bd 637c 18be
000000e0: 5dfe 3f3e 976f 923d e3eb d43d 5262 453e
000000f0: e232 e6bd b3f1 d23d ad0d 2b3e ffac 99bd
00000100: 1652 f8bd 82e0 27bd a846 823d 2e9e 153e
00000110: fdc6 5b3e 66a1 113e 275c 303e f0e2 ec3c
00000120: 408f 55be d87a abbe b7ad 66bd 1ca0 3b3e
00000130: b007 8f3d 2f7c 843e 491a 33be 77b6 0cbd
00000140: 2454 363e a409 203e 6f45 6dbd d543 063e
00000150: 225f b73d 0453 813d 12fa f6bd b2fc 303e
00000160: afe4 673e 9ea2 9dbd c2f9 b1bd f1b0 4abc
00000170: 0aaf ea3d 5276 c5bd d6b6 473e acbb 043e
00000180: b60c 94be 756d 033e 216d 0fbe b54a 163e
00000190: 3cd8 60be 6fe6 d93c 6350 c13d f5ac 333e
000001a0: 55e6 083e 8786 ddbd 281f cb3d 43a2 87bd
000001b0: bbe2 813c c6b0 d8bc 8496 63be 6873 ed3d
000001c0: a721 e1bd 8e11 d43d fa7c 2dbd 8d48 0cbd
000001d0: 9820 843e 7594 523b 1c15 913d d2a0 0dbe
000001e0: 3529 1ebd dac9 84be b09d d3bd 482e 03be
000001f0: 0fa5 5bbb 32bd cbbc b94c 50be 40f0 94be
00000200: f7c1 2b3e 9da4 953d 9c77 543e 2956 55be
00000210: e9ad 2cbd 09f4 71be f82b 6e3e daa8 0d3e
00000220: a276 60be 1af3 0dbe f21e 183d bcdb 76bd
00000230: 30aa 98bd bd30 3b3e d616 6fbc 93af d6bd
00000240: cf5f 09be ef52 c8be 17a3 51be a151 123e
00000250: cc8f 37be 202d a3bd 0db7 4ebc 023f 823d
00000260: 487d 8dbe 79db ac3d c225 f3bd cb81 ab3d
00000270: 89f8 413d 416b 43be a2e2 083e 06f8 ae3d
00000280: 2ea7 86bc 725c 113e 9547 953b 2859 983d
00000290: 6ffd 113c 947a e9bc d248 7d3d da90 ffbd
000002a0: b4c7 ffbd a634 14be 1a48 0ebe 6f52 c93d
000002b0: 598b 763e 3edb 11bd 6a67 843d a3c2 b93d
000002c0: 0acf 8e3d 2db0 f5bd 8ce0 043e c55d 9b3d
000002d0: c026 5ebd 63da 86bd 0924 f3bd f692 08be
000002e0: 83d9 05be 5b13 86be 9333 50be fa7c 34be
000002f0: 291b e6bd 4ce4 013d ebf8 763c 1252 eebd
00000300: b994 eb3b b8f2 d43d 4729 28be ecd5 08be
00000310: ad78 2b3e 4888 233e 0936 e6bd abd8 78bc
00000320: 2361 c5bd a687 0fbe 7948 2fbe d777 44bb
00000330: 0eb1 a33a 03c7 013c 6c51 9abd 64c8 a3bd
00000340: 1e81 b6bb 14af 27bd b1ee a8bc bf8b fd3d
00000350: 6e9a aa3d 3536 85bd dd9c 3cbe 2545 40be
00000360: ef54 a5be 3445 86bd 03ff e4bd a0ff a73d
00000370: 77df 75be e8c4 2ebe 9016 15bd 7532 6a3d
00000380: a975 333e dacb 26be 2c39 353e 0492 7dbe
00000390: 83a1 abbd ba2a 013e e548 f93d 2034 343e
000003a0: e6dc cabd b159 01be 55dc e73d 65a9 773c
000003b0: b81e 803c 5894 afbd 9d26 253e 2b5a 0a3e
000003c0: 0562 c93d 8364 42be cbdb 00bc 7d35 f9bd
000003d0: 79e9 1e3e a711 2cbe e70c fbbd 2145 19be
000003e0: 14e8 69bd f0f5 44be 917b 8c3d 04c9 1e3e
000003f0: b200 053e abec 113e cbd0 0f3e 2962 afbc

shared_layers.0.bias f4 [128]
0.07782682 0.018139664 0.009250303 -0.14010392 0.15435493 0.10816956 -0.015677063 0.15429842
-0.013629238 0.07110201 0.08182437 -0.21586151 0.018132966 -0.17743881 0.2449194 -0.14222576
-0.04868869 0.037664086 -0.082078844 -0.008051606 -0.10875567 -0.020837562 -0.035042986 -0.11261349
0.20870672 0.21528381 0.103726454 -0.23288144 -0.022959784 0.029022412 0.07701945 0.17751625
-0.039219927 0.13233775 0.176571 0.06132578 -0.26673698 0.04534755 -0.03270094 -0.1479931
-0.08072998 -0.1642489 0.17749183 -0.17841306 -0.1937915 -0.08604166 -0.123948276 0.07485166
0.13763848 -0.10936578 -0.091350056 -0.11969903 0.05979455 0.11064962 0.15055566 -0.22714588
-0.1962055 0.06526087 0.10603716 -0.16470844 0.13231786 -0.045429938 0.03473941 0.16142957
-0.12886284 0.09692894 0.04343805 0.020275792 -0.086982 0.06593585 -0.112631224 0.07326001
0.21254891 0.1741793 -0.16439363 -0.20824376 -0.13093439 0.12471831 -0.027197435 -0.17255458
-0.068877175 0.14588636 -0.16836008 0.117694266 0.104500204 -0.13145939 0.11478888 -0.124843776
0.09269955 -0.15931971 0.120597616 0.16942419 -0.04759543 0.1907864 -0.11243098 -0.15296821
-0.13939807 -0.016388746 0.13650525 -0.012622235 -0.19323717 0.0069988747 -0.007719205 -0.22636697
-0.055922873 0.028130779 0.04539973 0.16465192 -0.17309952 0.08616706 -0.07022096 0.10846611
0.019840335 -0.14033815 -0.10719415 -0.1963269 -0.13311747 -0.22584775 0.08611791 0.16123253
-0.18668814 -0.042578727 0.15516183 -0.09819747 -0.15829788 0.013442337 0.14544527 -0.20874412
00000000: ab63 9f3d a299 943c 958e 173c 6777 0fbe
00000010: 380f 1e3e 0188 dd3d 2f6d 80bc 6800 1e3e
00000020: 2b4d 5fbc ee9d 913d 8993 a73d cd0a 5dbe
00000030: 968b 943c 85b2 35be 27cc 7a3e a1a3 11be
00000040: cb6d 47bd a845 1a3d f418 a8bd e2ea 03bc
00000050: 4bbb debd 89b3 aabc 3c89 0fbd e7a1 e6bd
00000060: 37b7 553e 5c73 5c3e 896e d43d 7978 6ebe
00000070: 2816 bcbc 69c0 ed3c 60bc 9d3d d2c6 353e
00000080: 13a5 20bd 8c83 073e 07cf 343e be30 7b3d
00000090: c091 88be 5abe 393d 6cf1 05bd 818b 17be
000000a0: c255 a5bd dd30 28be 6bc0 353e eab1 36be
000000b0: 4771 46be 9c36 b0bd 98d8 fdbd d44b 993d
000000c0: 1af1 0c3e 2bfb dfbd bd15 bbbd c424 f5bd
000000d0: 21eb 743d 459c e23d 432b 1a3e ee98 68be
000000e0: 18ea 48be 7ea7 853d 032a d93d 54a9 28be
000000f0: 557e 073e be14 3abd e94a 0e3d cb4d 253e
00000100: 9ff4 03be ae82 c63d 19ec 313d 6b19 a63c
00000110: 9e23 b2bd 6009 873d 33ab e6bd 5809 963d
00000120: 6ca6 593e 0f5c 323e ce56 28be da3d 55be
00000130: aa13 06be 506c ff3d 28cd debc 26b2 30be
00000140: 7a0f 8dbd 3c63 153e 9666 2cbe b109 f13d
00000150: 3404 d63d 4a9d 06be 6f16 eb3d 18ae ffbd
00000160: 43d9 bd3d b524 23be e2fb f63d 897d 2d3e
00000170: 6df3 42bd 835d 433e 3742 e6bd b3a3 1cbe
00000180: 5ebe 0ebe b141 86bc 08c8 0b3e 7ecd 4ebc
00000190: f7df 45be d156 e53b 63f1 fcbb becc 67be
000001a0: 620f 65bd 8572 e63c 11f5 393d 839a 283e
000001b0: 0041 31be 5b78 b03d 02d0 8fbd 7b23 de3d
000001c0: 3388 a23c ceb4 0fbe 9b88 dbbd eb09 49be
000001d0: f24f 08be a244 67be 965e b03d 241a 253e
000001e0: 2d2b 3fbe 0867 2ebd bee2 1e3e c11b c9bd
000001f0: d718 22be 3f3d 5c3c 9bef 143e 05c1 55be

shared_layers.2.weight f4 [128, 128]
0.026143355 0.19961509 0.026929868 0.016238643 0.08100122 0.04047036 -0.0032962456 0.02721224
-0.04179641 0.14026088 -0.03324205 -0.033476327 -0.021189211 0.04294029 0.056072626 0.029142518
-0.058321923 0.14321297 -0.11014601 0.03694904 -0.021754092 0.18589336 -0.029503273 0.0180058
-0.1347665 -0.11645959 0.010383259 0.095561326 -0.011610578 0.1276616 -0.07327889 0.10605349
0.0032397422 0.006409731 0.029084561 -0.01576392 -0.024007121 -0.06796348 0.033355743 0.012398306
-0.09875987 0.02243485 0.08358569 0.077842385 -0.064868264 -0.06868291 0.029102596 0.027746767
0.0136742685 0.11763252 0.013070918 -0.015687965 0.020340865 -0.133579 0.0050883116 -0.0845629
0.017411612 0.08465813 -0.011233827 -0.00046926082 0.030403558 0.00229474 -0.004839057 -0.01955242
0.04219604 -0.016871031 0.008150978 0.0606358 -0.05535794 -0.087293655 0.04753981 0.0090003405
-0.16481328 -0.272443 -0.020069296 -0.009272618 -0.06427712 -0.08309646 0.16711715 -0.05292089
0.03728213 -0.09678913 -0.05872432 0.095692724 0.10604957 -0.121160455 0.0398787 -0.08956017
-0.0143110715 0.12937447 0.015948828 0.05371309 -0.092038125 0.041621316 -0.03787922 0.04797327
-0.033839058 -0.07432177 0.02514382 0.035586648 0.23237813 -0.1127283 -0.026908714 -0.016628891
0.08741605 0.032467462 -0.01458116 0.020866156 -0.14631468 -0.06136037 0.14780886 0.048911434
0.11663569 0.0014801148 -0.058653135 -0.08596026 -0.019454176 0.23565306 -0.14045113 -0.12163853
0.057263125 0.0054389457 -0.048498567 0.06855083 -0.012439337 -0.017318167 -0.10839754 -0.10313027
-0.017173665 0.007940859 -0.088180035 -0.19499163 0.027611615 0.1006545 -0.067770466 0.12300198
0.041277837 0.044257917 -0.0203413 0.029517904 0.011148912 0.059955887 -0.02529702 0.109199926
-0.0903326 0.10183107 0.034010924 -0.17430775 0.025991954 -0.047188833 -0.053063296 -0.17353722
0.11837901 0.076322205 -0.10523466 -0.0635212 -0.14053585 0.04487285 -0.109590985 0.14763276
-0.06843571 -0.10860992 -0.044600908 0.002696862 -0.013855654 0.06258244 -0.057719342 -0.15734266
0.074236766 0.033479746 -0.05971199 -0.030139863 2.9281522e-05 -0.06389462 0.064571515 0.047152195
-0.032208946 0.09556125 -0.0316875 0.13213381 0.010556209 -0.040740866 0.0031555428 0.10491993
-0.045767825 0.006241383 0.11903552 0.19785991 0.029006654 0.13083252 -0.022592377 -0.036722932
0.006386201 0.02460189 0.05510781 0.00051967386 0.12918603 -0.11007606 -0.067686066 0.03258291
-0.017365564 -0.03787267 -0.07316988 0.04231583 0.05854107 -0.09256794 0.04695755 -0.05195698
0.08410364 -0.109772734 0.044319335 -0.044802867 -0.037057336 -0.1571583 0.040630106 0.05276338
-0.008163279 -0.22699842 0.0013524778 -0.06445664 -0.094445735 0.038446724 0.019087605 0.025967328
0.0060327025 -0.019785333 0.049317386 0.059357997 0.11607644 0.0899453 0.018035635 0.03339008
-0.020971218 0.0975279 -0.023070201 0.028685914 -0.06111118 -0.0731626 0.11247359 0.04406023
0.13437161 0.01690217 0.056038197 -0.017838215 -0.040951557 -0.13394049 -0.10407683 -0.02907937
0.008584209 0.059188534 0.013212165 0.099316426 0.013339719 0.07734174 -0.020172643 -0.022885734
00000000: 972a d63c e667 4c3e 079c dc3c e706 853c
00000010: f8e3 a53d 40c4 253d d305 58bb 34ec de3c
00000020: b632 2bbd 8ca0 0f3e d128 08bd 791e 09bd
00000030: ff94 adbc 28e2 2f3d 69ac 653d 4abc ee3c
00000040: f8e2 6ebd 6ca6 123e 3b94 e1bd e057 173d
00000050: a335 b2bc d45a 3e3e d9b0 f1bc e680 933c
00000060: 3b00 0abe 5e82 eebd 8b1e 2a3c a8b5 c33d
00000070: 4b3a 3ebc b9b9 023e 3e13 96bd 9232 d93d
00000080: db51 543b b908 d23b bf42 ee3c 5623 81bc
00000090: 95aa c4bc 7030 8bbd 08a0 083d 4422 4b3c
000000a0: 9d42 cabd 4ac9 b73c f92e ab3d d46b 9f3d
000000b0: a7d9 84bd a0a9 8cbd 9168 ee3c 304d e33c
000000c0: 0a0a 603c 52e9 f03d 6727 563c 0c84 80bc
000000d0: e3a1 a63c efc8 08be dabb a63b 502f adbd
000000e0: cca2 8e3c 3e61 ad3d 160e 38bc 1f07 f6b9
000000f0: e210 f93c 5963 163b f490 9ebb 662c a0bc
00000100: c1d5 2c3d 1e35 8abc ae8b 053c 3f5d 783d
00000110: 02bf 62bd 04c7 b2bd 1bb9 423d 2a76 133c
00000120: d0c4 28be a67d 8bbe 5d68 a4bc 2eec 17bc
00000130: b9a3 83bd 7a2e aabd c220 2b3e 93c3 58bd
00000140: 26b5 183d 6139 c6bd ea88 70bd 8cfa c33d
00000150: 8430 d93d f922 f8bd d957 233d 536b b7bd
00000160: fc78 6abc be7a 043e 1ea7 823c 4202 5c3d
00000170: 7c7e bcbd 1d7b 2a3d 3e27 1bbd 9f7f 443d
00000180: d39a 0abd 0336 98bd 6afa cd3c 4ec3 113d
00000190: 88f4 6d3e 18de e6bd aa6f dcbc 5039 88bc
000001a0: 3007 b33d 9afc 043d d1e5 6ebc 80ef aa3c
000001b0: 84d3 15be 0355 7bbd 355b 173e 5b57 483d
000001c0: b1de ee3d 6900 c23a 453e 70bd ef0b b0bd
000001d0: 5d5e 9fbc 094f 713e 6cd2 0fbe 9f1d f9bd
000001e0: bd8c 6a3d 2f39 b23b 6fa6 46bd 6164 8c3d
000001f0: 5cce 4bbc d4de 8dbc 88ff ddbd f735 d3bd
00000200: c9af 8cbc 601a 023c bc97 b4bd e3ab 47be
00000210: c131 e23c f223 ce3d 3ecb 8abd 76e8 fb3d
00000220: f312 293d ca47 353d cca2 a6bc 88cf f13c
00000230: eda9 363c 4e94 753d b23b cfbc 36a4 df3d
00000240: 4c00 b9bd cf8c d03d 0a4f 0b3d bb7d 32be
00000250: 14ed d43c 1449 41bd e658 59bd beb3 31be
00000260: b270 f23d d14e 9c3d 4585 d7bd 6717 82bd
00000270: a1e8 0fbe 98cc 373d 3d71 e0bd 0b2d 173e
00000280: 0628 8cbd e16e debd 71af 36bd d6bd 303b
00000290: d302 63bc 392b 803d 1e6b 6cbd 6f1e 21be
000002a0: 7209 983d 0f22 093d 8f94 74bd e0e7 f6bc
000002b0: 97a1 f537 2fdb 82bd 123e 843d a922 413d
000002c0: 87ed 03bd 9eb5 c33d c1ca 01bd 164e 073e
000002d0: f3f3 2c3c e5df 26bd 39cd 4e3b 43e0 d63d
000002e0: 0b77 3bbd 8484 cc3b e5c8 f33d ca9b 4a3e
000002f0: 5d9f ed3c f6f8 053e a613 b9bc c96a 16bd
00000300: 5643 d13b e789 c93c bab8 613d b93a 083a
00000310: 5849 043e 8f6f e1bd fe9e 8abd a875 053d
00000320: 3a42 8ebc 5f20 1bbd 17da 95bd 5d53 2d3d
00000330: c3c8 6f3d 4394 bdbd 8f56 403d d8d0 54bd
00000340: 873e ac3d 87d0 e0bd 3188 353d 3683 37bd
00000350: 6fc9 17bd 1bee 20be c16b 263d 6a1e 583d
00000360: 46bf 05bc 4672 68be a045 b13a d801 84bd
00000370: c46c c1bd 507a 1d3d 9c5d 9c3c 6fb9 d43c
00000380: faad c53b da14 a2bc 0701 4a3d 5f21 733d
00000390: 7cb9 ed3d 3e35 b83d 78bf 933c 09c4 083d
000003a0: d5cb abbc b5bc c73d b8fd bcbc b9fe ea3c
000003b0: b74f 7abd 46d6 95bd 8e58 e63d 8078 343d
000003c0: b698 093e 6b76 8a3c 4f88 653d 7321 92bc
000003d0: d2bc 27bd b227 09be 3c26 d5bd dc37 eebc
000003e0: c8a4 0c3c ad6f 723d d677 583c 6966 cb3d
000003f0: d68e 5a3c 5965 9e3d 1941 a5bc dd7a bbbc

shared_layers.2.bias f4 [128]
-0.083532706 0.071098074 0.03333008 -0.07756609 -0.004178817 -0.08157983 0.01777743 0.010204052
-0.052166015 0.0925321 -0.049373664 0.06864573 0.09264611 0.030760668 0.087822326 -0.07100985
-0.029349556 -7.9113546e-05 0.030406479 -0.04202744 0.07307383 -0.02972577 -0.028169937 -0.07758035
0.028847158 -0.034962595 0.037984848 -0.0749244 -0.06497088 -0.0014222914 -0.07144444 0.038470447
-0.0023373968 0.041832395 -0.10264899 0.033630483 -0.08173379 -0.048124306 -0.024498524 -0.012834505
-0.02952783 -0.00518146 9.361444e-05 0.056746405 -0.021338481 -0.019984633 0.023036238 -0.10068733
-0.021615047 0.0091146985 -0.098265104 0.023557846 -0.015855044 -0.061385322 0.10816972 0.015753042
0.043879885 -0.03712362 -0.0750569 -0.023864932 -0.022648225 -0.06069287 -0.016711831 -0.042525303
0.0068898443 0.07343639 0.02592596 -0.023553101 0.10460827 -0.034622267 0.02789997 0.06451619
-0.023798836 -0.007750279 -0.06646962 -0.07234383 0.034250468 -0.029451955 -0.08928974 -0.0876864
-0.0119101005 -0.12108069 -0.0042579537 -0.056098137 -0.007641662 -0.047198933 0.04330629 0.07229156
-0.018964408 -0.059272178 -0.04127724 -0.01653722 -0.021931713 0.051455375 -0.014115237 -0.04818645
-0.076257795 0.0028026954 -0.020320432 -0.08218224 0.045673404 -0.007885961 0.05274817 0.004525184
-0.0884423 -0.09121106 0.026419299 -0.086229555 0.013718733 -0.00063173415 0.020485694 -0.09183902
0.01776846 -0.028986605 0.010851411 -0.035218537 0.055602252 0.038929977 -0.008046969 0.0066573303
-0.050074987 -0.072147354 0.014349141 0.07905845 0.091470614 0.033156984 -0.014755276 -0.079317234
00000000: 3213 abbd de9b 913d 1f85 083d f8da 9ebd
00000010: 75ee 88bb 5313 a7bd f9a1 913c e52e 273c
00000020: 08ac 55bd 7881 bd3d 0a3c 4abd 2296 8c3d
00000030: 3ebd bd3d ccfd fb3c 31dc b33d 9d6d 91bd
00000040: 7b6e f0bc c3e9 a5b8 0217 f93c f724 2cbd
00000050: bba7 953d 7583 f3bc a4c4 e6bc 72e2 9ebd
00000060: e050 ec3c f034 0fbd 0096 1b3d f771 99bd
00000070: 740f 85bd 2e6c baba 7651 92bd 3093 1d3d
00000080: 032f 19bb 7258 2b3d a239 d2bd 1ec0 093d
00000090: 0c64 a7bd fe1d 45bd 21b1 c8bc d147 52bc
000000a0: 59e4 f1bc 3dc9 a9bb df52 c438 eb6e 683d
000000b0: 0ace aebc d0b6 a3bc 7eb6 bc3c 2935 cebd
000000c0: 0a12 b1bc d155 153c 373f c9bd 62fc c03c
000000d0: 70e2 81bc 2d6f 7bbd 1688 dd3d 860c 813c
000000e0: 65bb 333d f00e 18bd 6fb7 99bd 6480 c3bc
000000f0: c588 b9bc 1699 78bd 40e7 88bc 032f 2ebd
00000100: 34c4 e13b d165 963d ae62 d43c 6ff2 c0bc
00000110: dc3c d63d 14d0 0dbd 7a8e e43c 1021 843d
00000120: c7f5 c2bc 0df6 fdbb 3921 88bd 0029 94bd
00000130: 384a 0c3d 3a45 f1bc 8add b6bd ed94 b3bd
00000140: 9522 43bc 27f9 f7bd 4e86 8bbb 29c7 65bd
00000150: e866 fabb ab53 41bd f061 313d 990d 943d
00000160: 3f5b 9bbc 62c7 72bd 5312 29bd 1079 87bc
00000170: 23aa b3bc dfc2 523d 9843 67bc 285f 45bd
00000180: 0c2d 9cbd 6dad 373b 0977 a6bc 2a4f a8bd
00000190: 0914 3b3d 1e34 01bc 770e 583d ff47 943b
000001a0: 3d21 b5bd ddcc babd 496d d83c 1f99 b0bd
000001b0: 89c4 603c f69a 25ba 9dd1 a73c 1916 bcbd
000001c0: 298f 913c 5175 edbc 1eca 313c 5041 10bd
000001d0: 30bf 633d 0a75 1f3d 6fd7 03bc bc25 da3b
000001e0: 6e1b 4dbd fec1 93bd a918 6b3c 66e9 a13d
000001f0: f254 bb3d 9ecf 073d 1dc0 71bc 1371 a2bd

shared_layers.5.weight f4 [128, 128]
-0.01655918 -0.13349476 0.06799057 0.022794474 -0.04599525 0.009921346 0.011498386 -0.05180923
-0.020255448 -0.011384329 -0.15169932 -0.23673536 -0.0075172004 -0.11804228 0.09461513 0.13855998
-0.03465302 -0.09271477 0.031446226 -0.14202903 0.040574994 -0.11494399 -0.13086306 -0.022270406
0.1141986 0.009446581 0.044900578 0.084049635 0.086405754 -0.06852373 0.12876585 0.116032265
0.07689389 0.05999757 0.075606056 -0.032233622 0.024414858 0.07163557 -0.041477673 0.035343144
0.007948839 0.023848731 -0.10447022 -0.10477037 -0.0645789 -0.04376972 -0.13153455 -0.07576242
-0.0512872 -0.017806 0.06426045 -0.08625406 0.072700486 -0.013445639 -0.10883557 -0.13760029
-0.11478921 0.025161784 -0.0784771 -0.05447884 -0.052891806 -0.12053012 -0.037564594 -0.011993616
0.07549392 -0.14541401 -0.06086698 -0.07047117 -0.23090863 0.09357451 0.10374366 0.02320098
-0.018998014 -0.019013813 0.047373388 0.03268604 0.061818957 -0.091480225 0.07119833 0.06477231
-0.06765506 0.0174817 0.052636296 -0.023520958 -0.07344343 0.048419617 -0.09432476 -0.06007239
-0.10752345 0.03775312 -0.069657825 -0.08439062 0.03490831 -0.0338907 0.0628432 -0.009043112
-0.0358158 0.10916385 0.046470754 0.05244309 0.030624444 0.032805655 -0.074573636 -0.07564196
0.061658546 -0.08222397 0.029653663 0.10110876 0.027543355 -0.058500435 0.021148136 0.080938876
0.08611654 -0.02800082 -0.088882 0.0813342 -0.13442525 -0.15973026 -0.108094834 -0.22671935
-0.046270326 0.058577918 0.018252112 -0.107275575 -0.04567975 -0.10234305 0.009974603 0.04777482
0.05471045 -0.03953912 0.08037342 0.11296821 0.0546358 -0.04422464 0.069477536 -0.044626728
-0.039777268 -0.031430863 0.096796595 -0.08441315 -0.08074152 0.041797567 0.02900019 -0.0006495934
-0.0034151033 -0.16503353 0.090074174 -0.047438614 0.07228604 -0.072828054 -0.046501096 -0.032791983
-0.04268473 -0.059749685 -0.20842825 0.021900008 0.08498549 0.029440824 0.021455383 0.03440947
0.06280661 0.10146466 0.0097614555 -0.034503713 0.028110798 0.06765352 -0.09193102 0.011515805
0.07475834 0.096193716 0.01830983 0.038475353 -0.12410633 0.0098384945 0.0798063 -0.0569759
0.03659371 -0.024028433 0.042277772 -0.011134563 0.09293771 0.041144494 -0.07181832 0.061759
-0.031168792 0.057595976 0.08384725 -0.09796132 0.11570096 -0.0156519 -0.09701169 0.018489003
0.0041553676 -0.028650187 -0.055326622 0.07819261 0.038461156 -0.014235784 -0.0043571303 0.07783076
0.0064395424 0.0395731 0.038164448 0.052106876 0.016699048 -0.0476878 -0.0143171055 -0.21566193
-0.012408049 -0.015693123 0.0051335236 -0.042137958 -0.052046437 -0.002956973 -0.05447672 0.049625657
0.08510468 -0.014604891 -0.096976005 -0.055748697 0.059286743 0.11682873 0.0011474745 0.06547716
-0.0133408895 -0.05972748 0.12454355 0.011069995 -0.07298303 -0.025026873 -0.033283543 0.07176533
0.02931835 -0.06671455 0.041188166 0.022282101 -0.053104226 -0.02506498 -5.7440902e-05 -0.19592637
0.043681815 -0.10309846 -0.047231454 0.08572119 0.002479575 -0.10224456 -0.07899918 -0.014430774
-0.111240566 0.009419085 0.0666675 -0.0036470264 -0.061878175 -0.04283837 0.033845916 -0.04453324
00000000: 1ea7 87bc dab2 08be a43e 8b3d 7abb ba3c
00000010: 8465 3cbd 248d 223c ba63 3c3c ea35 54bd
00000020: c1ee a5bc 5685 3abc 1157 1bbe c16a 72be
00000030: d952 f6bb 27c0 f1bd 94c5 c13d abe2 0d3e
00000040: 53f0 0dbd 3ee1 bdbd c2cd 003d 0f70 11be
00000050: f731 263d c167 ebbd f700 06be 6d70 b6bc
00000060: f5e0 e93d d5c5 1a3c abe9 373d 3722 ac3d
00000070: 80f5 b03d 2b56 8cbd 32db 033e 53a2 ed3d
00000080: 8b7a 9d3d 03c0 753d 59d7 9a3d 6707 04bd
00000090: ab01 c83c abb5 923d 7ee4 29bd f9c3 103d
000000a0: d93b 023c 6a5e c33c 7cf4 d5bd d991 d6bd
000000b0: f141 84bd e147 33bd feb0 06be 5429 9bbd
000000c0: 8712 52bd e3dd 91bc fc9a 833d f8a5 b0bd
000000d0: fee3 943d 194b 5cbc 2fe5 debd 17e7 0cbe
000000e0: 9b16 ebbd 1620 ce3c 9ab8 a0bd 3425 5fbd
000000f0: 14a5 58bd 7fd8 f6bd 55dd 19bd df80 44bc
00000100: 8e9c 9a3d 69e7 14be a84f 79bd 3053 90bd
00000110: 5073 6cbe fea3 bf3d 8e77 d43d fb0f be3c
00000120: b9a1 9bbc dbc2 9bbc 990a 423d cce1 053d
00000130: e035 7d3d fc59 bbbd 6ed0 913d 58a7 843d
00000140: bc8e 8abd c835 8f3c 2899 573d 06af c0bc
00000150: 8269 96bd a653 463d 572d c1bd 770e 76bd
00000160: 4135 dcbd 04a3 1a3d c3a8 8ebd fdd4 acbd
00000170: 04fc 0e3d fad0 0abd f0b3 803d 9029 14bc
00000180: 97b3 12bd 4c91 df3d 1e58 3e3d 91ce 563d
00000190: 1de0 fa3c 395f 063d 10ba 98bd 2cea 9abd
000001a0: ac8d 7c3d 0a65 a8bd 3dec f23c 1c12 cf3d
000001b0: 9aa2 e13c 279e 6fbd db3e ad3c 48c3 a53d
000001c0: de5d b03d fa61 e5bc c407 b6bd 8c92 a63d
000001d0: c6a6 09be 5490 23be d360 ddbd 1e29 68be
000001e0: f485 3dbd 66ef 6f3d 7485 953c 4cb3 dbbd
000001f0: b11a 3bbd 3c99 d1bd 846c 233c 88af 433d
00000200: 1118 603d c6f3 21bd d29a a43d e05b e73d
00000210: cac9 5f3d e524 35bd 3d4a 8e3d 84ca 36bd
00000220: 7ded 22bd a6bd 00bd 4b3d c63d cde0 acbd
00000230: cf5b a5bd ed33 2b3d ce91 ed3c 7a49 2aba
00000240: edcf 5fbb 8dfe 28be cf78 b83d fe4e 42bd
00000250: b40a 943d e026 95bd ef77 3ebd e350 06bd
00000260: 2fd6 2ebd 16bc 74bd 376e 55be a567 b33c
00000270: df0c ae3d e22d f13c 33c3 af3c f2f0 0c3d
00000280: c0a0 803d b4cc cf3d 83ee 1f3c c453 0dbd
00000290: 9e48 e63c ee8d 8a3d 5546 bcbd c9ac 3c3c
000002a0: e71a 993d 3601 c53d 7ffe 953c 5598 1d3d
000002b0: 762b febd a331 213c 7c71 a33d 905f 69bd
000002c0: 49e3 153d 47d7 c4bc 752b 2d3d be6d 36bc
000002d0: 2056 be3d 2187 283d 7c15 93bd 01f7 7c3d
000002e0: b255 ffbc c2e9 6b3d 1bb8 ab3d f29f c8bd
000002f0: a0f4 ec3d 6a38 80bc 11ae c6bd 4076 973c
00000300: c029 883b ccb3 eabc 2b9e 62bd 7223 a03d
00000310: 7289 1d3d 353d 69bc 42c6 8ebb bc65 9f3d
00000320: cc02 d33b 6717 223d 5352 1c3d 056e 553d
00000330: 71cc 883c 4854 43bd 4b92 6abc 7bd6 5cbe
00000340: 214b 4bbc dd8e 80bc 1e37 a83b da98 2cbd
00000350: a52e 55bd c6c9 41bb fb22 5fbd 4644 4b3d
00000360: 5d4b ae3d 5a49 6fbc 5b9b c6bd bf58 64bd
00000370: a8d6 723d e743 ef3d db66 963a e418 863d
00000380: bf93 5abc cda4 74bd b010 ff3d ed5e 353c
00000390: 2078 95bd 2805 cdbc 5354 08bd b4f9 923d
000003a0: 092d f03c a3a1 88bd ecb4 283d f488 b63c
000003b0: d183 59bd 1355 cdbc b3ec 70b8 eca0 48be
000003c0: b4eb 323d 4925 d3bd c575 41bd 978e af3d
000003d0: 5e80 223b 9965 d1bd 52ca a1bd 0e6f 6cbc
000003e0: 18d2 e3bd 8252 1a3c f888 883d f302 6fbb
000003f0: f873 7dbd 4977 2fbd 04a2 0a3d 7d68 36bd

shared_layers.5.bias f4 [128]
0.12607175 0.12220866 0.0730071 0.13821925 0.08105773 0.06609637 0.083741486 0.04718573
0.23313 0.11618349 0.11283435 0.09765848 -0.051112533 0.23345104 0.13745968 0.057426002
0.13046487 -0.008854287 0.20636746 0.22868335 0.08971303 0.030190123 0.1292658 0.09720457
0.12491431 0.08380727 0.040447075 0.07846149 0.17904457 -0.057084735 0.07835452 0.22056967
-0.092725456 0.07086019 0.27971047 -0.09288723 0.06778957 0.15784061 -0.027899161 0.01993771
0.07503181 0.07266519 0.16095012 -0.06738379 0.031687677 0.078780204 0.13829587 0.0826322
0.25518546 0.064121194 -0.028686475 0.12555493 0.100227416 0.07126732 0.055510264 0.13644214
0.07622907 0.11076578 0.044301346 0.15083218 -0.0483531 0.024276279 -0.09161826 0.20944053
0.068199255 0.051645536 -0.05055316 -0.105156414 0.2626055 0.08030075 0.2035145 0.124060206
0.042637397 0.12782802 -0.045762807 0.12798801 0.12109572 -0.059898328 0.06745642 0.11259811
0.014554135 -0.098143324 0.037789643 0.023805942 0.116837695 0.069691144 0.044807486 -0.047520146
0.14134292 0.14606626 0.17238016 -0.05961587 0.09425523 0.14530371 0.11839813 0.0898438
0.011497392 0.19926062 0.15386601 0.061834957 0.19678596 0.10400505 0.19411185 0.06286602
0.11342771 0.28515038 0.019702863 0.07640061 0.15182911 0.0995318 0.09713796 0.05947997
0.14054169 0.0997708 0.16943222 0.13092057 0.042899262 0.114299215 0.13277069 0.04189744
0.068058126 0.10859257 0.07356366 0.15434006 -0.02388416 -0.09800436 0.1506931 0.10913162
00000000: f418 013e 8948 fa3d bf84 953d 5989 0d3e
00000010: 9801 a63d 895d 873d a880 ab3d d345 413d
00000020: a1b9 6e3e 9cf1 ed3d b215 e73d 2b01 c83d
00000030: 605b 51bd ca0d 6f3e 3bc2 0c3e 8737 6b3d
00000040: 9598 053e 9211 11bc fe51 533e f82b 6a3e
00000050: 77bb b73d 4751 f73c 415e 043e 3113 c73d
00000060: 13d3 ff3d 25a3 ab3d d5ab 253d 6bb0 a03d
00000070: 7657 373e afd1 69bd 5678 a03d 04dd 613e
00000080: d8e6 bdbd 261f 913d 3636 8f3e a93b bebd
00000090: 42d5 8a3d f8a0 213e c88c e4bc 6954 a33c
000000a0: 47aa 993d 7dd1 943d 1cd0 243e 8300 8abd
000000b0: f0ca 013d 8457 a13d 6f9d 0d3e 123b a93d
000000c0: aba7 823e f951 833d e6ff eabc 7991 003e
000000d0: 0844 cd3d 9af4 913d bb5e 633d 7db7 0b3e
000000e0: fd1d 9c3d 2bd9 e23d 5475 353d c073 1a3e
000000f0: e60d 46bd 0cdf c63c 5ba2 bbbd 9477 563e
00000100: 0dac 8b3d 458a 533d d510 4fbd 3f5c d7bd
00000110: 3a74 863e b874 a43d 1b66 503e 4713 fe3d
00000120: 8da4 2e3d 59e5 023e c871 3bbd 4a0f 033e
00000130: 0801 f83d f357 75bd 9726 8a3d d799 e63d
00000140: 7774 6e3c 5eff c8bd 50c9 1a3d ae04 c33c
00000150: 9a48 ef3d 3bba 8e3d 0e88 373d 7ca4 42bd
00000160: 33bc 103e 6592 153e 6d84 303e c52f 74bd
00000170: e308 c13d 7fca 143e b87a f23d 0700 b83d
00000180: 8f5f 3c3c fa0a 4c3e 0d8f 1d3e a746 7d3d
00000190: 4282 493e 9a00 d53d 42c5 463e e6bf 803d
000001a0: ca4c e83d 3bff 913e e667 a13c ec77 9c3d
000001b0: 1779 1b3e 54d7 cb3d 44f0 c63d 45a1 733d
000001c0: 29ea 0f3e a254 cc3d a47f 2d3e 0b10 063e
000001d0: 23b7 2f3d b515 ea3d 0af5 073e a69c 2b3d
000001e0: 0f62 8b3d c865 de3d 8ba8 963d 520b 1e3e
000001f0: b7a8 c3bc 83b6 c8bd 4b4f 1a3e 6680 df3d

actor_head.0.weight f4 [128, 128]
-0.050618745 -0.10890217 -0.072751984 -0.053865504 -0.122679405 -0.007059364 0.10285965 -0.09037161
0.049840305 -0.09910149 -0.08049727 -0.058465417 -0.063021146 -0.07571463 -0.03052991 -0.049561776
0.029002117 -0.01613301 0.028517041 -0.1284444 -0.0026890633 -0.108722515 0.11869171 -0.03971904
0.042766377 0.00682265 -0.049818695 0.010645244 -0.059770048 -0.07732113 -0.12036148 0.078093365
-0.0006227745 0.018654019 0.006106283 -0.085130334 0.0044800774 -0.0744612 -0.047451366 -0.008388712
0.19115402 0.07945931 -0.048488416 0.073056936 -0.010036377 0.103217654 -0.021621607 -0.045760415
-0.07487593 0.024372088 0.06440556 0.047955565 0.08731691 0.11179212 0.061669048 -0.001363357
-0.029252829 -0.005081903 -0.028939739 0.013611183 -0.06596326 0.06567405 -0.045683287 -0.06947439
0.07377238 0.00629597 -0.029430714 -0.03235471 0.029220704 -0.06753216 -0.08073834 -0.059815362
-0.08901601 -0.044319343 -0.045576073 -0.10401348 -0.04645419 0.05859284 0.010169458 0.047057837
0.007202477 -0.0662409 -0.010783237 -0.03724015 0.018546134 -0.045429215 -0.04599284 -0.006914685
-0.009787206 -0.0139396405 -0.14330009 -0.04689658 0.020843657 0.003972452 -0.01591336 0.07125722
-0.05678475 0.04106659 -0.038639355 0.036328096 -0.10386915 -0.068163514 -0.028725462 -0.0265942
-0.0074493056 0.02837364 -0.026689628 0.0101896785 -0.023708316 -0.011676553 -0.08956426 0.10400875
-0.042537205 0.052445665 -0.02789115 -0.11584951 -0.11852557 -0.0094380565 0.03050909 0.045966778
0.08835605 -0.0778449 0.08379797 0.005628468 0.013824644 0.091175325 -0.1161748 0.06605395
0.018824544 -0.007819848 -0.07359605 -0.050726354 -0.023189994 -0.04668358 -0.012948552 0.057423867
0.062377077 -0.066928506 0.025951967 0.017757207 -0.0035651685 -0.11086224 0.054031704 -0.09344248
-0.0679935 -0.0063108727 0.0017866391 0.0022195913 -0.020219766 -0.079622455 -0.06497789 -0.12952504
0.014137671 -0.025877187 -0.07089605 -0.09366671 -0.07421354 -0.043795433 0.015943434 0.03866048
0.08230309 -0.11574576 0.020703347 -0.004987399 -0.05202161 -0.05403776 -0.05159126 0.07222154
-0.03648014 0.05403011 0.016960906 0.028836368 -0.024008108 0.028110709 0.063021876 -0.093192086
-0.038530424 -0.011383449 -0.09738886 -0.05839049 -0.091398165 -0.09238536 -0.05867087 -0.04430358
-0.06543556 -0.030574782 -0.028046485 -0.065431595 0.033137728 0.07667461 -0.057203628 -0.06808623
-0.05797148 0.06018072 -0.04740071 -0.07018003 -0.04074631 0.04800044 0.0031525025 -0.027911907
0.01731912 -0.005219727 0.060331613 -0.008063012 0.0019142434 -0.011830949 -0.057669155 0.06254411
-0.03943892 -0.09107032 -0.092498496 -0.07243429 0.067000635 -0.031230364 -0.074669205 -0.058717236
0.026345594 0.04872202 -0.018225448 0.063464075 0.0032333226 -0.04262216 -0.023948578 -0.049860373
-0.015753958 0.006777713 0.06412838 0.06650829 0.0315002 0.021128567 0.047029987 -0.055710822
0.0452531 -0.047476195 -0.06596032 -0.008017729 0.05224834 0.03643683 -0.05164867 0.06836714
-0.026288148 -0.033576835 -0.07799468 0.051931452 -0.002358036 -0.07664954 0.0633133 0.07417825
0.051051047 -0.05196609 0.030131605 -0.029674493 -0.018354172 0.042512998 0.012776417 0.04871808
00000000: 9a55 4fbd 1a08 dfbd fefe 94bd 13a2 5cbd
00000010: 573f fbbd 3d52 e7bb 15a8 d23d c014 b9bd
00000020: 5925 4c3d b9f5 cabd c1db a4bd 6f79 6fbd
00000030: 3b11 81bd 4610 9bbd dd19 fabc 4a01 4bbd
00000040: d995 ed3c 6029 84bc 929c e93c ee86 03be
00000050: ff3a 30bb e9a9 debd a414 f33d 6fb0 22bd
00000060: cc2b 2f3d 8990 df3b b00e 4cbd 6469 2e3c
00000070: 70d1 74bd 8a5a 9ebd 1480 f6bd 6aef 9f3d
00000080: b041 23ba 50d0 983c 3717 c83b d058 aebd
00000090: 9dcd 923b 1d7f 98bd 5d5c 42bd cf70 09bc
000000a0: e1bd 433e 90bb a23d ca9b 46bd e09e 953d
000000b0: 9e6f 24bc c763 d33d cc1f b1bc 466f 3bbd
000000c0: 8d58 99bd f9a7 c73c 10e7 833d 0e6d 443d
000000d0: 35d3 b23d 44f3 e43d af98 7c3d abb2 b2ba
000000e0: a1a3 efbc 1886 a6bb 0813 edbc 7001 5f3c
000000f0: bf17 87bd 1e80 863d 661e 3bbd 9748 8ebd
00000100: f915 973d 6d4e ce3b ae18 f1bc 5f86 04bd
00000110: 4260 ef3c 4d4e 8abd 255a a5bd f400 75bd
00000120: 074e b6bd 3388 35bd faad 3abd 0505 d5bd
00000130: c046 3ebd 0cff 6f3d cc9d 263c b8bf 403d
00000140: c202 ec3b 4fa9 87bd 2dac 30bc 2189 18bd
00000150: 10ee 973c fc13 3abd fd62 3cbd 9594 e2bb
00000160: 845a 20bc 1763 64bc 42bd 12be a116 40bd
00000170: 51c0 aa3c 582b 823b bc5c 82bc 4eef 913d
00000180: 2097 68bd 7135 283d 4d44 1ebd c5cc 143d
00000190: 59b9 d4bd 5099 8bbd a951 ebbc 14dc d9bc
000001a0: 4e19 f4bb d66f e83c 35a4 dabc 9cf2 263c
000001b0: f137 c2bc 034f 3fbc 776d b7bd 8a02 d53d
000001c0: 7e3b 2ebd 44d1 563d fb7b e4bc 8242 edbd
000001d0: 89bd f2bd 14a2 1abc 33ee f93c a947 3c3d
000001e0: 04f4 b43d 266d 9fbd 459e ab3d 036f b83b
000001f0: c280 623c 21ba ba3d 0eed edbd 4b47 873d
00000200: ee35 9a3c d21e 00bc 87b9 96bd 70c6 4fbd
00000210: f1f8 bdbc 4837 3fbd 2a26 54bc 4a35 6b3d
00000220: 1b7f 7f3d d011 89bd 3899 d43c 9077 913c
00000230: 9aa5 69bb be0b e3bd 5950 5d3d c55e bfbd
00000240: 2d40 8bbd 70cb cebb a92d ea3a 9076 113b
00000250: eca3 a5bc 1911 a3bd 2113 85bd 36a2 04be
00000260: b1a1 673c 65fc d3bc f331 91bd 55d4 bfbd
00000270: 45fd 97bd d762 33bd ce9b 823c 745a 1e3d
00000280: 868e a83d 1d0c edbd 119a a93c 566d a3bb
00000290: 9d14 55bd b356 5dbd 5b51 53bd e3e8 933d
000002a0: 336c 15bd ad4e 5d3d 99f1 8a3c 3f3a ec3c
000002b0: a7ac c4bc 6e48 e63c 9d11 813d 7edb bebd
000002c0: 14d2 1dbd a581 3abc d073 c7bd de2a 6fbd
000002d0: f62e bbbd 8934 bdbd de50 70bd ac77 35bd
000002e0: 1403 86bd f777 fabc bec1 e5bc 0001 86bd
000002f0: 6dbb 073d 9407 9d3d 5a4e 6abd cb70 8bbd
00000300: 8173 6dbd 0f80 763d 3f27 42bd 8cba 8fbd
00000310: 9ae5 26bd 1c9c 443d 379a 4e3b 83a7 e4bc
00000320: d4e0 8d3c 3e0a abbb 481e 773d b91a 04bc
00000330: 5ae7 fa3a 99d6 41bc 7e36 6cbd 2017 803d
00000340: b48a 21bd 1383 babd da6f bdbd 6e58 94bd
00000350: a137 893d d2d6 ffbc 2bec 98bd 7c81 70bd
00000360: b7d2 d73c be90 473d 894d 95bc 74f9 813d
00000370: 27e6 533b 9394 2ebd cf2f c4bc 643a 4cbd
00000380: 720e 81bc 9417 de3b bd55 833d 8035 883d
00000390: 5b06 013d d115 ad3c 84a2 403d 0831 64bd
000003a0: 515b 393d 6676 42bd 3416 87bd cb5c 03bc
000003b0: 5b02 563d c93e 153d 8e8d 53bd 1204 8c3d
000003c0: 3e5a d7bc dd87 09bd adbb 9fbd 13b6 543d
000003d0: 4889 1abb 6ffa 9cbd 67aa 813d c4ea 973d
000003e0: e71a 513d 65da 54bd 8ed6 f63c ec17 f3bc
000003f0: 7d5b 96bc 1c22 2e3d 2d54 513c 9c8c 473d

actor_head.0.bias f4 [128]
-0.03381746 0.016982328 0.0041337307 -0.059019197 0.08755172 -0.054555688 0.04163286 0.19715944
-0.054947052 -0.03747454 0.06149101 -0.036351148 -0.023553498 -0.10586522 -0.06801606 -0.01828441
-0.013843495 0.06429366 0.08960235 0.09695488 0.19541268 -0.03324693 0.08349166 -0.1022544
0.23845601 -0.07766186 0.16111557 0.052512985 0.032045156 -0.03220628 0.18864195 0.024827452
-0.00918344 0.12652767 0.024193123 0.17038436 0.1099525 0.07803027 -0.08332896 0.03141644
-0.006990169 0.04132582 0.04320202 0.04592645 0.09182816 0.070023365 0.042474695 -0.025795793
0.10337882 0.037919622 -0.035325244 0.04174839 0.055941626 0.16650046 0.015369834 -0.060358986
-0.04015256 0.03703829 0.14536084 0.05611911 -0.0021827773 -0.10183538 -0.092404194 -0.079924844
-0.10403646 -0.070085384 0.07351004 0.12741064 -0.0077689374 0.048898555 -0.0426623 0.020654498
0.14375408 0.12000397 0.09542742 -0.116059415 0.09159922 0.15616241 0.10026223 0.063422486
0.14000535 0.07484631 -0.007325037 -0.10026055 0.021551492 0.039581593 0.023246784 -0.08731189
0.020758238 0.059550136 -0.11281771 -0.041059423 0.12348912 0.0008506657 0.14486678 0.10297227
-0.06491642 0.05623783 0.03219178 0.1108841 0.15283594 -0.0611221 -0.11244321 0.07138347
-0.075577885 0.14511432 -0.010897847 0.0045348797 0.1376755 0.07017798 0.19627379 -0.07461791
0.07402673 0.08859519 -0.08381506 0.00073201035 0.15852281 0.106516585 -0.08861409 0.010126456
0.14003283 -0.018272983 0.019462101 -0.06669279 -0.055199474 -0.064955756 0.008199452 -0.04841109
00000000: 2d84 0abd 861e 8b3c 3f74 873b 1dbe 71bd
00000010: 514e b33d c975 5fbd 3887 2a3d 2ae4 493e
00000020: 2910 61bd e77e 19bd ffdd 7b3d f1e4 14bd
00000030: 44f3 c0bc ddcf d8bd 014c 8bbd 30c9 95bc
00000040: d4cf 62bc 65ac 833d 7081 b73d 4890 c63d
00000050: 431a 483e ef2d 08bd adfd aa3d c16a d1bd
00000060: d02d 743e 2e0d 9fbd 7bfb 243e db17 573d
00000070: c841 033d bbea 03bd 5b2b 413e f162 cb3c
00000080: 2476 16bc 7890 013e a830 c63c 3d79 2e3e
00000090: c72e e13d 56ce 9f3d 60a8 aabd 86ae 003d
000000a0: ca0d e5bb 4345 293d 9af4 303d 601d 3c3d
000000b0: 6710 bc3d 6968 8f3d f2f9 2d3d b351 d3bc
000000c0: 46b8 d33d 9b51 1b3d 34b1 10bd 5c00 2b3d
000000d0: 0c23 653d 197f 2a3e c2d1 7b3c fc3a 77bd
000000e0: 0377 24bd 76b5 173d 79d9 143e 27dd 653d
000000f0: ed0c 0fbb 118f d0bd 693e bdbd a3af a3bd
00000100: 1111 d5bd ed88 8fbd 6f8c 963d ef77 023e
00000110: 9292 febb da49 483d aabe 2ebd 9f33 a93c
00000120: 4534 133e a4c4 f53d 746f c33d 8fb0 edbd
00000130: 5f98 bb3d 0ae9 1f3e 4956 cd3d a6e3 813d
00000140: 905d 0f3e 0649 993d dd06 f0bb 6755 cdbd
00000150: c18c b03c 4f20 223d 0a70 be3c 94d0 b2bd
00000160: 2e0d aa3c d8ea 733d f90c e7bd ed2d 28bd
00000170: dde7 fc3d 35ff 5e3a f557 143e 20e3 d23d
00000180: e6f2 84bd a459 663d 87db 033d 3417 e33d
00000190: 0681 1c3e 2b5b 7abd a048 e6bd 7f31 923d
000001a0: 94c8 9abd d998 143e e28c 32bc 5499 943b
000001b0: cefa 0c3e 79b9 8f3d fffb 483e 46d1 98bd
000001c0: 549b 973d 6571 b53d 3ba7 abbd 62e4 3f3a
000001d0: ce53 223e 5e25 da3d 4e7b b5bd 6fe9 253c
000001e0: c464 0f3e 39b1 95bc fc6e 9f3c 3b96 88bd
000001f0: d818 62bd 8607 85bd ff56 063c b54a 46bd

actor_head.2.weight f4 [4, 128]
-0.03458485 -0.03465869 0.06819357 -0.07528268 -0.120653346 -0.03006884 -0.052963268 0.082721755
-0.013560996 -0.06861643 0.03164716 0.07185039 -0.043688953 -0.023071552 0.0024990512 -0.057815697
0.04935843 -0.036712177 0.10386303 0.047205914 0.066180676 -0.021820465 0.08554515 0.035523195
0.092967525 0.06981721 0.12098225 0.023039024 0.13991818 -0.026096113 0.10853285 -0.07104111
-0.010520247 0.07345077 0.037342843 0.03743917 0.11150046 0.06291728 0.0320312 -0.03795179
0.032429747 -0.062275324 -0.035812862 -0.026093053 -0.03894979 0.05421588 0.00045850853 -0.031288113
0.06166818 -0.06889136 0.014168072 0.09110182 -0.053867567 0.086238876 -0.003343052 -0.00886734
-0.04717455 -0.07129662 0.034564067 -0.14630887 0.04505155 -0.058685154 0.0014461271 0.027540628
0.036028966 0.059420552 0.07379156 0.038021237 -0.048462868 -0.005952699 -0.09374233 0.043204777
0.06045259 0.098288864 0.055796646 -0.020586584 0.060789514 0.088358305 0.093691975 0.08907068
0.09131169 0.028642463 -0.037666198 -0.0055795643 -0.04707352 0.055032443 0.035961688 -0.08883575
-0.04356209 -0.10472432 0.04537371 -0.07905359 -0.047873233 -0.009869278 -0.028819835 0.021212857
-0.057743017 0.0010719885 0.0022450183 0.024682485 0.06528431 -0.057726517 -0.06870379 -0.03494625
0.05891873 0.06290829 -0.058000617 0.017195098 0.13526659 0.016038252 0.060733095 0.030316398
0.030763047 0.049606305 -0.021917332 -0.08072519 0.07648973 0.0751886 -0.00029729397 0.082511686
0.040720098 -0.07275312 0.02827795 -0.08805403 -0.029399954 0.089201875 -0.039015617 0.0469024
0.086491115 -0.052155755 -0.059424948 -0.069693975 0.14010169 -0.041810222 -0.009267367 0.09015318
-0.021932105 -0.010717209 0.013089739 0.07459428 0.12668917 -0.06786728 -0.06722406 -0.016280288
-0.009328142 -0.0058954866 -0.03883777 0.046593215 0.029466422 0.027441569 0.10453059 -0.051540725
0.07455322 0.006530249 0.12011257 0.021725701 0.026272671 -0.0064661554 0.08515512 0.0587286
0.002100461 -0.09027335 0.046625484 0.04159307 0.058198795 0.05959253 0.03128219 0.028654205
-0.042942114 0.08745335 -0.024932696 0.08586787 0.013735616 0.054677643 -0.040852483 -0.055414956
0.0594285 0.0075289668 0.021733196 -0.05137978 -0.018682046 0.06917605 0.06511593 -0.016494919
0.061630968 -0.02800366 0.117267095 0.072573565 0.06064415 0.007396052 0.08471712 0.008934473
-0.012544018 -0.023186127 0.10524511 -0.009539763 0.037259623 -0.0006408106 -0.012473379 0.03244474
0.08679738 0.102976546 0.122123785 0.026153032 0.06350438 0.08761551 0.09622953 0.083528124
0.007241166 0.06959923 -0.042501703 0.05419159 -0.034477796 -0.05323311 0.10112482 0.03731593
0.0092894165 0.047313727 0.02973228 -0.0058710463 0.07847886 -0.009962932 0.10587827 0.016239256
-0.04810318 -0.04009169 0.030402848 0.051978357 0.06717598 -0.030646466 0.02649963 -0.030422201
-0.057424925 0.1245327 -0.06369997 0.031775806 -0.020016612 0.030798398 0.04395108 0.016649788
0.03521142 0.05165916 -0.07906967 -0.006608801 0.08160997 -0.04676988 0.05400564 -0.07274344
0.07047901 -0.039136387 0.016881391 -0.04309212 0.017057033 -0.025541171 -0.024708124 0.06381567
00000000: d8a8 0dbd 45f6 0dbd 12a9 8b3d ce2d 9abd
00000010: 1a19 f7bd ee52 f6bc 03f0 58bd 066a a93d
00000020: f12e 5ebc c586 8cbd 74a0 013d 4c26 933d
00000030: 30f3 32bd 8d00 bdbc 1fc7 233b 27d0 6cbd
00000040: 112c 4a3d 825f 16bd 24b6 d43d fd5a 413d
00000050: bc89 873d d5c0 b2bc 4c32 af3d c580 113d
00000060: c265 be3d 53fc 8e3d 8bc5 f73d 56bc bc3c
00000070: b646 0f3e 84c7 d5bc 7946 de3d 007e 91bd
00000080: 1d5d 2cbc 5b6d 963d cff4 183d d159 193d
00000090: 5a5a e43d c6da 803d 2633 033d 5673 1bbd
000000a0: 0ed5 043d 6914 7fbd 82b0 12bd 19c1 d5bc
000000b0: d189 1fbd 7811 5e3d f963 f039 f727 00bd
000000c0: c697 7c3d ea16 8dbd 3321 683c 9793 ba3d
000000d0: 3da4 5cbd 029e b03d 1b17 5bbb 5248 11bc
000000e0: 1a3a 41bd f603 92bd 0d93 0d3d fed1 15be
000000f0: f987 383d d85f 70bd f98b bd3a e29c e13c
00000100: 1c93 133d f762 733d 0820 973d 28bc 1b3d
00000110: 0081 46bd dc0e c3bb fbfb bfbd 7ef7 303d
00000120: 239d 773d ac4b c93d 068b 643d 32a5 a8bc
00000130: 6dfe 783d 33f5 b43d 94e1 bf3d b06a b63d
00000140: a001 bb3d 99a3 ea3c df47 1abd c7d4 b6bb
00000150: 2ad0 40bd b369 613d 904c 133d 85ef b5bd
00000160: 296e 32bd b479 d6bd c9d9 393d d9e6 a1bd
00000170: b916 44bd c1b2 21bc 9317 ecbc 96c6 ad3c
00000180: f183 6cbd f781 8c3a 2821 133b ec32 ca3c
00000190: c8b3 853d a472 6cbd 93b4 8cbd cd23 0fbd
000001a0: c454 713d 10d6 803d 0e92 6dbd bcdc 8c3c
000001b0: 5383 0a3e a762 833c 44c3 783d 185a f83c
000001c0: c902 fc3c fb2f 4b3d fa8b b3bc 4053 a5bd
000001d0: a6a6 9c3d 7bfc 993d 1fde 9bb9 e3fb a83d
000001e0: 1eca 263d 96ff 94bd 29a7 e73c ac55 b4bd
000001f0: 2cd8 f0bc 79af b63d d7ce 1fbd bb1c 403d
00000200: 4122 b13d 46a1 55bd 9367 73bd b7bb 8ebd
00000210: d176 0f3e 3241 2bbd 28d6 17bc 3ba2 b83d
00000220: f5aa b3bc 3c97 2fbc 5876 563c e3c4 983d
00000230: ceba 013e 00fe 8abd c5ac 89bd 3d5e 85bc
00000240: 10d5 18bc ed2e c1bb 5a14 1fbd 87d8 3e3d
00000250: 9163 f13c 24cd e03c 2214 d63d 5e1c 53bd
00000260: 5caf 983d b3fb d53b 94fd f53d 19fa b13c
00000270: c939 d73c 0be2 d3bb cf65 ae3d 678d 703d
00000280: e3a7 093b 3ce1 b8bd 5dfa 3e3d 7f5d 2a3d
00000290: dc61 6e3d 4c17 743d c121 003d 39bc ea3c
000002a0: 12e4 2fbd be1a b33d a73f ccbc 7edb af3d
000002b0: 590b 613c aaf5 5f3d ef54 27bd cbfa 62bd
000002c0: 4c6b 733d 8db5 f63b d109 b23c 9b73 52bd
000002d0: 170b 99bc 2cac 8d3d 805b 853d 5a20 87bc
000002e0: c170 7c3d ee67 e5bc bb29 f03d 73a1 943d
000002f0: 0066 783d 955a f23b 2b80 ad3d e561 123c
00000300: 6d85 4dbc d5f0 bdbc c08a d73d ab4c 1cbc
00000310: 8c9d 183d 12fc 27ba 255d 4cbc c7e4 043d
00000320: d3c2 b13d 5ee5 d23d 091c fa3d e23e d63c
00000330: 960e 823d c36f b33d fd13 c53d cb10 ab3d
00000340: 4e47 ed3b 0b8a 8e3d 4416 2ebd 00f8 5d3d
00000350: 9738 0dbd f60a 5abd 881a cf3d 97d8 183d
00000360: a332 183c 0acc 413d 1c91 f33c e861 c0bb
00000370: 86b9 a03d 913b 23bc b5d6 d83d 3008 853c
00000380: d707 45bd 2f37 24bd 650f f93c 42e7 543d
00000390: 8f93 893d 4c0e fbbc c115 d93c fb37 f9bc
000003a0: 6636 6bbd 000b ff3d 2175 82bd 5927 023d
000003b0: e1f9 a3bc ec4c fc3c 0c06 343d 2365 883c
000003c0: da39 103d 8e98 533d 47ef a1bd a48e d8bb
000003d0: 2123 a73d c691 3fbd 0535 5d3d 83fa 94bd
000003e0: 4d57 903d 7a4d 20bd d84a 8a3c 5d81 30bd
000003f0: 31bb 8b3c b83b d1bc b168 cabc cab1 823d

actor_head.2.bias f4 [4]
0.036361564 0.06441079 -0.18444513 -0.16745585
00000000: ddef 143d cee9 833d 2fdf 3cbe 8c79 2bbe
