training/models/ppo_weights_ep_3000.pth (torch, 285417 bytes, 13 tensors)

shared_layers.0.weight f4 [128, 24]
000000 d3 99 30 be bb 68 09 3c e9 da 2d 3d 38 10 53 be
       -0.1724618 0.008386786 0.042445097 -0.20611656
000010 f5 32 59 bd 7a c6 8f 3d df 2b fd bd cf 58 0a 3d
       -0.053027112 0.07020278 -0.12361883 0.0337761
000020 fe c2 a4 3c e4 b0 8c bd fd 1b 2f be 37 fd ad bc
       0.02011251 -0.06869677 -0.1710052 -0.021238906
000030 fa a2 1a be d6 f2 55 3c 1f 6f 0c 3e 8d a6 37 be
       -0.15101233 0.013058385 0.13714264 -0.17934628
000040 4c 51 4e bd 90 10 b6 bd 57 14 c0 bd 27 71 3e 3e
       -0.0503705 -0.08889878 -0.093788795 0.18597852
000050 c5 1b a3 bd 20 09 42 be 5d dc c7 bd 96 58 05 3e
       -0.07964281 -0.18948793 -0.09758828 0.13022074
000060 ca 77 93 be 2e fd 31 3e 88 68 ed bd 21 87 0e 3e
       -0.2880233 0.17381737 -0.115922034 0.13918735
000070 53 c6 62 3e 94 2b 98 bd aa b0 5a 3e 81 de c0 bd
       0.22145967 -0.07430187 0.21356454 -0.09417439
000080 ec 04 c0 3d c6 d5 1e bd 01 ce 22 bd 2c 38 3c 3e
       0.09375939 -0.03877809 -0.039747242 0.18380803
000090 b5 bb 29 3d 27 68 89 bb 8e 61 ce bd 47 59 9d 3d
       0.041438777 -0.004193324 -0.10077201 0.07683044
0000a0 7d 4b d3 bd bc b9 00 be b5 e1 93 3c 73 82 87 3d
       -0.103171326 -0.12570852 0.018051961 0.06616678
0000b0 03 f5 3e bd 00 02 12 3e 9d 9e 4e be a6 ee 46 be
       -0.04662038 0.14258575 -0.20177694 -0.19426975
0000c0 bf ae 9b be e3 3f 9a be 6f bd 9f 3d 0f be ca 3d
       -0.30406758 -0.30126867 0.077998035 0.09899532
0000d0 54 55 f8 bd 8f 11 49 3d a3 1c a2 bd be cc 18 be
       -0.1212565 0.04908901 -0.07915618 -0.14921853
0000e0 75 e2 42 3e b5 69 91 3d b3 1c d4 3d a5 b2 44 3e
       0.19031699 0.0710024 0.103570364 0.19208772
0000f0 09 bf e6 bd c6 12 d2 3d 28 08 2b 3e ab bd 9e bd
       -0.11266906 0.10257487 0.1670233 -0.0775102
000100 65 7f fb bd ee bc 31 bd dd 13 83 3d 3f e0 15 3e
       -0.12280158 -0.043393068 0.06400273 0.14636324
000110 96 2b 5b 3e 67 eb 15 3e 92 ac 2f 3e f0 e2 ec 3c
       0.21403345 0.1464058 0.17155674 0.028916806
000120 df 1b 56 be 21 32 ab be 8c e2 6a bd e5 cf 3a 3e
       -0.2090907 -0.33436683 -0.05734496 0.18243368
000130 00 d7 8b 3d 62 e8 83 3e 33 6c 33 be b7 11 10 bd
       0.06828117 0.25763232 -0.17521743 -0.035173144
000140 fc 9f 36 3e ee 08 1f 3e 5e 27 6a bd 4b f2 04 3e
       0.17834467 0.1553075 -0.05716645 0.12983052
000150 18 7c b9 3d 7b 9e 7e 3d 87 f1 f5 bd ab f2 30 3e
       0.09056872 0.062162858 -0.12008958 0.1728007
000160 0e e4 68 3e 84 1e 98 bd 90 e0 b2 bd db 8e 69 bc
       0.22743246 -0.074276954 -0.08734238 -0.014255251
000170 e1 2c e9 3d cf f7 bb bd f2 ea 47 3e ac bb 04 3e
       0.11385513 -0.09178125 0.19523218 0.12962216
000180 6a 51 95 be c4 6d fe 3d 81 1c 12 be 48 20 13 3e
       -0.29163677 0.1242328 -0.14268686 0.14367783
000190 83 4d 60 be e4 9c b0 3c e0 e7 b9 3d 31 c0 2e 3e
       -0.21904568 0.021559186 0.0907743 0.17065503
0001a0 6b d3 05 3e 8b df e8 bd db b0 c8 3d 23 89 8f bd
       0.13068931 -0.113707624 0.097993575 -0.07008579
0001b0 a1 39 7d 3c d3 0b eb bc e4 87 64 be 2c 76 f0 3d
       0.015455634 -0.028692162 -0.22317463 0.117412895
0001c0 92 74 dc bd d5 71 d7 3d c0 f8 35 bd 5f f8 16 bd
       -0.107644215 0.105197586 -0.04442668 -0.03685796
0001d0 27 df 82 3e 4f 3c 0c 3c d9 9f 8d 3d d2 a0 0d be
       0.25560877 0.008559301 0.06915254 -0.1383088
0001e0 6d 2d 19 bd b7 8a 83 be b0 9d d3 bd c1 4a 00 be
       -0.037396837 -0.2569177 -0.10332811 -0.12528516
0001f0 7f 0b 0b ba 32 bd cb bc 4b aa 4d be 85 f0 94 be
       -0.0005304142 -0.024870489 -0.20084493 -0.29089752
000200 b6 7d 2d 3e de 34 95 3d 95 57 55 3e 29 56 55 be
       0.16942486 0.07285474 0.20834191 -0.20833649
000210 08 2e 29 bd 09 f4 71 be c2 0b 6f 3e 09 8a 0e 3e
       -0.041303664 -0.23628248 0.23344329 0.13919844
000220 8b 8f 5e be 32 12 0d be ef a3 1b 3d bc fe 6f bd
       -0.21734445 -0.13776472 0.037998136 -0.058592543
000230 30 aa 98 bd bd 30 3b 3e eb 32 61 bc 93 af d6 bd
       -0.07454336 0.18280311 -0.01374505 -0.10482707
000240 63 ac 06 be 7b 3c c6 be 17 a3 51 be 48 b7 12 3e
       -0.13151698 -0.38718018 -0.2047237 0.14327729
000250 19 1e 37 be 2f a5 a0 bd 66 96 33 bc cd 75 85 3d
       -0.17882575 -0.07844006 -0.010961151 0.06516609
000260 72 58 8c be 3c 4e af 3d c5 77 f1 bd 0c 74 ae 3d
       -0.27411228 0.08559844 -0.11790422 0.08518228
000270 ca 59 45 3d ce ef 41 be 39 ba 09 3e e7 b1 b0 3d
       0.048181333 -0.18939134 0.13449945 0.08627682
000280 b8 45 83 bc bc 3a 12 3e ae 40 bd 3b ff 79 9b 3d
       -0.016024455 0.14280218 0.0057755327 0.07591628
000290 6f fd 11 3c 94 7a e9 bc 4a 49 80 3d da 90 ff bd
       0.008910521 -0.028500833 0.06263979 -0.124788
0002a0 93 45 fd bd 37 50 13 be 95 5e 0d be 70 21 cb 3d
       -0.12366786 -0.14386068 -0.13805611 0.09918487
0002b0 c1 5d 77 3e f5 14 0e bd 22 3c 86 3d b5 b6 bb 3d
       0.24156858 -0.034687955 0.06554438 0.09165708
0002c0 a3 c5 90 3d 8c b5 f3 bd ce ec 05 3e 36 ac a4 3d
       0.07068946 -0.11899862 0.13078615 0.08040659
0002d0 07 3f 4b bd 63 da 86 bd 09 24 f3 bd f6 92 08 be
       -0.049620654 -0.06584623 -0.118721075 -0.13337311
0002e0 83 d9 05 be 5b 13 86 be 14 f2 49 be 67 34 34 be
       -0.13071255 -0.26186642 -0.19721252 -0.17598115
0002f0 29 1b e6 bd 4c e4 01 3d da 3e 83 3c 12 52 ee bd
       -0.11235649 0.03171186 0.01602118 -0.116367474
000300 b9 94 eb 3b b8 f2 d4 3d 47 29 28 be ec d5 08 be
       0.00718936 0.103978574 -0.16421996 -0.13362855
000310 ad 78 2b 3e 48 88 23 3e 09 36 e6 bd ab d8 78 bc
       0.16745253 0.15969956 -0.11240775 -0.015188376
000320 23 61 c5 bd a6 87 0f be 79 48 2f be d7 77 44 bb
       -0.09637668 -0.1401659 -0.1711749 -0.0029978657
000330 0e b1 a3 3a 03 c7 01 3c 6c 51 9a bd 64 c8 a3 bd
       0.001248868 0.007920983 -0.07535061 -0.07997206
000340 1e 81 b6 bb 14 af 27 bd b1 ee a8 bc bf 8b fd 3d
       -0.005569591 -0.040938452 -0.02062163 0.1238017
000350 6e 9a aa 3d 35 36 85 bd dd 9c 3c be 25 45 40 be
       0.083302364 -0.0650448 -0.18419214 -0.18776377
000360 8a 2f a8 be f5 b7 8e bd ca 31 e8 bd ef 34 a4 3d
       -0.3284877 -0.06968681 -0.113376215 0.08017909
000370 10 52 76 be 71 7f 32 be 23 3e 20 bd cb 69 5f 3d
       -0.24054742 -0.17431428 -0.03912176 0.05454425
000380 43 4f 32 3e e7 39 2b be c3 82 34 3e 49 b5 80 be
       0.17413048 -0.16721307 0.17628007 -0.2513831
000390 f8 84 ac bd 55 ac fa 3d 82 83 f8 3d a4 36 34 3e
       -0.08423799 0.12239901 0.12134458 0.17598969
0003a0 f5 e7 c8 bd dc 24 01 be 53 01 e8 3d 82 1d 61 3c
       -0.09809867 -0.12611717 0.113283776 0.013739945
0003b0 02 f4 84 3c 58 94 af bd 52 9a 24 3e 2b 5a 0a 3e
       0.016229633 -0.08573216 0.16074494 0.13510959
0003c0 95 1d d0 3d c0 33 3b be aa bd 8f bb c9 a7 f0 bd
       0.10161892 -0.1828146 -0.0043866234 -0.117507525
0003d0 42 f4 21 3e fe 40 29 be e3 14 f6 bd 47 d4 15 be
       0.15815833 -0.16528699 -0.120157026 -0.14631759
0003e0 1a 6d 5b bd cf 44 41 be 2f 52 8f 3d 7e 87 21 3e
       -0.053570844 -0.18873905 0.06998097 0.15774342
0003f0 9b 73 06 3e 34 98 14 3e 49 50 11 3e c2 80 a8 bc
       0.13130037 0.14511186 0.14190783 -0.020569209

shared_layers.0.bias f4 [128]
000000 ab 63 9f 3d 24 95 85 3c 73 2c 0c 3c 52 56 0f be
       0.07782682 0.016306467 0.008555519 -0.13997772
000010 2d 03 1c 3e ce 4a df 3d 51 f4 72 bc 27 fb 1e 3e
       0.15235586 0.1090294 -0.014828757 0.15525495
000020 2b 4d 5f bc ea 38 90 3d 96 9e aa 3d cd 0a 5d be
       -0.013629238 0.070421055 0.08331029 -0.21586151
000030 bb f6 ba 3c 85 b2 35 be 58 03 7c 3e d2 86 12 be
       0.022822728 -0.17743881 0.2461065 -0.14309242
000040 cb 6d 47 bd 45 41 16 3d f4 18 a8 bd 5f 3d 10 bc
       -0.04868869 0.03668334 -0.082078844 -0.0088036945
000050 17 fe dc bd 62 a7 a3 bc 10 bf 0b bd 46 6b e6 bd
       -0.10790651 -0.019977275 -0.03411776 -0.112509295
000060 fb 5a 57 3e 49 df 5d 3e 9f 2f d3 3d 79 78 6e be
       0.210308 0.21667208 0.103118174 -0.23288144
000070 b7 7c d7 bc cb 02 00 3d 60 bc 9d 3d 73 45 3e 3e
       -0.026304586 0.031252664 0.07701945 0.1858118
000080 1b 8f 1e bd 6c 0d 0a 3e 0b 03 34 3e 2e 57 87 3d
       -0.038710695 0.13481683 0.17579286 0.06608425
000090 6c 86 86 be d0 01 4c 3d cc 7a 00 bd 04 39 17 be
       -0.2627443 0.049806416 -0.03136711 -0.14767843
0000a0 b8 91 a3 bd b4 e8 27 be 4b 95 36 3e ea b1 36 be
       -0.07986778 -0.16397363 0.17830388 -0.17841306
0000b0 47 71 46 be 9c 36 b0 bd 98 d8 fd bd bb 9b 98 3d
       -0.1937915 -0.08604166 -0.123948276 0.07451578
0000c0 4a 80 0d 3e 07 42 dd bd bd 15 bb bd 09 b0 e9 bd
       0.1381847 -0.10803609 -0.091350056 -0.11410529
0000d0 07 14 75 3d 5a 6e e3 3d f9 64 1b 3e 26 75 68 be
       0.059833553 0.11105032 0.15175237 -0.22700939
0000e0 18 ea 48 be 18 59 88 3d c8 68 d1 3d 1e 61 27 be
       -0.1962055 0.06657618 0.102250636 -0.16345641
0000f0 0c 93 05 3e 2c 85 39 bd 21 49 0a 3d d2 c1 24 3e
       0.13044375 -0.04529302 0.033761147 0.16089562
000100 a1 fe 04 be 31 d0 c5 3d 93 15 35 3d 82 ab a8 3c
       -0.12987758 0.0965885 0.044210028 0.020589594
000110 d2 40 b2 bd 91 26 8c 3d 33 ab e6 bd 58 09 96 3d
       -0.0870377 0.068432935 -0.112631224 0.07326001
000120 21 d7 57 3e 1d 03 33 3e ce 56 28 be da 3d 55 be
       0.21078159 0.17481656 -0.16439363 -0.20824376
000130 b2 8c 06 be f8 68 fe 3d c5 a4 d8 bc 19 9f 31 be
       -0.13139609 0.12422365 -0.026445756 -0.17345847
000140 7a 0f 8d bd 24 94 10 3e 48 48 2d be 27 f6 ed 3d
       -0.068877175 0.14119011 -0.16922104 0.116192155
000150 6c 24 d4 3d 3f d3 06 be 6f 16 eb 3d 18 ae ff bd
       0.103585094 -0.13166521 0.11478888 -0.124843776
000160 8a 1d bb 3d 49 76 25 be 97 47 f7 3d 36 bb 2b 3e
       0.091364935 -0.16158403 0.120742016 0.16770634
000170 6d f3 42 bd 80 89 43 3e 5e c2 e9 bd b3 a3 1c be
       -0.04759543 0.19095421 -0.11414026 -0.15296821
000180 5e be 0e be df b4 52 bc 08 c8 0b 3e ee fb 8b bc
       -0.13939807 -0.012860506 0.13650525 -0.017087903
000190 ac d1 45 be 53 be 25 3c 63 f1 fc bb be cc 67 be
       -0.19318265 0.010116178 -0.007719205 -0.22636697
0001a0 62 0f 65 bd 7f 59 e5 3c 11 f5 39 3d 83 9a 28 3e
       -0.055922873 0.027996777 0.04539973 0.16465192
0001b0 95 1e 33 be 5b 78 b0 3d 44 1e 96 bd 2b 3b de 3d
       -0.17492135 0.08616706 -0.073299915 0.10851129
0001c0 11 5c 99 3c ce b4 0f be 9b 88 db bd eb 09 49 be
       0.018720658 -0.14033815 -0.10719415 -0.1963269
0001d0 f6 3a 09 be 3c 33 66 be 20 5a a3 3d 01 0c 21 3e
       -0.13401398 -0.22480482 0.07976174 0.15727235
0001e0 f3 70 3e be 87 e9 2f bd 36 39 1d 3e 0e 25 c8 bd
       -0.18597774 -0.04294732 0.15353855 -0.097726926
0001f0 d7 18 22 be 5c 38 82 3c 53 8f 14 3e 05 c1 55 be
       -0.15829788 0.015896015 0.14507799 -0.20874412

shared_layers.2.weight f4 [128, 128]
000000 97 2a d6 3c 43 51 4c 3e 39 1a ec 3c 61 15 91 3c
       0.026143355 0.19952874 0.028821098 0.01771039
000010 48 c1 a5 3d c9 e7 24 3d 68 63 9a bb e2 e9 c4 3c
       0.08093506 0.04026011 -0.004711557 0.024037305
000020 b6 32 2b bd f1 4b 10 3e d4 60 0c bd 79 1e 09 bd
       -0.04179641 0.1409147 -0.03427203 -0.033476327
000030 3a 08 b7 bc 28 e2 2f 3d 49 39 7e 3d d4 ee ef 3c
       -0.02234279 0.04294029 0.06206635 0.029288687
000040 f8 e2 6e bd 69 07 14 3e 3b 94 e1 bd e0 57 17 3d
       -0.058321923 0.14455952 -0.11014601 0.03694904
000050 c0 d3 ad bc b9 c0 3c 3e 4e f2 de bc 25 72 9b 3c
       -0.021219134 0.18432893 -0.02721515 0.018975327
000060 b3 6d 08 be 36 35 ed bd 27 2d 20 3c a8 b5 c3 3d
       -0.13323097 -0.11582415 0.00977639 0.095561326
000070 0f ef 27 bb aa 19 02 3e 3e 13 96 bd 21 45 d7 3d
       -0.0025624668 0.12705103 -0.07327889 0.10511232
000080 33 c7 5a 3b c4 30 e3 3b a0 68 f5 3c 68 72 19 bc
       0.0033382892 0.0069333035 0.029957116 -0.0093656555
000090 95 aa c4 bc 77 4b 80 bd 3d ab 03 3d c0 f2 5b 3c
       -0.024007121 -0.06264394 0.032145727 0.013424575
0000a0 ed 11 c8 bd 9e de b8 3c 61 fe ae 3d d4 6b 9f 3d
       -0.09769044 0.02256709 0.08544613 0.077842385
0000b0 a7 d9 84 bd a0 a9 8c bd 91 68 ee 3c 71 30 dd 3c
       -0.064868264 -0.06868291 0.029102596 0.027000638
0000c0 0a 0a 60 3c eb 25 ee 3d 67 27 56 3c 0c 84 80 bc
       0.0136742685 0.11628326 0.013070918 -0.015687965
0000d0 fe c3 9a 3c 4c ea 01 be e1 ca d0 3b d5 83 a0 bd
       0.018892284 -0.12687033 0.0063718413 -0.07837645
0000e0 cc a2 8e 3c 7e 21 ae 3d ae 99 32 bc 46 f3 9a 3a
       0.017411612 0.08502482 -0.010900898 0.0011821769
0000f0 d2 31 09 3d bc 7d 39 3b 4a 3c bb bb c6 97 8c bc
       0.033494778 0.0028303703 -0.005713974 -0.017162215
000100 91 69 33 3d 3d b6 83 bc c9 a8 c6 3b 99 aa 80 3d
       0.043801848 -0.016078109 0.006062601 0.06282539
000110 8b 06 53 bd e0 d7 b2 bd 1b b9 42 3d 2a 76 13 3c
       -0.05151991 -0.08732581 0.04753981 0.0090003405
000120 46 c6 21 be e4 c3 8a be 5d 68 a4 bc 2e ec 17 bc
       -0.15798292 -0.27102578 -0.020069296 -0.009272618
000130 c9 b7 82 bd ec 37 a8 bd eb 61 2c 3e 93 c3 58 bd
       -0.063827105 -0.08213791 0.16834228 -0.05292089
000140 26 b5 18 3d 9b 6a c0 bd ea 88 70 bd 86 02 c7 3d
       0.03728213 -0.093953334 -0.05872432 0.09717278
000150 6f c8 d6 3d 32 e3 f4 bd d9 57 23 3d 53 6b b7 bd
       0.104874484 -0.119573966 0.0398787 -0.08956017
000160 58 ba 57 bc b6 68 07 3e 87 6b 83 3c 01 ce 5e 3d
       -0.013166986 0.13223538 0.016042484 0.05439568
000170 7c 7e bc bd ba c3 34 3d 57 a5 1d bd 9f 7f 44 3d
       -0.092038125 0.044131972 -0.03848776 0.04797327
000180 d3 9a 0a bd 72 15 9a bd 6a fa cd 3c 94 93 0b 3d
       -0.033839058 -0.075236216 0.02514382 0.03407629
000190 d1 0a 6f 3e 3e 57 e6 bd aa 6f dc bc 50 39 88 bc
       0.2334397 -0.11247109 -0.026908714 -0.016628891
0001a0 30 07 b3 3d 83 aa 02 3d d1 e5 6e bc 80 ef aa 3c
       0.08741605 0.031900894 -0.01458116 0.020866156
0001b0 ed 55 14 be 03 55 7b bd d8 81 16 3e 38 b8 4a 3d
       -0.14485903 -0.06136037 0.14697969 0.04949209
0001c0 3d 87 ef 3d 69 00 c2 3a 45 3e 70 bd ef 0b b0 bd
       0.116957165 0.0014801148 -0.058653135 -0.08596026
0001d0 e2 ca a0 bc 3c 34 71 3e 6c d2 0f be 92 01 02 be
       -0.019627992 0.23555082 -0.14045113 -0.12695912
0001e0 0b d4 61 3d e0 ca df 3b e9 94 3f bd be aa 88 3d
       0.05513386 0.0068296045 -0.04677287 0.066731915
0001f0 5c ce 4b bc df 02 8b bc 21 1d d7 bd f7 35 d3 bd
       -0.012439337 -0.016969142 -0.10503603 -0.10313027
000200 c9 af 8c bc d7 d8 8f 3c cc c0 b5 bd f3 8c 42 be
       -0.017173665 0.017559452 -0.08874664 -0.1899908
000210 7e ea f7 3c 04 0c d1 3d 6e dd 88 bd fd bc 03 3e
       0.030263182 0.1020737 -0.06682859 0.12865062
000220 f3 12 29 3d dc 83 3b 3d f3 99 91 bc 88 cf f1 3c
       0.041277837 0.045780048 -0.017773604 0.029517904
000230 f8 34 0a 3c 4e 94 75 3d c3 5d c3 bc 75 32 e6 3d
       0.00843548 0.059955887 -0.02384842 0.11240093
000240 4c 00 b9 bd 35 e9 d2 3d 0a 4f 0b 3d bb 7d 32 be
       -0.0903326 0.10298387 0.034010924 -0.17430775
000250 c8 e5 d8 3c 8d 24 3f bd 4d db 42 bd 97 b3 28 be
       0.026476756 -0.046665717 -0.047572423 -0.16474758
000260 88 37 fd 3d 8e 97 9d 3d 20 ee d0 bd 67 17 82 bd
       0.12364107 0.076949224 -0.10201669 -0.0635212
000270 57 92 09 be e6 9e 3b 3d 3d 71 e0 bd cc 90 1c 3e
       -0.1343473 0.045805834 -0.109590985 0.1528961
000280 0f f9 85 bd ea 77 e0 bd f4 e4 29 bd 2b aa 0b 3c
       -0.06541645 -0.10960372 -0.041478112 0.008524458
000290 b7 be 1f bc e2 c0 87 3d 26 f6 74 bd d2 c5 1b be
       -0.00975006 0.06628586 -0.059805058 -0.15212181
0002a0 6a 26 a2 3d d8 cc 14 3d 38 e6 65 bd e0 e7 f6 bc
       0.07917483 0.036328167 -0.056127757 -0.030139863
0002b0 97 a1 f5 37 2f db 82 bd 12 3e 84 3d ff 42 48 3d
       2.9281522e-05 -0.06389462 0.064571515 0.048892017
0002c0 21 6f df bc e2 07 c3 3d c1 ca 01 bd ce d5 0c 3e
       -0.02727467 0.09522988 -0.0316875 0.13753435
0002d0 17 6d 31 3c 35 c0 21 bd 85 b6 dd 3b a2 d6 d3 3d
       0.010829232 -0.039489944 0.006766143 0.10343672
0002e0 0b 77 3b bd 85 f8 03 3c 69 d1 f5 3d b1 99 4d 3e
       -0.045767825 0.008054857 0.120028324 0.2007816
0002f0 44 1c 0c 3d 52 2b 0a 3e 14 1f a2 bc 2a f2 1a bd
       0.034206644 0.13493088 -0.01979021 -0.037828602
000300 0a 32 e0 3b 09 9c e4 3c cd 1c 61 3d ee 37 bb 3a
       0.0068419026 0.027906435 0.054959107 0.0014283636
000310 07 8a 06 3e 2b 32 da bd fe 9e 8a bd a8 75 05 3d
       0.13138591 -0.106541 -0.067686066 0.03258291
000320 4a ef 5c bc 36 2a 10 bd 17 da 95 bd 5d 53 2d 3d
       -0.013484785 -0.035196505 -0.07316988 0.04231583
000330 f5 0c 7d 3d 96 5f b6 bd ec df 47 3d 3e 8a 52 bd
       0.061779935 -0.0890495 0.048797533 -0.05140137
000340 87 3e ac 3d ba f5 d9 bd 31 88 35 3d bd 15 2a bd
       0.08410364 -0.10642572 0.044319335 -0.041524637
000350 a1 dd 12 bd d1 6c 1e be c1 6b 26 3d 6a 1e 58 3d
       -0.035855893 -0.15471198 0.040630106 0.05276338
000360 e9 58 cd bb 49 91 60 be 69 39 68 3b fe a0 70 bd
       -0.0062667024 -0.21930422 0.003543461 -0.058747284
000370 c4 6c c1 bd 0e d7 2d 3d 86 1f be 3c 6f b9 d4 3c
       -0.094445735 0.04244142 0.02320839 0.025967328
000380 fa ad c5 3b bf 83 a3 bc 07 01 4a 3d 69 ee 82 3d
       0.0060327025 -0.019960282 0.049317386 0.063931294
000390 b9 e4 f9 3d 8b 0d bc 3d 78 bf 93 3c 09 c4 08 3d
       0.122018285 0.091822706 0.018035635 0.03339008
0003a0 d5 cb ab bc 01 13 c9 3d b8 fd bc bc b9 fe ea 3c
       -0.020971218 0.09818078 -0.023070201 0.028685914
0003b0 6d 43 52 bd 46 d6 95 bd 52 72 f3 3d 23 ee 45 3d
       -0.051333833 -0.0731626 0.11887039 0.048322808
0003c0 7f 63 08 3e 6b 76 8a 3c 4f 88 65 3d 73 21 92 bc
       0.13319205 0.01690217 0.056038197 -0.017838215
0003d0 08 6f 0f bd cf 03 fb bd d2 c0 c6 bd 58 f6 05 bd
       -0.035017997 -0.12256586 -0.09704746 -0.032705635
0003e0 83 98 0c 3c b4 b1 7b 3d 38 b3 6c 3c 69 05 d8 3d
       0.0085812835 0.061448768 0.014447026 0.10547907
0003f0 d6 8e 5a 3c cd 10 b0 3d bf 0f 90 bc dd 7a bb bc
       0.013339719 0.085969545 -0.017585633 -0.022885734

shared_layers.2.bias f4 [128]
000000 d5 09 a8 bd 3c f1 9a 3d 1f 85 08 3d f8 d9 a0 bd
       -0.08205 0.07565543 0.03333008 -0.07854074
000010 75 ee 88 bb 6e 17 a6 bd 1e 65 90 3c 9e 44 40 3c
       -0.004178817 -0.081099376 0.017626341 0.01173511
000020 08 ac 55 bd 7c fc be 3d 0f 5a 4a bd bb 8e 8e 3d
       -0.052166015 0.09325501 -0.049402293 0.069608174
000030 05 f3 b8 3d f3 5d f6 3c 8d 8d b7 3d e0 cc 8f bd
       0.09030727 0.030074095 0.089625455 -0.07021499
000040 3a 0d e8 bc b1 79 e5 3a c5 29 05 3d b7 f0 29 bd
       -0.02832662 0.001750758 0.032510538 -0.04148933
000050 3a db 97 3d 9e 63 03 bd ef 97 c1 bc 72 e2 9e bd
       0.07414861 -0.032077424 -0.023632018 -0.07758035
000060 cd 24 f7 3c 69 c2 0c bd 2f 0d 1d 3d f7 71 99 bd
       0.030168915 -0.03436509 0.03834265 -0.0749244
000070 f2 7e 82 bd cd 8a eb ba f5 0f 94 bd 99 28 1a 3d
       -0.06371869 -0.0017970443 -0.07229606 0.037636373
000080 86 70 a8 b9 64 35 2a 3d 4a de d4 bd e9 97 06 3d
       -0.00032127294 0.041554824 -0.10393961 0.032859717
000090 0c 64 a7 bd fe 1d 45 bd 9b 80 bf bc d1 47 52 bc
       -0.08173379 -0.048124306 -0.023376754 -0.012834505
0000a0 b5 2d ff bc 32 a2 10 bc 07 bd 3d ba ac 2d 66 3d
       -0.031149724 -0.008827733 -0.0007237945 0.0561959
0000b0 9b 1d b4 bc 7a c2 a4 bc 21 14 b6 3c 29 35 ce bd
       -0.021986773 -0.020112265 0.022226395 -0.10068733
0000c0 20 7c a6 bc d1 55 15 3c 37 3f c9 bd fe ea c8 3c
       -0.02032286 0.0091146985 -0.098265104 0.024526116
0000d0 36 46 71 bc 82 13 76 bd 47 8d d8 3d 21 39 4f 3c
       -0.014726212 -0.060077198 0.105738215 0.012647898
0000e0 65 bb 33 3d f0 0e 18 bd 6f b7 99 bd 9a 93 be bc
       0.043879885 -0.03712362 -0.0750569 -0.023263741
0000f0 e5 08 bf bc 77 f4 73 bd 9b b4 6f bc 03 2f 2e bd
       -0.02331967 -0.05955931 -0.014630462 -0.042525303
000100 04 20 db 3b a5 74 9a 3d ae 62 d4 3c ff f8 ea bc
       0.006687166 0.075417794 0.02592596 -0.028683184
000110 32 59 d7 3d 28 7a 01 bd a4 6e ec 3c e5 41 8b 3d
       0.105150595 -0.031610638 0.028861351 0.06799678
000120 a4 13 bc bc 70 b8 fe bb 39 21 88 bd 00 29 94 bd
       -0.022958584 -0.0077734515 -0.06646962 -0.07234383
000130 d5 7e 13 3d bb b1 f3 bc 8a dd b6 bd 42 b9 b4 bd
       0.03600963 -0.029747834 -0.08928974 -0.088243976
000140 95 22 43 bc 27 f9 f7 bd e6 36 6f bb 29 c7 65 bd
       -0.0119101005 -0.12108069 -0.0036501228 -0.056098137
000150 e8 66 fa bb ab 53 41 bd b3 8d 35 3d 99 0d 94 3d
       -0.007641662 -0.047198933 0.044324588 0.07229156
000160 e9 3b b2 bc 8b 01 6c bd fe a4 37 bd b0 77 91 bc
       -0.021757083 -0.05761866 -0.044835083 -0.017757267
000170 67 50 af bc 41 25 4b 3d 98 43 67 bc 54 10 4d bd
       -0.021400644 0.049596075 -0.014115237 -0.0500644
000180 0c 2d 9c bd d4 f3 65 3b e0 d8 a1 bc 23 d5 ac bd
       -0.076257795 0.003508796 -0.019756734 -0.0843909
000190 09 14 3b 3d 95 92 28 bc fb 39 60 3d ff 47 94 3b
       0.045673404 -0.010288854 0.054742794 0.004525184
0001a0 3d 21 b5 bd dd cc ba bd 49 6d d8 3c 41 20 ad bd
       -0.0884423 -0.09121106 0.026419299 -0.084534176
0001b0 a7 41 63 3c b3 04 e7 b9 4f cd 9d 3c 92 2c ba bd
       0.013870633 -0.00044063255 0.019262938 -0.09090532
0001c0 27 05 80 3c 51 75 ed bc 10 48 27 3c da 75 0b bd
       0.015627457 -0.028986605 0.010210052 -0.03404794
0001d0 cd 6e 64 3d 46 81 28 3d 6f d7 03 bc 95 24 21 3c
       0.05576973 0.04113891 -0.008046969 0.009835382
0001e0 6e 1b 4d bd 9a 60 93 bd d1 cc 6d 3c 9a 19 9f 3d
       -0.050074987 -0.0719616 0.014514164 0.07768555
0001f0 40 47 b8 3d 75 fa 04 3d 1d c0 71 bc d5 dd 98 bd
       0.08997965 0.032465417 -0.014755276 -0.07464186

shared_layers.5.weight f4 [128, 128]
000000 54 63 9d bc 13 41 0a be a4 3e 8b 3d 12 ab a8 3c
       -0.019212402 -0.13501386 0.06799057 0.020589385
000010 84 65 3c bd bd 86 01 3c 48 9d 3e 3c 34 9c 57 bd
       -0.04599525 0.007905659 0.011634178 -0.0526392
000020 c1 ee a5 bc 96 f4 37 bc 0e b2 18 be 33 df 6d be
       -0.020255448 -0.011227747 -0.14911672 -0.23229675
000030 dd 02 67 bb b6 a0 f5 bd 4f 02 c1 3d f5 b6 0c 3e
       -0.003524951 -0.11993544 0.094242685 0.13741668
000040 00 80 14 bd 98 7e b9 bd 32 b2 f1 3c 8a c9 12 be
       -0.036254883 -0.09057349 0.029503915 -0.14334694
000050 a4 21 21 3d 4b 78 e2 bd 21 d5 02 be 6d 70 b6 bc
       0.039338723 -0.110581 -0.12776615 -0.022270406
000060 80 f0 e3 3d c8 59 3e 3c ab e9 37 3d 37 22 ac 3d
       0.11129856 0.011618085 0.044900578 0.084049635
000070 9e 66 ac 3d 50 3b 8d bd 7b 40 01 3e fa fa e5 3d
       0.0841801 -0.068960786 0.12622254 0.112295106
000080 0e f4 9b 3d 0b 94 6e 3d 0b 7e 95 3d 47 3c 0b bd
       0.07614909 0.058246654 0.072994314 -0.03399303
000090 ab 01 c8 3c ab b5 92 3d 22 9d 0c bd f9 c3 10 3d
       0.024414858 0.07163557 -0.03432954 0.035343144
0000a0 8b 66 59 3b 88 be 95 3c a6 27 d4 bd a4 0b d3 bd
       0.0033172693 0.018279329 -0.10359125 -0.10304955
0000b0 df 98 86 bd 54 14 39 bd 2e 39 09 be 54 29 9b bd
       -0.065721266 -0.045185402 -0.13400719 -0.07576242
0000c0 68 7f 61 bd e3 dd 91 bc fc 9a 83 3d a9 10 ac bd
       -0.055053145 -0.017806 0.06426045 -0.08401615
0000d0 62 cf 92 3d 2f b9 68 bc 93 7a da bd c2 a8 05 be
       0.071684614 -0.014204307 -0.106679104 -0.13052657
0000e0 9b 16 eb bd 16 20 ce 3c 9a b8 a0 bd c9 a0 5d bd
       -0.11478921 0.025161784 -0.0784771 -0.054108415
0000f0 8e 4e 5a bd cb 51 f6 bd 4f 42 1c bd df 80 44 bc
       -0.05329757 -0.120273195 -0.038149174 -0.011993616
000100 74 c4 97 3d fb a0 11 be a8 4f 79 bd f6 af 94 bd
       0.07410517 -0.14221565 -0.06086698 -0.072601244
000110 07 45 6e be fd 50 bd 3d 26 9b cf 3d a9 b3 ad 3c
       -0.2326852 0.09243963 0.10137014 0.021203833
000120 eb 6b b0 bc 67 f7 a6 bc 99 0a 42 3d cc e1 05 3d
       -0.021535834 -0.020381643 0.047373388 0.03268604
000130 79 0f 73 3d 6a dd b6 bd 6e d0 91 3d 58 a7 84 3d
       0.059340928 -0.0892895 0.07119833 0.06477231
000140 bc 8e 8a bd c8 35 8f 3c 55 9c 51 3d 06 af c0 bc
       -0.06765506 0.0174817 0.05117448 -0.023520958
000150 82 69 96 bd a6 53 46 3d 19 de c1 bd 77 0e 76 bd
       -0.07344343 0.048419617 -0.0946619 -0.06007239
000160 40 7c de bd 7d 24 16 3d c3 a8 8e bd 44 34 b0 bd
       -0.108635426 0.03665589 -0.069657825 -0.08603719
000170 9a 08 1f 3d c7 25 13 bd f0 b3 80 3d f0 67 24 bc
       0.038826562 -0.0359247 0.0628432 -0.010034546
000180 97 b3 12 bd 90 f9 da 3d 01 25 36 3d 0a d5 50 3d
       -0.0358158 0.106921315 0.044468883 0.05098442
000190 1d e0 fa 3c 9c a6 0b 3d 64 0e 98 bd 2c ea 9a bd
       0.030624444 0.034094438 -0.0742462 -0.07564196
0001a0 ac 8d 7c 3d 0a 65 a8 bd 3d ec f2 3c 6b b0 cd 3d
       0.061658546 -0.08222397 0.029653663 0.10043415
0001b0 57 d7 d5 3c 48 f1 62 bd 9b 32 9e 3c 48 c3 a5 3d
       0.026103659 -0.055405885 0.01931124 0.080938876
0001c0 dc 40 ad 3d fa 61 e5 bc bd 41 b8 bd 20 df a3 3d
       0.084596366 -0.02800082 -0.089969136 0.08001542
0001d0 e3 7f 0d be 68 43 21 be d3 60 dd bd bf f2 64 be
       -0.13818316 -0.1574837 -0.108094834 -0.22358225
0001e0 f4 85 3d bd 0e 91 61 3d 5d fd 8d 3c 42 75 e2 bd
       -0.046270326 0.055069976 0.017332727 -0.110575214
0001f0 41 b6 34 bd 8b 20 d1 bd 84 6c 23 3c 3b 14 44 3d
       -0.044119123 -0.10211285 0.009974603 0.047870856
000200 44 52 59 3d 2f 79 20 bd d2 9a a4 3d e1 00 e4 3d
       0.05305697 -0.03917807 0.08037342 0.1113298
000210 ca c9 5f 3d 68 a6 3c bd f9 c3 91 3d 8c d5 3c bd
       0.0546358 -0.046057135 0.07117457 -0.04610209
000220 7d ed 22 bd 75 c2 05 bd 0f 91 c3 3d 7b 98 a0 bd
       -0.039777268 -0.03265615 0.09549152 -0.07841583
000230 f4 62 a4 bd b0 f5 2f 3d 1d 24 eb 3c f5 b2 6d ba
       -0.08026686 0.042958915 0.028703744 -0.0009067499
000240 82 0c 8d bb 3c 81 25 be 62 00 b7 3d 87 ce 45 bd
       -0.0043044696 -0.1616258 0.0893562 -0.048292663
000250 d9 2c 94 3d 5e a3 92 bd 06 ea 3f bd e3 50 06 bd
       0.072351165 -0.07160066 -0.04685404 -0.032791983
000260 8a 13 33 bd 11 32 6a bd 6a 3b 52 be a5 67 b3 3c
       -0.043719806 -0.057176653 -0.20530477 0.021900008
000270 2f 5f a5 3d da 49 db 3c 85 93 a0 3c a0 b0 02 3d
       0.080747955 0.026768614 0.019601593 0.031906724
000280 94 b0 81 3d 2c 35 cf 3d eb 3f 06 3c 71 34 10 bd
       0.06332508 0.101175636 0.00819395 -0.035206262
000290 9e 48 e6 3c ee 8d 8a 3d 4d 46 be bd c9 ac 3c 3c
       0.028110798 0.06765352 -0.092907526 0.011515805
0002a0 10 e7 91 3d fe 74 ba 3d 3b 7d 97 3c 74 bd 21 3d
       0.0712415 0.09104346 0.018492332 0.039487317
0002b0 38 38 00 be 86 35 2a 3c 26 8a 9f 3d 90 5f 69 bd
       -0.12521446 0.010388738 0.077900216 -0.0569759
0002c0 45 ae 08 3d 47 d7 c4 bc 75 2b 2d 3d f5 88 23 bc
       0.03336932 -0.024028433 0.042277772 -0.009981384
0002d0 45 ef bd 3d ca dc 23 3d f9 a2 8f bd ec e3 80 3d
       0.09274153 0.040005483 -0.070135064 0.06293473
0002e0 b2 55 ff bc c2 e9 6b 3d 1b b8 ab 3d 08 15 c9 bd
       -0.031168792 0.057595976 0.08384725 -0.098184645
0002f0 c3 55 ee 3d f0 a3 67 bc 29 5c c6 bd 40 76 97 3c
       0.116374515 -0.014138207 -0.09685547 0.018489003
000300 a5 91 3c 3b 2f 0b 00 bd 2b 9e 62 bd aa da 9f 3d
       0.0028773334 -0.031260666 -0.055326622 0.07805379
000310 7a 22 22 3d 8a 81 63 bc bd 6c ee bb 29 e2 9d 3d
       0.03958366 -0.013885865 -0.007276146 0.07709152
000320 44 ec b2 3b 20 4e 1f 3d 53 52 1c 3d 05 6e 55 3d
       0.005460294 0.038892865 0.038164448 0.052106876
000330 16 b1 72 3c 4f b3 3a bd 4b 92 6a bc 66 b7 5f be
       0.014812728 -0.04558116 -0.0143171055 -0.21847305
000340 21 4b 4b bc dd 8e 80 bc e1 6b a2 3b da 98 2c bd
       -0.012408049 -0.015693123 0.004956708 -0.042137958
000350 a5 2e 55 bd c6 c9 41 bb e8 5f 67 bd 46 44 4b 3d
       -0.052046437 -0.002956973 -0.056487948 0.049625657
000360 32 5e ae 3d 64 46 3e bc 3e 46 c2 bd 63 3d 6a bd
       0.0851406 -0.011613462 -0.09486054 -0.05718745
000370 a2 24 83 3d 5c ed ee 3d db 66 96 3a 1c fb 86 3d
       0.064034715 0.116663665 0.0011474745 0.06590864
000380 bf 93 5a bc bf 87 7c bd ed ba fe 3d c4 1d 1d 3c
       -0.0133408895 -0.061652895 0.12437997 0.009589616
000390 20 78 95 bd 2b 5d c1 bc f3 57 d7 bc b4 f9 92 3d
       -0.07298303 -0.023603996 -0.026287055 0.07176533
0003a0 09 2d f0 3c a3 a1 88 bd ec b4 28 3d 9e 95 ba 3c
       0.02931835 -0.06671455 0.041188166 0.022776421
0003b0 57 1e 5c bd e4 7d 9c bc 2b 41 4c ba ec a0 48 be
       -0.05373987 -0.019102998 -0.0007791693 -0.19592637
0003c0 d0 00 34 3d 49 25 d3 bd a7 bd 3c bd ec c8 ae 3d
       0.043946087 -0.10309846 -0.046079304 0.085344166
0003d0 8f 01 24 3a 7d c8 d0 bd 52 ca a1 bd de f6 86 bc
       0.0006256336 -0.1019449 -0.07899918 -0.016475137
0003e0 18 d2 e3 bd cc 45 d6 3b fa 6c 87 3d 46 a6 e4 bb
       -0.111240566 0.006539082 0.066125825 -0.006977829
0003f0 c9 27 82 bd 3c 41 2c bd 04 a2 0a 3d 0a 61 3c bd
       -0.06355245 -0.0420544 0.033845916 -0.04599098

shared_layers.5.bias f4 [128]
000000 b6 c8 01 3e 38 90 fc 3d da 18 93 3d 57 e6 0c 3e
       0.12674221 0.12332195 0.071824744 0.13759743
000010 00 bb a9 3d 05 81 81 3d b8 04 a7 3d cf 4e 40 3d
       0.082876205 0.06323437 0.08155197 0.046950158
000020 37 26 69 3e 41 74 f1 3d 08 2a e1 3d 59 4b c9 3d
       0.22768484 0.11789752 0.10994345 0.098288245
000030 82 c7 57 bd e0 40 6d 3e 8f 26 0d 3e 5b 1b 71 3d
       -0.0526805 0.23169279 0.1378424 0.05886398
000040 e3 c4 05 3e a7 ce 31 bc b8 44 4f 3e 9b 16 66 3e
       0.13063388 -0.010852492 0.20241058 0.22469561
000050 e4 f4 b8 3d 82 66 f2 3c d7 dd fe 3d 37 d5 c6 3d
       0.09031084 0.029589895 0.12444656 0.09708636
000060 2c c7 ff 3d 8d 84 a1 3d 96 fd 1d 3d 8d 4c a2 3d
       0.12489161 0.0788661 0.038571917 0.07924757
000070 d0 b5 39 3e c6 39 6c bd 69 77 a2 3d 54 00 5e 3e
       0.18135762 -0.057672285 0.07932932 0.21679813
000080 d8 e6 bd bd 99 5c 97 3d da 67 8e 3e 18 a4 c1 bd
       -0.092725456 0.073907085 0.27813607 -0.094551265
000090 94 d5 83 3d 7d f9 1f 3e cf f5 e1 bc 20 d8 b7 3c
       0.06437221 0.15622516 -0.027583031 0.022441924
0000a0 5c 61 8a 3d 92 25 97 3d 1c d3 22 3e 83 00 8a bd
       0.06756851 0.07380213 0.15900844 -0.06738379
0000b0 91 13 04 3d 12 79 95 3d 06 7a 0c 3e da 97 ad 3d
       0.032245222 0.07298483 0.13718423 0.08476229
0000c0 69 68 81 3e 35 96 89 3d 51 9b 12 bd 53 f5 02 3e
       0.2527497 0.06718103 -0.035792653 0.12788896
0000d0 c6 38 c9 3d 41 38 83 3d 1b b4 5b 3d c8 85 09 3e
       0.09825282 0.06407214 0.05363856 0.1342994
0000e0 c7 17 9d 3d cf 7d e1 3d 6d bc 38 3d dc a5 17 3e
       0.07670551 0.11010324 0.04510157 0.14809364
0000f0 e6 0d 46 bd af 0d d8 3c ce 89 c2 bd 91 ff 58 3e
       -0.0483531 0.026373712 -0.094989404 0.21191241
000100 61 53 87 3d 04 f8 4c 3d d5 10 4f bd 3f 5c d7 bd
       0.066077 0.050041214 -0.05055316 -0.105156414
000110 a9 e9 85 3e 86 46 a3 3d 50 86 51 3e ad 18 01 3e
       0.2615483 0.07972436 0.20461392 0.1260707
000120 c9 93 33 3d f3 e1 05 3e c8 71 3b bd 15 3a 08 3e
       0.04384211 0.13074474 -0.045762807 0.13303407
000130 1f c5 fe 3d f3 57 75 bd ca 0e 91 3d b4 a7 e7 3d
       0.124399416 -0.059898328 0.07082899 0.11311284
000140 d5 62 5d 3c 3c 40 cc bd ea 42 18 3d 2a 14 b4 3c
       0.013512333 -0.09973189 0.03717319 0.021982271
000150 52 36 f4 3d 4f c6 90 3d ea ff 31 3d 7c a4 42 bd
       0.11924423 0.07069074 0.04345695 -0.047520146
000160 23 94 0f 3e 0f 71 11 3e 87 55 31 3e ea 7e 7b bd
       0.14021353 0.14203285 0.17317782 -0.06140033
000170 fd 1a c1 3d ff 78 14 3e 53 a3 f6 3d c8 ba b5 3d
       0.09428976 0.14499281 0.120428704 0.08873516
000180 28 e2 e5 3b 9b b3 48 3e 0f ad 1a 3e bb 49 80 3d
       0.0070154853 0.19599764 0.15105079 0.06264063
000190 47 5c 49 3e d6 27 d5 3d 65 e8 43 3e ae a2 7c 3d
       0.19664107 0.10407989 0.1913162 0.06167858
0001a0 bd d0 e5 3d 31 d3 90 3e 26 a2 9a 3c c3 be 97 3d
       0.11221454 0.28286126 0.018876147 0.07409432
0001b0 91 06 1d 3e da e7 c7 3d 85 25 c5 3d cf 0a 70 3d
       0.15334536 0.09761019 0.09626297 0.058604058
0001c0 64 49 10 3e ef b4 cd 3d c8 4e 2b 3e d1 6e 07 3e
       0.14090496 0.10044276 0.16729271 0.13225867
0001d0 40 ff 29 3d 94 23 ef 3d 16 1f 04 3e c1 8e 0f 3d
       0.04150319 0.11676708 0.12902483 0.03504825
0001e0 22 ba 85 3d 4d 76 e2 3d 4c 2f 94 3d 42 cc 1e 3e
       0.06529643 0.1105772 0.07235584 0.15507606
0001f0 cf 85 f6 bc 83 b6 c8 bd 6b eb 1b 3e 2d da dc 3d
       -0.030093102 -0.09800436 0.15226524 0.10783801

actor_head.0.weight f4 [128, 128]
000000 69 33 66 bd 97 51 ee bd 02 f0 94 bd 98 cf 6e bd
       -0.056201372 -0.11636656 -0.0727234 -0.058303446
000010 97 ff f9 bd 3e 52 04 bc b8 6f cf 3d 18 95 b7 bd
       -0.12206953 -0.008076249 0.101287305 -0.08963984
000020 b3 6c 35 3d 1e b9 c9 bd c1 db a4 bd ad e9 77 bd
       0.044293117 -0.098497614 -0.08049727 -0.060525585
000030 3b 11 81 bd f1 6f 9b bd b8 40 fa bc e7 bc 60 bd
       -0.063021146 -0.075897105 -0.030548438 -0.05486765
000040 ce b5 de 3c c8 df 87 bc 9e 40 dc 3c 9e a4 04 be
       0.0271863 -0.0165862 0.02688628 -0.12953421
000050 b6 ae 26 bc 81 03 e0 bd a3 ee ec 3d c2 0f 1c bd
       -0.01017349 -0.10938168 0.11568954 -0.038100965
000060 cc c6 27 3d 9e 86 dc 3b 1c b7 4e bd 48 4e 20 3c
       0.04096107 0.006729915 -0.050467595 0.009784289
000070 28 48 80 bd 8a 5a 9e bd 6c 12 f2 bd a8 85 97 3d
       -0.06263763 -0.07732113 -0.1181992 0.0739854
000080 b0 41 23 ba 53 b6 30 3c 2f 5a 48 3b d0 58 ae bd
       -0.0006227745 0.010785657 0.0030571332 -0.085130334
000090 47 c3 92 3b 37 fb 99 bd 5d 5c 42 bd 42 50 82 bc
       0.0044788453 -0.075186186 -0.047451366 -0.01590741
0000a0 51 42 3f 3e ad 11 a1 3d 51 d0 4c bd e0 9e 95 3d
       0.18677641 0.078646995 -0.050003354 0.073056936
0000b0 ad ec 8d bc d8 04 cb 3d 3d 76 be bc 08 84 40 bd
       -0.01732477 0.09913033 -0.02324974 -0.047000915
0000c0 59 f1 a0 bd ca dd 98 3c 10 e7 83 3d e6 30 3f 3d
       -0.078585334 0.018660445 0.06440556 0.046677493
0000d0 9b 39 b1 3d ab 28 df 3d ce e0 7a 3d 71 c5 00 bb
       0.086535655 0.10896429 0.061249547 -0.0019648934
0000e0 24 e8 02 bd 86 2f e8 bb d8 03 ef bc 38 33 0c 3c
       -0.031959668 -0.0070857434 -0.029176638 0.008557133
0000f0 bf 17 87 bd 17 8b 74 3d 66 1e 3b bd b3 63 8e bd
       -0.06596326 0.05970296 -0.045683287 -0.0695261
000100 e4 65 94 3d 35 c9 b4 3b ae 18 f1 bc 5f 86 04 bd
       0.072459966 0.00551715 -0.029430714 -0.03235471
000110 fd 02 e1 3c e1 30 84 bd 1f be a4 bd 1d 4a 88 bd
       0.027467245 -0.064546354 -0.08044075 -0.06654761
000120 4f 37 c5 bd 2f f3 3e bd fa ad 3a bd ce 3c e1 bd
       -0.0962969 -0.046618637 -0.045576073 -0.10997926
000130 82 56 56 bd 0c ff 6f 3d 52 0d 86 3b 24 66 3c 3d
       -0.052328594 0.05859284 0.0040909434 0.045995846
000140 d9 b0 71 ba 4f a9 87 bd 5e 77 7f bc 7d a5 31 bd
       -0.0009219773 -0.0662409 -0.015592424 -0.043370713
000150 99 c7 44 3c 52 d1 47 bd 2b 1b 33 bd 95 94 e2 bb
       0.012010478 -0.048783608 -0.04372708 -0.006914685
000160 d5 54 23 bc e5 3a 92 bc e7 bf 16 be 9d 7b 54 bd
       -0.009968956 -0.017850349 -0.14721642 -0.0518757
000170 e1 5d 9a 3c 96 71 07 3b fc fc 96 bc e9 b2 8f 3d
       0.018843593 0.0020667068 -0.01843118 0.07016546
000180 20 97 68 bd 0e 03 22 3d c8 0e 26 bd 18 13 11 3d
       -0.05678475 0.039553694 -0.04054144 0.0354186
000190 e5 65 d6 bd 75 43 8a bd 2f f2 f4 bc 2d 88 e1 bc
       -0.104686536 -0.06751148 -0.029900638 -0.027530754
0001a0 e7 6b 05 bc 5b db db 3c 86 1f e7 bc 20 66 2b 3c
       -0.008143402 0.026837995 -0.028213274 0.01046136
0001b0 2c 81 dc bc 80 db 4b bc d6 9a bd bd e2 92 d2 3d
       -0.026917063 -0.01244247 -0.09258048 0.10281922
0001c0 b6 dd 34 bd ef 38 53 3d 8e 71 f1 bc f0 34 f2 bd
       -0.044156753 0.051567968 -0.029473092 -0.11826503
0001d0 5b f4 fa bd de 74 83 bc 4b e5 f1 3c af 93 28 3d
       -0.12253638 -0.016046938 0.02952828 0.041156467
0001e0 b8 19 b2 3d 25 3a a5 bd 00 79 a8 3d f7 d0 c5 39
       0.08696312 -0.08067731 0.08226204 0.0003773046
0001f0 11 1c 4e 3c 21 ba ba 3d c0 ee ed bd 99 e9 84 3d
       0.012579934 0.091175325 -0.116178036 0.06489868
000200 9f 20 9a 3c 2d cd f7 bb da 75 95 bd d8 ea 4e bd
       0.018814383 -0.0075623007 -0.07297869 -0.050516933
000210 40 c2 b7 bc 9d 84 38 bd 40 d2 3f bc 4a 35 6b 3d
       -0.022431493 -0.045048345 -0.011707842 0.057423867
000220 a8 75 81 3d 01 f9 88 bd 38 99 d4 3c 90 77 91 3c
       0.06321269 -0.06688119 0.025951967 0.017757207
000230 9a a5 69 bb 6e 68 e0 bd 9f 8a 63 3d 20 df be bd
       -0.0035651685 -0.109574184 0.05555212 -0.093199015
000240 1f d7 89 bd 70 cb ce bb 62 ea 46 3b 4d 00 38 3b
       -0.06730484 -0.0063108727 0.0030352105 0.002807635
000250 ee 5b a5 bc 19 11 a3 bd eb 44 83 bd 36 a2 04 be
       -0.020185437 -0.079622455 -0.064096294 -0.12952504
000260 1e c2 81 3c ea f2 c5 bc e6 08 8f bd 86 7e bd bd
       0.015839633 -0.024163682 -0.06984119 -0.09252648
000270 fa 1c 98 bd d7 62 33 bd ce 9b 82 3c 38 d9 22 3d
       -0.07427402 -0.043795433 0.015943434 0.039757937
000280 86 8e a8 3d 4e 04 ec bd f1 5e b3 3c 56 6d a3 bb
       0.08230309 -0.115242586 0.021895858 -0.004987399
000290 54 84 4d bd 7d f4 5a bd 5b 51 53 bd f8 aa 94 3d
       -0.050175026 -0.05345582 -0.05159126 0.07259172
0002a0 ff d4 11 bd 42 1b 62 3d 4d 40 91 3c 3f 3a ec 3c
       -0.03560352 0.055201776 0.017730856 0.028836368
0002b0 35 d2 c3 bc 7a 4e f1 3c 5b 5f 84 3d 4c d4 bd bd
       -0.023903945 0.029456366 0.064635 -0.09269008
0002c0 97 74 19 bd 6b 09 35 bc d0 73 c7 bd 34 6a 6f bd
       -0.037464704 -0.011049609 -0.09738886 -0.058450893
0002d0 87 03 b8 bd 96 14 bb bd e8 0b 6c bd b5 95 2e bd
       -0.08985048 -0.09134786 -0.057628542 -0.04262324
0002e0 36 01 84 bd d2 16 f0 bc be c1 e5 bc e9 ec 83 bd
       -0.064455435 -0.029307757 -0.028046485 -0.064416714
0002f0 6d bb 07 3d 73 b6 9d 3d 5a 4e 6a bd 56 c2 8a bd
       0.033137728 0.07700815 -0.057203628 -0.06775348
000300 40 18 6a bd 92 34 7d 3d 3f 27 42 bd 8c ba 8f bd
       -0.057152033 0.061817713 -0.04740071 -0.07018003
000310 82 14 26 bd b8 9c 45 3d 0f e9 63 3b 26 cb e3 bc
       -0.0405469 0.04824516 0.0034776365 -0.02780683
000320 56 aa 8e 3c c9 85 a5 bb 48 1e 77 3d bd c6 02 bc
       0.017415207 -0.005051349 0.060331613 -0.007981953
000330 2c f0 04 3b 99 d6 41 bc 08 73 6b bd 20 17 80 3d
       0.0020284755 -0.011830949 -0.05748275 0.06254411
000340 2d 11 21 bd 13 83 ba bd 86 ad bc bd 3a 5a 93 bd
       -0.03932302 -0.09107032 -0.092127845 -0.07194944
000350 ec 7e 89 3d 93 1c ff bc 2b ec 98 bd 7c 81 70 bd
       0.067136616 -0.031141555 -0.074669205 -0.058717236
000360 ce fe e4 3c 94 a6 4d 3d 79 d7 93 bc ff 74 82 3d
       0.027953532 0.05020769 -0.018047081 0.063699715
000370 06 74 9a 3b b5 b9 2b bd e7 46 c3 bc 4a 79 48 bd
       0.004713538 -0.04192515 -0.02383752 -0.048943795
000380 72 0e 81 bc 61 c9 05 3c ce 30 86 3d d6 07 8b 3d
       -0.015753958 0.008165688 0.065522775 0.06788604
000390 d8 0e 03 3d 4b 76 ba 3c f3 ab 46 3d 28 a9 61 bd
       0.031996578 0.022761485 0.048503827 -0.05509296
0003a0 51 5b 39 3d 05 66 40 bd a4 1e 85 bd cb 5c 03 bc
       0.0452531 -0.046972293 -0.06499985 -0.008017729
0003b0 ef cd 56 3d 78 f2 1a 3d 8e 8d 53 bd fd 3b 8f 3d
       0.052442487 0.037828892 -0.05164867 0.06993864
0003c0 58 b4 d4 bc db 55 05 bd 83 ad 9c bd c2 4c 55 3d
       -0.0259649 -0.03255258 -0.07650282 0.052075155
0003d0 48 89 1a bb 8a 8e 9d bd 7d e6 84 3d a0 f6 9a 3d
       -0.002358036 -0.07693203 0.06489275 0.07566571
0003e0 38 0e 58 3d 2d 22 53 bd 53 7d 02 3d 34 ac f1 bc
       0.052747935 -0.051546264 0.0318578 -0.029501058
0003f0 7d 5b 96 bc 1c 22 2e 3d c8 82 53 3c 05 71 4e 3d
       -0.018354172 0.042512998 0.012909599 0.050400753

actor_head.0.bias f4 [128]
000000 ae 0d 19 bd ca 9a 93 3c 3f 74 87 3b bf 08 69 bd
       -0.03736656 0.018018145 0.0041337307 -0.056893107
000010 c8 1a a2 3d 42 fc 5d bd e2 a7 26 3d 78 e5 40 3e
       0.07915264 -0.05419565 0.04068745 0.18837535
000020 6f 14 61 bd b4 d1 17 bd 18 9b 76 3d f1 e4 14 bd
       -0.054951128 -0.037065223 0.060206503 -0.036351148
000030 f1 cb b7 bc dd cf d8 bd d5 10 8c bd cb 7f 93 bc
       -0.022436114 -0.10586522 -0.06839148 -0.018005272
000040 ca 40 64 bc 65 ac 83 3d e4 b9 b9 3d 10 70 b7 3d
       -0.013931463 0.06429366 0.09068659 0.08956921
000050 9f 25 46 3e ac 1a 0d bd 62 9c 9a 3d c1 6a d1 bd
       0.19350289 -0.034449264 0.07549359 -0.1022544
000060 7b a4 6e 3e 2e 0d 9f bd 23 8d 1d 3e dc 97 58 3d
       0.23304932 -0.07766186 0.1538587 0.0528792
000070 d6 32 07 3d bb ea 03 bd a0 da 3c 3e f1 62 cb 3c
       0.033007465 -0.03220628 0.18442774 0.024827452
000080 24 76 16 bc bb a2 02 3e ee 95 c7 3c c5 19 26 3e
       -0.00918344 0.12757389 0.024363484 0.16220768
000090 a1 81 de 3d f0 c1 95 3d 24 2d aa bd 85 99 f1 3c
       0.108645685 0.07312381 -0.08309391 0.02949215
0000a0 ca 0d e5 bb 0d 59 29 3d 57 02 30 3d 3a 57 2b 3d
       -0.006990169 0.04134469 0.04297098 0.041831233
0000b0 81 fd a4 3d 2a c8 7e 3d f2 f9 2d 3d 31 b8 c6 bc
       0.080561645 0.06220261 0.042474695 -0.024257751
0000c0 78 3c c4 3d b3 58 18 3d 2b ec 14 bd 59 3a 2f 3d
       0.09581846 0.037193965 -0.03635804 0.042780254
0000d0 2c 2e 61 3d 7c d7 25 3e c2 d1 7b 3c fc 3a 77 bd
       0.054975674 0.16195482 0.015369834 -0.060358986
0000e0 f4 ac 20 bd e9 77 16 3d cf 3b 11 3e 91 6b 4d 3d
       -0.03922744 0.03673545 0.14182971 0.05015141
0000f0 0b 62 89 ba 8c 17 d4 bd 7e 7f bd bd a3 af a3 bd
       -0.001048149 -0.10356054 -0.09252833 -0.079924844
000100 c9 a2 d4 bd ed 88 8f bd af 42 89 3d cd 6a 01 3e
       -0.10382611 -0.070085384 0.06702172 0.12638398
000110 6c 2d 2d bc d4 38 49 3d 7a 4a 2d bd 54 6e 9a 3c
       -0.010569911 0.04912646 -0.042307355 0.018851437
000120 42 65 0c 3e 65 e3 e4 3d da 26 ba 3d 2b 58 eb bd
       0.13710502 0.111761846 0.090894416 -0.11491426
000130 92 95 ab 3d 10 5c 18 3e a8 13 bd 3d c0 05 6a 3d
       0.08378138 0.14878869 0.09232265 0.05713439
000140 fe 75 0f 3e 9c b3 91 3d 7d 2c 0d bc 67 55 cd bd
       0.14009854 0.07114336 -0.008616564 -0.10026055
000150 c1 8c b0 3c 5b 1a 23 3d 48 04 97 3c a4 66 b3 bd
       0.021551492 0.039820056 0.018434659 -0.087598115
000160 2b 83 a5 3c 4a de 75 3d b5 0f dd bd 8e fd 2a bd
       0.020204147 0.060026444 -0.107940115 -0.041745715
000170 a2 31 ea 3d b0 50 93 3a 64 cd 0a 3e 67 85 c7 3d
       0.11435248 0.0011239257 0.13554913 0.09742241
000180 76 3f 86 bd a4 59 66 3d 5f 75 fd 3c 19 b6 d9 3d
       -0.06555073 0.05623783 0.030939756 0.106304355
000190 71 76 14 3e 2b 5b 7a bd 3a 83 e5 bd da 1b 90 3d
       0.14498307 -0.0611221 -0.1120667 0.07036562
0001a0 a5 86 9b bd 7e bc 0f 3e e2 8c 32 bc 54 99 94 3b
       -0.07594041 0.14036748 -0.010897847 0.0045348797
0001b0 9c f0 0d 3e c7 46 81 3d 05 9b 43 3e 46 d1 98 bd
       0.13861316 0.06312328 0.19102104 -0.07461791
0001c0 76 0f 87 3d 62 69 a5 3d 3b a7 ab bd 69 d0 e9 ba
       0.06594746 0.08076741 -0.08381506 -0.00178386
0001d0 13 3d 1a 3e 7b 93 da 3d e4 f2 b4 bd 33 6b 02 3c
       0.1506236 0.10672661 -0.0883539 0.007960129
0001e0 c6 dd 09 3e 1c 7b 92 bc fc 6e 9f 3c b9 aa 92 bd
       0.13463506 -0.017880969 0.019462101 -0.07161469
0001f0 ad 6d 61 bd 91 c6 87 bd 28 95 07 3c ed 54 49 bd
       -0.055036236 -0.066296704 0.008275308 -0.049153257

actor_head.2.weight f4 [4, 128]
000000 e9 80 fd bc f2 37 0d bd 12 a9 8b 3d f2 24 9f bd
       -0.030945258 -0.03447718 0.06819357 -0.07770719
000010 72 81 ed bd 81 09 f3 bc 71 f0 45 bd 3c 5b ac 3d
       -0.11596955 -0.029667618 -0.048325006 0.08415839
000020 4b 50 5f bc d0 04 8d bd b1 ca fb 3c 4c 26 93 3d
       -0.013629983 -0.068856835 0.0307363 0.07185039
000030 ba a3 2a bd 8d 00 bd bc d8 be 19 3b f1 01 6e bd
       -0.041660048 -0.023071552 0.00234597 -0.05810732
000040 d1 34 46 3d 82 5f 16 bd ce d1 d4 3d 14 2d 42 3d
       0.048390213 -0.036712177 0.103915796 0.04740627
000050 f8 13 88 3d e4 3c b2 bc 04 6c b2 3d c5 80 11 3d
       0.06644434 -0.02175755 0.087120086 0.035523195
000060 23 0f c0 3d 53 fc 8e 3d f6 dc f7 3d fa e8 bd 3c
       0.09377887 0.06981721 0.12102692 0.023182381
000070 9a 35 0f 3e 84 c7 d5 bc cc ac de 3d 00 7e 91 bd
       0.13985291 -0.026096113 0.10872802 -0.07104111
000080 1d 5d 2c bc 47 cd 9b 3d 66 52 17 3d c8 34 1c 3d
       -0.010520247 0.07607513 0.036943816 0.038136274
000090 fb 41 e5 3d 64 e2 86 3d fc 73 05 3d 91 8e 14 bd
       0.111942254 0.06586149 0.032581314 -0.036268774
0000a0 0e d5 04 3d da 95 79 bd 09 da 12 bd da 7d bd bc
       0.032429747 -0.060933925 -0.035852466 -0.0231313
0000b0 04 1a 0a bd aa d3 60 3d f9 63 f0 39 b8 2c 0c bd
       -0.033716217 0.05488936 0.00045850853 -0.034222335
0000c0 82 2b 7e 3d 53 02 89 bd 6d 02 7a 3c 63 39 bb 3d
       0.06205321 -0.066898964 0.015259367 0.09141805
0000d0 d0 36 55 bd 3d de b0 3d 1b 17 5b bb 52 48 11 bc
       -0.052054226 0.086361386 -0.003343052 -0.00886734
0000e0 af 37 38 bd 23 76 90 bd a2 8d 18 3d 02 30 12 be
       -0.04497498 -0.07053783 0.037244447 -0.14276126
0000f0 cf 89 34 3d 1d a8 64 bd b0 fe d2 3a e2 9c e1 3c
       0.044076737 -0.055824388 0.0016097631 0.027540628
000100 43 f4 11 3d f7 62 73 3d da 2e 9b 3d 7a 5c 1b 3d
       0.035633337 0.059420552 0.075772956 0.03792999
000110 8c 7f 3e bd 40 6c bd bb d1 43 b9 bd 7e ac 2c 3d
       -0.046508357 -0.0057807267 -0.09046138 0.04215669
000120 0b 07 7e 3d 8f a9 cb 3d f8 43 6d 3d 80 26 a9 bc
       0.062018435 0.0994445 0.05792615 -0.020648241
000130 60 70 7b 3d ab 99 b6 3d 48 e2 c1 3d 89 b1 b8 3d
       0.061386466 0.089160286 0.09466988 0.09018237
000140 fc 3c bb 3d 89 92 08 3d 1f e6 11 bd c7 d4 b6 bb
       0.09142491 0.03334287 -0.03561985 -0.0055795643
000150 2a d0 40 bd 82 c9 62 3d 86 19 1c 3d 4c 47 b5 bd
       -0.04707352 0.055367954 0.03811028 -0.088514894
000160 5e 99 29 bd 4f 6a d4 bd 31 1c 45 3d e8 3f a0 bd
       -0.041406028 -0.10371839 0.04812259 -0.07824689
000170 68 e6 2e bd ca 3c 22 bc 51 f0 c3 bc a7 82 bd 3c
       -0.0427002 -0.009902189 -0.023918303 0.023133589
000180 7c a1 69 bd f7 81 8c 3a ae 6b bf 38 d8 ec c9 3c
       -0.05703877 0.0010719885 9.1276466e-05 0.024649069
000190 bf d1 86 3d a4 72 6c bd 59 76 8d bd 9e cb 0d bd
       0.06582975 -0.057726517 -0.06907339 -0.034618013
0001a0 a3 21 70 3d 9b 6c 84 3d 0e 92 6d bd bc dc 8c 3c
       0.05862583 0.06466027 -0.058000617 0.017195098
0001b0 15 d1 0a 3e 97 a7 82 3c 4a 0a 7a 3d 18 5a f8 3c
       0.13556321 0.015949054 0.06104497 0.030316398
0001c0 82 17 04 3d d6 21 4d 3d fa 8b b3 bc 29 e0 9c bd
       0.03224898 0.050081097 -0.021917332 -0.07659943
0001d0 cc c8 9d 3d 85 aa 9d 3d 63 19 c7 b9 b5 3a a9 3d
       0.077043146 0.0769854 -0.00037975152 0.082631506
0001e0 3c 8d 29 3d 24 bd 95 bd 29 a7 e7 3c 13 eb a8 bd
       0.041394457 -0.07311466 0.02827795 -0.08247962
0001f0 d9 23 f2 bc 19 3f b0 3d 1b 83 20 bd 2c da 42 3d
       -0.02955811 0.08605785 -0.039187532 0.047571346
000200 fe 99 a9 3d b2 5b 56 bd 93 67 73 bd 88 c4 89 bd
       0.08281325 -0.05233354 -0.059424948 -0.067269385
000210 30 50 0a 3e eb e5 2c bd 0f d7 63 bc 13 ec b4 3d
       0.13507152 -0.042211454 -0.013906254 0.0883409
000220 4f 1a b3 bc 17 a7 2b bc f2 1f 64 3c e3 c4 98 3d
       -0.02186313 -0.010476849 0.013923632 0.07459428
000230 2e ec fe 3d 00 fe 8a bd 84 5c 89 bd b0 fa 82 bc
       0.124473915 -0.06786728 -0.06707099 -0.015988678
000240 4a f8 08 bc ed 2e c1 bb e4 d1 20 bd cb ac 3c 3d
       -0.008359978 -0.0058954866 -0.039262667 0.046063226
000250 38 17 ec 3c 4f 49 e0 3c da 1a d2 3d 5e 1c 53 bd
       0.028819665 0.027378706 0.10259028 -0.051540725
000260 06 37 96 3d b3 fb d5 3b 52 1a f5 3d 76 ce b0 3c
       0.07334714 0.006530249 0.11967911 0.021582823
000270 02 b0 d4 3c 0b e2 d3 bb 5f 3f ad 3d 67 8d 70 3d
       0.025962833 -0.0064661554 0.08459353 0.0587286
000280 e3 a7 09 3b 7a 03 bf bd 3e 9e 40 3d 5e ad 25 3d
       0.002100461 -0.09326835 0.04702591 0.04044854
000290 5e f2 6a 3d 4b 40 66 3d bc c1 fb 3c 8d f2 dc 3c
       0.057360046 0.05621366 0.030732028 0.026971126
0002a0 12 e4 2f bd 3c 60 b0 3d 3d ed cb bc 3d 23 a9 3d
       -0.042942114 0.08612105 -0.024893397 0.08258674
0002b0 71 b3 03 3c 22 6d 5b 3d ef 54 27 bd 36 04 57 bd
       0.008038388 0.053570874 -0.040852483 -0.05249425
0002c0 65 43 70 3d 45 ea ad 3b 75 19 a9 3c 15 32 55 bd
       0.058658022 0.005307468 0.020642022 -0.052049715
0002d0 0c e6 a7 bc 8b 9c 8c 3d 80 5b 85 3d 5a 20 87 bc
       -0.020495437 0.06865796 0.06511593 -0.016494919
0002e0 95 d5 72 3d e4 7b ee bc 13 ee e9 3d 07 de 8c 3d
       0.05928572 -0.02911181 0.11422362 0.06878286
0002f0 2c 64 7c 3d 9d aa 93 3b 5c 2a ad 3d e5 61 12 3c
       0.06161897 0.0045064227 0.08455345 0.008934473
000300 58 0a 47 bc d5 f0 bd bc ec c3 d2 3d f0 0d 21 bc
       -0.012148462 -0.023186127 0.102912754 -0.009829983
000310 c4 c9 0f 3d 2c e2 53 ba 4f 65 82 bc f4 2f 09 3d
       0.035104528 -0.00080827135 -0.015917448 0.033492997
000320 7c df ad 3d f6 b6 cf 3d 68 04 f5 3d 2e c0 d6 3c
       0.08489892 0.10142319 0.11963731 0.026214685
000330 4c 19 80 3d 96 11 b1 3d c5 4a c2 3d 10 0f a8 3d
       0.06254825 0.086459324 0.094869174 0.08205998
000340 da 52 dd 3b 04 52 84 3d 7b 32 37 bd 00 f8 5d 3d
       0.0067542614 0.06460956 -0.044725876 0.05419159
000350 97 38 0d bd 8a 6a 5b bd ad 0e ca 3d 5c 88 17 3d
       -0.034477796 -0.0535684 0.098660804 0.036995277
000360 eb 5e d9 3b 3f e9 3c 3d 6d 0c dd 3c 50 d1 da bb
       0.0066336296 0.04612088 0.026983464 -0.006677784
000370 46 4c 95 3d fd b0 22 bc d3 f1 cd 3d e1 ba 65 3c
       0.07289939 -0.009929893 0.1005589 0.014021606
000380 4c ea 47 bd 2f 37 24 bd 7f 9c 04 3d 20 18 53 3d
       -0.048807427 -0.04009169 0.03237581 0.05153668
000390 41 a6 87 3d 4c 0e fb bc da 1c dc 3c f8 e6 fb bc
       0.06623507 -0.030646466 0.026869226 -0.030749783
0003a0 42 03 6a bd 0d bf fa 3d 21 75 82 bd 59 27 02 3d
       -0.057132013 0.12243471 -0.06369997 0.031775806
0003b0 f2 88 a9 bc fa d9 f9 3c 32 3b 31 3d 23 65 88 3c
       -0.020695183 0.030499447 0.043269344 0.016649788
0003c0 bc b1 08 3d 33 2b 50 3d 47 ef a1 bd 06 4b 34 bc
       0.033372626 0.050822448 -0.07906967 -0.011004215
0003d0 f6 0b a5 3d 41 f3 47 bd 79 8b 5d 3d da d4 95 bd
       0.08058922 -0.04881597 0.05408809 -0.07315989
0003e0 81 00 8e 3d 54 d2 1e bd d8 4a 8a 3c a2 55 47 bd
       0.0693369 -0.038774803 0.016881391 -0.04866565
0003f0 dd 06 8d 3c 71 7a b7 bc 24 00 c9 bc 12 53 81 3d
       0.017215187 -0.022397252 -0.0245362 0.063146725

actor_head.2.bias f4 [4]
000000 9b 5d 1c 3d 40 7c 7d 3d 2d f9 38 be 23 a8 2c be
       0.038175207 0.061886072 -0.18063803 -0.16861014
