training/models/ppo_weights.pth (torch, 273993 bytes, 13 tensors)

shared_layers.0.weight f4 [128, 2]
-0.2759789 0.089018635 -0.024686953 0.37998524 -0.5364373 0.6224374 -0.76657635 0.4469889
-0.651534 -0.17246246 0.40808812 0.029691735 -0.6966923 -0.015847944 0.5932685 -0.04039692
-0.11460529 0.10305241 0.2608705 0.034428116 0.13110672 -0.5281612 -0.56957936 0.59404486
0.36967817 -0.29771122 -0.3358078 -0.4987476 -0.48461038 0.3101092 -0.53057367 0.02623646
0.57287914 0.02773543 -0.6308365 -0.0037172183 0.28757316 0.49672312 -0.17453948 0.23604532
0.35535434 -0.47784546 0.021338481 -0.44678485 -0.6593955 0.4373655 -0.3314529 -0.28007466
0.012062638 0.22351694 -0.3012803 0.05844759 -0.67798257 0.32594323 0.22176644 -0.4451097
-0.073635556 0.02403834 -0.07964837 0.39047664 -0.32550666 0.108293705 0.6699352 0.60711235
0.22422515 0.13106166 -0.4467129 0.024034012 0.5399491 -0.3683885 0.09795966 0.12614809
-0.47601417 -0.6907407 0.03753764 0.38880345 -0.15592732 -0.12421258 -0.40578648 0.59717566
0.27706292 -0.26898095 0.38354218 0.3400016 -0.6984347 0.6474966 0.43434542 -0.40957803
-0.268439 -0.34467143 -0.24750581 0.40947065 -0.11030658 0.10252535 -0.624599 -0.05329098
-0.67523164 -0.41913128 -0.64908314 0.6781583 -0.6720735 -0.3401516 0.019006893 -0.12958546
-0.39496443 0.14392717 -0.14739345 0.14498752 -0.009859489 0.4180622 0.28549805 0.31086057
0.024882386 0.054161657 -0.69541925 0.11553626 0.44619158 0.0138197765 0.11122886 0.50180507
-0.7260484 0.3559221 -0.5283861 -0.2899569 0.060164966 -0.20852908 -0.70705134 0.12759407
0.1621519 0.47929606 0.100951605 -0.5883725 0.6203385 -0.039093792 0.6062379 0.19648357
-0.2973828 0.31973884 0.12459484 0.52021915 -0.45805886 -0.18779169 -0.42615697 0.51943517
-0.18981083 0.1698992 -0.6766127 0.4726934 -0.5022566 -0.64318186 -0.082110666 0.27411208
0.013915969 0.22716576 -0.13078113 0.48102158 0.21156168 0.15780604 -0.46601307 -0.28236592
0.5567443 0.05859047 -0.49554485 -0.66767824 -0.6291037 0.2461789 -0.58784 -0.43262833
-0.33707178 -0.38230217 0.01902569 -0.057363894 0.60045123 0.2784744 0.47112957 0.161711
-0.24890503 0.49031708 0.5420608 0.40299585 -0.48622307 0.4920629 -0.54683274 -0.65021694
2.333437e-05 -0.4960601 -0.3655413 -0.18104726 -0.004888401 0.4332633 0.59169906 -0.42010164
0.6065808 -0.4702689 -0.59596306 0.65107477 -0.6906334 -0.6087596 0.2892879 0.305562
0.6684042 -0.6621687 -0.3921116 -0.19903158 -0.36701906 -0.6357363 -0.42086872 0.62259877
0.1518389 0.13340986 0.34906983 0.1782061 -0.00048617547 0.077868834 -0.15274017 0.35737255
-0.6174712 -0.33284852 0.34391516 -0.33272532 -0.11518468 0.45750454 -0.3664886 0.086182065
-0.60987103 0.65837896 0.13231727 0.124832004 0.2545286 0.21891665 -0.5618445 -0.54529834
0.0162779 -0.4282902 -0.3350091 -0.005865071 0.10482379 0.039258454 0.44159213 0.17755766
0.1251903 -0.08670831 0.6053338 0.5244872 0.3567442 -0.64457095 0.24988621 -0.018163828
-0.48168546 -0.1771105 0.57354635 0.48191813 0.16608968 0.18360135 -0.62734056 -0.28835863
00000000: 1b4d 8dbe 674f b63d 4b3c cabc 6d8d c23e
00000010: f453 09bf 0f58 1f3f 593e 44bf bbdb e43e
00000020: efca 26bf 009a 30be edf0 d03e 153c f33c
00000030: 6d5a 32bf 8cd3 81bc 72e0 173f 3e77 25bd
00000040: 2eb6 eabd 240d d33d d190 853e 7f04 0d3d
00000050: d740 063e 9335 07bf f4cf 11bf 5313 183f
00000060: 7546 bd3e 9b6d 98be 00ef abbe d85b ffbe
00000070: da1e f8be a2c6 9e3e add3 07bf d8ed d63c
00000080: 35a8 123f 6a35 e33c 807e 21bf 939c 73bb
00000090: ca3c 933e 7e52 fe3e 7aba 32be ddb5 713e
000000a0: 01f1 b53e 29a8 f4be 0ace ae3c fcc0 e4be
000000b0: 25ce 28bf 5fee df3e 32b4 a9be f265 8fbe
000000c0: 5fa2 453c a0e1 643e 6941 9abe bd66 6f3d
000000d0: 4490 2dbf 08e2 a63e be16 633e 6be5 e3be
000000e0: 3dce 96bd 0eec c43c af1e a3bd 8eec c73e
000000f0: cfa8 a6be 17c9 dd3d e080 2b3f b76b 1b3f
00000100: 479b 653e 0735 063e 8eb7 e4be fae2 c43c
00000110: 1b3a 0a3f 6b9d bcbe 139f c83d f72c 013e
00000120: 21b8 f3be 62d4 30bf 12c1 193d 3f11 c73e
00000130: 69ab 1fbe 2a63 febd 3fc3 cfbe 81e0 183f
00000140: 31db 8d3e dfb7 89be a45f c43e b114 ae3e
00000150: 9ecc 32bf 56c2 253f 8662 de3e 36b4 d1be
00000160: d670 89be c678 b0be 2a72 7dbe 23a6 d13e
00000170: 6be8 e1bd d0f8 d13d b8e5 1fbf a547 5abd
00000180: fbdb 2cbf 6098 d6be 502a 26bf c89b 2d3f
00000190: 020d 2cbf 5a28 aebe 58b4 9b3c 0db2 04be
000001a0: c738 cabe a561 133e 4fee 16be 9c77 143e
000001b0: b289 21bc 400c d63e cd2c 923e 1e29 9f3e
000001c0: 25d6 cb3c 9dd8 5d3d ff06 32bf 469e ec3d
000001d0: 3973 e43e 586c 623c f5cb e33d 4c76 003f
000001e0: 4fde 39bf 6c3b b63e 5044 07bf 3b75 94be
000001f0: 8a6f 763d a688 55be 5101 35bf 05a8 023e
00000200: 260b 263e 4b66 f53e b7bf ce3d 959f 16bf
00000210: 81ce 1e3f d020 20bd 6832 1b3f fd32 493e
00000220: 8f42 98be cfb4 a33e 942b ff3d 152d 053f
00000230: b186 eabe 774c 40be 3f31 dabe b4f9 043f
00000240: c55d 42be 0efa 2d3e 7d36 2dbf df04 f23e
00000250: e393 00bf 91a7 24bf a329 a8bd 6b58 8c3e
00000260: ceff 633c 249e 683e 7deb 05be 7648 f63e
00000270: a0a3 583e e897 213e 4499 eebe 4492 90be
00000280: cb86 0e3f 90fc 6f3d 0eb8 fdbe f6ec 2abf
00000290: f10c 21bf 5216 7c3e af7c 16bf 7681 ddbe
000002a0: ac94 acbe 1cbd c3be c4db 9b3c 67f6 6abd
000002b0: 2cb7 193f 3294 8e3e e537 f13e 9297 253e
000002c0: f6e0 7ebe d70a fb3e 7fc4 0a3f 7955 ce3e
000002d0: 3bf2 f8be abef fb3e 3bfd 0bbf 9e74 26bf
000002e0: 2ebe c337 97fb fdbe 3b28 bbbe 7464 39be
000002f0: e12e a0bb b0d4 dd3e 9779 173f 9017 d7be
00000300: e148 1b3f 16c7 f0be 0991 18bf d6ac 263f
00000310: 5acd 30bf abd7 1bbf 8b1d 943e 9f72 9c3e
00000320: 8a1c 2b3f e383 29bf dac2 c8be efce 4bbe
00000330: ece9 bbbe 9dbf 22bf 1b7c d7be a262 1f3f
00000340: a87b 1b3e 989c 083e 48b9 b23e a97b 363e
00000350: 5ee5 feb9 b279 9f3d eb67 1cbe 89f9 b63e
00000360: 9812 1ebf 1f6b aabe a615 b03e f95a aabe
00000370: f2e5 ebbd 093e ea3e 65a4 bbbe 3980 b03d
00000380: 8220 1cbf 868b 283f 2e7e 073e eca7 ff3d
00000390: 9351 823e b02b 603e 0bd5 0fbf ac98 0bbf
000003a0: 3b59 853c da48 dbbe 5086 abbe c82f c0bb
000003b0: dbad d63d 79cd 203d 5d18 e23e add1 353e
000003c0: e331 003e 2094 b1bd 28f7 1a3f cb44 063f
000003d0: 2da7 b63e 9a02 25bf 2ce2 7f3e 4fcc 94bc
000003e0: 7a9f f6be 745c 35be efd3 123f f9bd f63e
000003f0: 6a13 2a3e fe01 3c3e 6499 20bf bea3 93be

shared_layers.0.bias f4 [128]
0.5104664 -0.42434305 -0.42535388 -0.42536995 -0.46580046 0.070453614 0.2063728 0.41321743
0.31880715 -0.62747973 -0.12985454 0.11699996 -0.61870384 -0.26719987 -0.25526574 0.11953847
-0.9348781 0.1426562 -0.16204742 0.3555923 -0.5796119 0.42032167 0.07315575 0.65483344
0.59546006 -0.3713849 -0.5520347 0.8079001 0.8928818 0.69737136 0.20393728 -0.76790106
-0.80711293 -0.63031334 -0.5378718 -0.92288023 -0.48893067 -0.7218009 -0.43900317 -0.64723504
0.072829545 -0.25026435 -0.5771299 -0.10872732 -0.16739522 -0.01168457 0.51001304 -0.26535124
0.25664285 -0.54348433 -0.09284217 -0.08443803 -0.51131046 0.9753716 -0.3141242 0.34427768
-0.32834396 -0.5095106 0.35564625 0.82710415 -0.14685555 -0.17357741 -0.68326366 -0.6222356
-0.46493474 -0.47548845 0.80218923 0.76416993 -0.17601357 -0.30058476 0.82146376 0.49743685
0.75061923 -0.41340917 -0.09736074 -0.88408345 -0.82780874 0.8333444 0.882951 -0.021059094
0.15425107 -0.448314 -0.114819676 0.47966975 -0.22853227 0.7301315 -0.74141365 -0.5283718
-0.73242116 0.5404128 0.62150615 0.27886474 -0.03262316 -0.120371565 0.3585344 0.7976904
-0.62152404 -0.41811806 0.5663131 0.37784055 0.7627607 -0.5126773 -0.026860945 -0.42907593
0.51862156 -0.8956902 0.9282402 0.45757848 0.3780621 0.7465874 -0.78668755 -0.6522865
-0.3533994 0.6131064 0.59250206 0.4586194 0.43647626 -0.09905833 -0.63179463 -0.89769197
0.7108054 -0.9315735 -0.373431 0.8215813 -0.24354734 -0.916495 -0.34734297 -0.52908635
00000000: edad 023f 7e43 d9be fcc7 d9be 17ca d9be
00000010: 667d eebe fc49 903d 6453 533e 3c91 d33e
00000020: b13a a33e 83a2 20bf 97f8 04be ad9d ef3d
00000030: 6063 1ebf 6cce 88be 31b2 82be 96d0 f43d
00000040: 2c54 6fbf 7814 123e c2ef 25be 3210 b63e
00000050: 7261 14bf 6734 d73e afd2 953d 2aa3 273f
00000060: 1270 183f 2926 bebe 2552 0dbf 8ad2 4e3f
00000070: e793 643f ee86 323f efd4 503e 2a95 44bf
00000080: f49e 4ebf 375c 21bf f7b1 09bf e141 6cbf
00000090: 1f55 fabe f2c7 38bf 06c5 e0be 32b1 25bf
000000a0: a827 953d a622 80be c9be 13bf 6eac debd
000000b0: a769 2bbe a470 3fbc 3790 023f 1edc 87be
000000c0: b166 833e ca21 0bbf 0924 bebd d9ed acbd
000000d0: 3ee5 02bf f4b1 793f e3d4 a0be 2a45 b03e
000000e0: b31c a8be 496f 02bf 4417 b63e 19bd 533f
000000f0: 4d61 16be 47be 31be 5eea 2ebf d54a 1fbf
00000100: ed0b eebe 3973 f3be 465c 4d3f a4a0 433f
00000110: e73c 34be 3fe6 99be 734b 523f 0bb0 fe3e
00000120: 9528 403f 5eaa d3be 1165 c7bd 4b53 62bf
00000130: 46eb 53bf 0f56 553f 1409 623f 1f84 acbc
00000140: fef3 1d3e 6a89 e5be 9426 ebbd 4697 f53e
00000150: 5d04 6abe e6e9 3a3f 49cd 3dbf 6043 07bf
00000160: f47f 3bbf 7e58 0a3f 071b 1f3f 5cc7 8e3e
00000170: dd9f 05bd 5e85 f6bd d291 b73e 7035 4c3f
00000180: 331c 1fbf 9213 d6be e5f9 103f 5174 c13e
00000190: 4944 433f d23e 03bf 7c0b dcbc d7af dbbe
000001a0: 62c4 043f f44b 65bf 26a1 6d3f ba47 ea3e
000001b0: 5b91 c13e 5a20 3f3f 5b64 49bf 40fc 26bf
000001c0: c4f0 b4be 8bf4 1c3f 37ae 173f 29d0 ea3e
000001d0: d179 df3e 18df cabd 4bbd 21bf 24cf 65bf
000001e0: 58f7 353f 9a7b 6ebf 5932 bfbe 2753 523f
000001f0: 7964 79be 6b9f 6abf f0d6 b1be 3472 07bf

shared_layers.2.weight f4 [128, 128]
-0.0812159 0.055811044 0.07097088 0.018216353 0.041130573 0.017295664 0.06746778 -0.0695281
0.047211763 0.04691534 -0.042831216 0.031998657 -0.053551372 -0.06500357 -0.060173582 -0.057063133
-0.015178165 -0.049648955 0.063495114 -0.0400749 0.059495565 0.008687456 -0.017300881 0.03879102
0.08689791 -0.025121387 -0.06061371 0.07246075 -0.023136292 -0.053848613 0.02147188 -0.06939201
0.026423523 -0.029063845 0.046797417 0.017785948 0.0022682168 0.0054825884 -0.038138494 0.0008315468
-0.016785203 -0.04660281 0.06659733 -0.0709924 -0.029178463 -0.083142415 0.0035955582 -0.038138505
-0.0014118562 0.08195089 -0.06987551 -0.017811542 -0.06250768 0.03331979 -0.07324311 -0.07077916
-0.05303204 -0.06679004 0.0015464732 -0.0145108225 0.05098719 -0.0542557 0.00038712934 -0.042689383
0.06731737 0.05410574 -0.052293986 -0.04444007 0.010314187 0.0074571683 0.04468451 -0.020597123
-0.04467192 -0.03174387 -0.0077579385 -0.034012802 -0.087326765 0.019662485 -0.010847619 0.05175299
-0.085349865 0.039057914 -0.07538638 -0.059269786 -0.038166214 -0.051681023 -0.055713486 -0.011144216
0.003799296 0.08526597 -0.043261033 0.05169041 -0.047460712 -0.035564806 0.003208239 0.02186352
0.043504525 0.010974997 0.08334661 -0.029966746 -0.015794931 0.08450525 0.0062650237 0.041358765
0.016388327 -0.053641472 -0.085889325 0.06040564 0.019689163 -0.080138385 -0.086231776 0.04868298
-0.005578957 0.08252764 0.039735794 -0.014732135 -0.07137521 -0.07610174 0.06759932 -0.044730164
-0.012513578 -0.005306383 -0.006137835 -0.08546132 0.0055772923 -0.071799934 -0.047124717 0.052175816
0.090786256 -0.08906205 0.012849105 -0.050490793 0.008239983 -0.08387666 0.028921084 -0.07745032
0.016851889 -0.035433363 0.0761976 -0.004084192 -0.04977344 0.026049102 -0.082891494 -0.02762754
-0.072783306 0.01156365 0.05286278 0.0447444 0.030952413 0.050491277 0.039772484 0.04513189
0.04774707 0.035079654 0.015422091 0.046795275 0.13674015 0.013330429 -0.052578285 -0.046070796
-0.112956375 -0.02427077 0.012345742 -0.11824764 0.055059515 -0.021441985 0.045073513 -0.014735824
-0.032122858 -0.053804543 -0.031515025 -0.01587426 0.033214025 0.02275023 0.05063975 -0.028956138
-0.03979816 -0.023175921 -0.084891126 0.002535514 -0.035908163 0.042580657 -0.05291544 0.08089494
-0.010602975 -0.062247057 -0.009551256 0.028863646 0.06669185 -0.018280743 -0.030057263 0.021932367
0.049602516 -0.12015329 -0.03858324 0.05891995 -0.041718286 -0.03784378 0.072500594 -0.02785332
0.0067172726 0.032703087 0.07542231 0.018467108 -0.15043344 0.110924534 0.06681907 -0.03526526
0.024025526 0.060674023 -0.059951168 0.06388488 0.08460993 0.19539523 -0.040517617 0.031881075
-0.05481951 0.077151194 -0.030686878 -0.0012721233 0.061252814 -0.03413589 0.051400885 0.13334486
-0.032017644 -0.042314984 0.0051861973 -0.0027663389 0.050968405 0.012695863 0.08296862 0.054958347
-0.06655811 0.0027534761 0.05878599 -0.023505753 -0.063874505 0.03539513 -0.033114772 0.028283438
0.09278398 -0.043841664 0.09030597 -0.021792406 0.02000308 -0.034075927 -0.26301074 -0.0645469
0.040916167 -0.113534026 -0.010999963 -0.014504455 -0.05827002 -0.114334 0.008992718 0.07493135
00000000: 8654 a6bd 1f9a 643d 2e59 913d 763a 953c
00000010: 8878 283d a3af 8d3c 8c2c 8a3d c064 8ebd
00000020: 1f61 413d 4d2a 403d c96f 2fbd 0611 033d
00000030: af58 5bbd 9720 85bd 9378 76bd 08bb 69bd
00000040: d7ad 78bc b45c 4bbd ba09 823d 9425 24bd
00000050: 9fb1 733d d555 0e3c 94ba 8dbc 55e3 1e3d
00000060: 88f7 b13d 5ecb cdbc 1546 78bd 4d66 943d
00000070: 5288 bdbc 5d90 5cbd cce5 af3c 661d 8ebd
00000080: 2576 d83c 4d17 eebc a6ae 3f3d d6b3 913c
00000090: 5da6 143b 49a7 b33b 1c37 1cbd 29fc 593a
000000a0: 1f81 89bc 97e2 3ebd 2e64 883d 7764 91bd
000000b0: ac07 efbc 9246 aabd 75a3 6b3b 1f37 1cbd
000000c0: 080e b9ba ded5 a73d e41a 8fbd 83e9 91bc
000000d0: 0704 80bd 557a 083d 7c00 96bd aaf4 90bd
000000e0: 2038 59bd 37c9 88bd 08b3 ca3a cdbe 6dbc
000000f0: f2d7 503d 3a3b 5ebd 9ff7 ca39 10db 2ebd
00000100: b0dd 893d fb9d 5d3d 3832 56bd ca06 36bd
00000110: d6fc 283c 435b f43b 1b07 373d 4cbb a8bc
00000120: e7f9 36bd dc05 02bd 4e36 febb 0251 0bbd
00000130: 60d8 b2bd 3813 a13c 36ba 31bc f1fa 533d
00000140: e9cb aebd 31fb 1f3d 2d64 9abd e0c4 72bd
00000150: 2d54 1cbd 7baf 53bd d333 64bd 3b96 36bc
00000160: 9cfd 783b ed9f ae3d 7b32 31bd 53b9 533d
00000170: 2a66 42bd 67ac 11bd 5241 523b 201b b33c
00000180: cd31 323d 79d0 333c a1b1 aa3d d27c f5bc
00000190: 5f64 81bc 1711 ad3d d44a cd3b cf67 293d
000001a0: d040 863c 29b7 5bbd bee6 afbd e86b 773d
000001b0: 2b4b a13c 981f a4bd 499a b0bd ce67 473d
000001c0: afcf b6bb 4004 a93d 00c2 223d 0e5f 71bc
000001d0: 2b2d 92bd 3bdb 9bbd 8371 8a3d fa36 37bd
000001e0: c005 4dbc 2be1 adbb e41f c9bb 5806 afbd
000001f0: b8c1 b63b d80b 93bd d905 41bd 4fb6 553d
00000200: 25ee b93d 2a66 b6bd 0d85 523c 6fcf 4ebd
00000210: fe00 073c 87c7 abbd e9eb ec3c 469e 9ebd
00000220: f90c 8a3c 9322 11bd 7d0d 9c3d b0d4 85bb
00000230: 3cdf 4bbd ed64 d53c 04c3 a9bd 2753 e2bc
00000240: 6a0f 95bd 7775 3d3c a486 583d e745 373d
00000250: ea8f fd3c f1cf 4e3d 79e8 223d 37dc 383d
00000260: 6f92 433d afaf 0f3d f0ac 7c3c 67ac 3f3d
00000270: 9c05 0c3e df67 5a3c 545c 57bd bbb4 3cbd
00000280: ac55 e7bd 7ed3 c6bc cc45 4a3c d22b f2bd
00000290: 1686 613d 1aa7 afbc 019f 383d 876e 71bc
000002a0: 4293 03bd 2762 5cbd e615 01bd bc0a 82bc
000002b0: 6e0b 083d b15e ba3c a06b 4f3d 6c35 edbc
000002c0: 6503 23bd 6edb bdbc 66db adbd de2a 263b
000002d0: 7014 13bd 0e69 2e3d dcbd 58bd 3fac a53d
000002e0: 1ab8 2dbc c5f6 7ebd df7c 1cbc 7473 ec3c
000002f0: bd95 883d 7fc1 95bc a63a f6bc 82ab b33c
00000300: 022c 4b3d ee12 f6bd 7609 1ebd 0c56 713d
00000310: cbe0 2abd 1402 1bbd 317b 943d a52c e4bc
00000320: 911c dc3b acf3 053d 0377 9a3d 5548 973c
00000330: 390b 1abe 672c e33d 70d8 883d 4e72 10bd
00000340: 2ed1 c43c 5385 783d 5b8f 75bd 13d6 823d
00000350: f947 ad3d b015 483e cdf5 25bd bb95 023d
00000360: 6c8a 60bd 7201 9e3d 0c63 fbbc 60bd a6ba
00000370: 3be4 7a3d 13d2 0bbd bc89 523d 8e8b 083e
00000380: ef24 03bd 7a52 2dbd faf0 a93b 774b 35bb
00000390: 3fc4 503d 4f02 503c 74eb a93d 011c 613d
000003a0: 9e4f 88bd aa73 343b 94c9 703d 238f c0bc
000003b0: a3d0 82bd 7cfa 103d 5ba3 07bd abb2 e73c
000003c0: 8705 be3d 5193 33bd 56f2 b83d fd85 b2bc
000003d0: 80dd a33c 3393 0bbd 58a9 86be 2a31 84bd
000003e0: b697 273d 8784 e8bd 3039 34bc 18a4 6dbc
000003f0: 8bac 6ebd f227 eabd 3156 133c 9c75 993d

shared_layers.2.bias f4 [128]
0.05948625 0.15152976 0.08519077 -0.23577374 0.071193054 -0.0891516 -0.00950704 0.31143373
-0.073418766 0.08725346 -0.048869133 0.10833315 0.112169184 -0.09982519 0.13652262 -0.025472227
0.14935903 0.17897806 0.1487688 0.03461465 0.03699607 0.26158422 -0.03998575 -0.33167183
-0.12444348 -0.06824882 -0.0113931885 -0.09256649 0.088631846 -0.070423245 -0.12523274 -0.17603375
0.2837801 -0.015892694 0.2674301 -0.022094905 0.1565374 -0.08551076 -0.14433457 -0.024905924
0.05577386 -0.31544435 0.10017835 0.017448632 -0.07960346 0.125542 0.20765099 0.040190905
-0.011284946 0.18743917 -0.09982388 0.1372244 0.11383126 -0.017489564 -0.055484828 -0.065995
-0.1426086 0.038749624 -0.066142574 0.21030037 -0.06519139 0.07897545 0.13442495 0.0010978306
0.052698437 -0.11064419 0.26724237 0.13649857 -0.053617448 -0.13357916 -0.012590771 0.17266938
0.19227436 0.07084295 0.05994067 0.2236131 0.07496722 0.08956828 -0.049406677 0.018944586
-0.30876514 0.00040180425 -0.046771422 -0.080717675 -0.07521018 0.14002423 -0.22328272 -0.0072784023
-0.2407797 0.023505753 -0.10793241 0.09968763 -0.07968191 -0.18729995 0.18778948 0.024835832
-0.03737357 0.057966076 0.22407159 -0.2541514 0.052020352 -0.17620206 0.07019744 0.10609231
-0.08790128 0.14339855 -0.08430334 0.14726003 0.18693215 0.058348116 -0.06544488 0.15350318
-0.23772757 -0.13395485 0.15911055 0.22071098 0.04106901 0.1400617 -0.0141271325 -0.0050358004
-0.055264235 0.08297823 0.13463691 0.07810872 0.21478143 0.062035926 0.23388572 -0.06049724
00000000: dba7 733d 9e2a 1b3e 8078 ae3d ac6e 71be
00000010: aacd 913d 1d95 b6bd 6ac3 1bbc 3e74 9f3e
00000020: 945c 96bd f1b1 b23d 002b 48bd c5dd dd3d
00000030: f5b8 e53d 2671 ccbd 96cc 0b3e 22ab d0bc
00000040: 93f1 183e 0646 373e d956 183e 17c8 0d3d
00000050: 3189 173d 5eee 853e 19c8 23bd e4d0 a9be
00000060: 39dc febd 0ac6 8bbd 7faa 3abc 8093 bdbd
00000070: 9d84 b53d 103a 90bd 033d 00be 3142 34be
00000080: a04b 913e 6531 82bc 99ec 883e 6000 b5bc
00000090: 574b 203e 4420 afbd 71cc 13be 8207 ccbc
000000a0: 2273 643d ec81 a1be 4f2a cd3d 6ff0 8e3c
000000b0: 2407 a3bd 158e 003e 76a2 543e 389f 243d
000000c0: 7fe4 38bc 0ef0 3f3e 7670 ccbd 8e84 0c3e
000000d0: 5d20 e93d 4646 8fbc 0f44 63bd 6328 87bd
000000e0: fd07 12be edb7 1e3d c275 87bd fb58 573e
000000f0: 1083 85bd e1bd a13d b2a6 093e 15e5 8f3a
00000100: 51da 573d 6c99 e2bd fed3 883e 48c6 0b3e
00000110: f89d 5bbd fac8 08be 8549 4ebc 3ed0 303e
00000120: 92e3 443e 1c16 913d 5984 753d d5fa 643e
00000130: 6a88 993d 936f b73d a85e 4abd ad31 9b3c
00000140: 7716 9ebe 41a9 d239 6493 3fbd 4f4f a5bd
00000150: cb07 9abd 8362 0f3e 3aa4 64be aa7f eebb
00000160: f48e 76be 238f c03c ab0b ddbd 0729 cc3d
00000170: 4530 a3bd 8fcb 3fbe e34b 403e 8474 cb3c
00000180: 0715 19bd d66d 6d3d 0673 653e 2220 82be
00000190: 4b13 553d 506e 34be adc3 8f3d ed46 d93d
000001a0: 9605 b4bd 12d7 123e 3ba7 acbd 55cb 163e
000001b0: 246b 3f3e 6ffe 6e3d f707 86bd f02f 1d3e
000001c0: db6e 73be 762b 09be e0ed 223e 0f02 623e
000001d0: fa37 283d 566c 0f3e 7d75 67bc 5b03 a5bb
000001e0: c05c 62bd 7ef0 a93d 42de 093e 77f7 9f3d
000001f0: aaef 5b3e 6219 7e3d bd7f 6f3e f4cb 77bd

shared_layers.5.weight f4 [128, 128]
-0.015944384 -0.109828025 -0.03192463 -0.083708026 0.051565636 -0.0831327 -0.048201974 -0.19459353
-0.030866679 -0.026490968 0.04079614 -0.09622197 -0.02632352 -0.11939113 0.1176078 -0.08819664
-0.026325734 -0.06677138 -0.09068882 0.08393632 0.04635089 0.038451556 -0.02308335 0.056359395
0.12539779 0.04772155 -0.009682185 -0.0041631325 -0.10157575 0.08663361 -0.007026081 0.02206684
-0.23792428 -0.0687633 -0.14515564 -0.017413203 -0.011892131 0.03360732 -0.08858588 0.07102864
-0.08936912 0.083055004 -0.10870181 0.0823025 0.012898368 0.002559974 -0.11076075 -3.613266e-05
0.052235987 0.06017608 -0.080624074 -0.049617317 -0.0107725 -0.084103495 0.03462055 0.015114828
-0.060194243 -0.03000666 -0.043653686 -0.111095585 -0.048198543 0.0569661 0.010438463 0.06372022
-0.0032195135 -0.10856236 -0.09034366 0.06412888 0.074799 -0.038580474 -0.041984055 -0.18288238
-0.062170267 -0.13255249 -0.08126327 -0.11312109 -0.011846552 -0.06742076 -0.07781893 0.07964401
0.030315869 0.10259444 -0.0026512265 -0.043522116 0.030850621 0.019552242 -0.03678343 -0.041772828
-0.18892492 -0.08050201 0.08794199 -0.1272678 -0.09117794 -0.19332783 0.035950124 0.011171985
-0.077422746 -0.05423002 -0.08594329 0.14198373 0.001019585 -0.0011378591 0.0043431693 0.19186142
0.03951328 -0.10883924 -0.029665826 -0.1558291 0.09460818 0.08757754 0.043522943 -0.03900781
-0.042845868 0.00034228314 -0.02124384 -0.10489116 0.011371349 4.432699e-05 -0.05365289 -0.05996817
0.024296446 0.006669043 -0.05556661 -0.069943495 -0.04449925 0.04602261 0.0019561555 0.020682713
0.0065025 -0.09647434 0.085504875 -0.023110643 -0.030560458 0.04957411 -0.082046844 -0.15096034
-0.08498155 0.07794118 -0.044879574 -0.0986155 0.097292654 -0.00356344 0.0061619533 -0.011674213
0.03507327 -0.07476861 0.12870766 -0.06973328 -0.07633893 0.1164939 -0.055591047 0.021127343
-0.016572934 0.043023225 0.08328144 -0.0020405373 -0.10328854 -0.077142134 -0.0981294 0.061252553
-0.07937455 -0.018270861 0.0629573 0.018209882 0.11307873 -0.025395148 0.07515412 0.070778616
0.011813232 -0.0028441607 -0.010090878 0.038539726 0.0024886928 -0.015657676 0.074349195 0.052652176
-0.05957018 -0.07224395 -0.07492817 0.039742116 0.014434786 -0.024421664 0.018461194 -0.06857366
0.08940329 -0.06644088 0.036361072 -0.025243005 -0.06245184 0.060579803 0.046468146 0.06325079
-0.004077105 0.058135204 -0.04968045 -0.010248346 -0.042793628 -0.0027501255 0.039680224 -0.09804453
-0.053588826 0.031076316 0.05426033 -0.089702666 0.055742513 0.10976513 0.06633515 -0.08173543
-0.029088233 -0.039856218 0.027667973 -0.032028444 -0.023361778 0.023194268 -0.003407902 0.012607123
-0.025036816 -0.008586368 -0.089009136 0.032948453 -0.085885845 0.017939426 -0.003968512 -0.02231253
0.072087325 0.077638276 0.012330011 -0.0016809492 0.054198038 0.07701631 -0.041835908 -0.05879258
-0.07439755 -0.0473158 0.06778192 -0.0744215 0.092390426 -0.061517317 -0.05411194 -0.06991891
-0.017127575 -0.09465391 -0.07057197 0.08640687 -0.08718729 -0.013800268 0.083070695 -0.054163966
0.026654586 0.08568661 -0.040149987 -0.013953631 -0.05144686 -0.06985294 -0.001292917 0.049231965
00000000: cc9d 82bc 84ed e0bd 67c3 02bd 1d6f abbd
00000010: 7d36 533d 7a41 aabd 6f6f 45bd 8743 47be
00000020: 1edc fcbc 9603 d9bc da19 273d 0610 c5bd
00000030: 6ca4 d7bc 5683 f4bd 5cdc f03d 71a0 b4bd
00000040: 11a9 d7bc 6fbf 88bd 0fbb b9bd cee6 ab3d
00000050: 6eda 3d3d 617f 1d3d 4b19 bdbc 1cd9 663d
00000060: 4768 003e ac77 433d 07a2 1ebc e36a 88bb
00000070: f206 d0bd f66c b13d 0a3b e6bb 85c5 b43c
00000080: 6ca2 73be c6d3 8cbd aea3 14be 22a6 8ebc
00000090: 36d7 42bc d4a7 093d 846c b5bd 7777 913d
000000a0: 2807 b7bd be18 aa3d 0e9f debd 378e a83d
000000b0: ad53 533c 3dc5 273b 88d6 e2bd 268d 17b8
000000c0: 67f5 553d 317b 763d 3c1e a5bd 873b 4bbd
000000d0: 247f 30bc 743e acbd 47ce 0d3d 2fa4 773c
000000e0: 3d8e 76bd 87d0 f5bc 35ce 32bd 1586 e3bd
000000f0: d66b 45bd 4955 693d 1606 2b3c bf7f 823d
00000100: 79fe 52bb f155 debd 1906 b9bd 0156 833d
00000110: 3830 993d 8f06 1ebd 79f7 2bbd 8545 3bbe
00000120: 40a6 7ebd d7bb 07be 5b6d a6bd 08ac e7bd
00000130: 0a18 42bc e513 8abd 885f 9fbd 661c a33d
00000140: fc58 f83c 091d d23d 33c0 2dbb 3f44 32bd
00000150: 71ba fc3c 062c a03c 39aa 16bd fc19 2bbd
00000160: 8975 41be 3dde a4bd ee1a b43d 7d52 02be
00000170: 80bb babd bbf7 45be 7040 133d b40a 373c
00000180: d18f 9ebd 4c20 5ebd 0903 b0bd 2f64 113e
00000190: 98a3 853a 3724 95ba 2551 8e3b 5277 443e
000001a0: add8 213d 1ce7 debd bf05 f3bc aa91 1fbe
000001b0: efc1 c13d da5b b33d 1d45 323d a7c6 1fbd
000001c0: 267f 2fbd 7774 b339 9007 aebc 2dd1 d6bd
000001d0: e54e 3a3c beeb 3938 22c3 5bbd 2fa1 75bd
000001e0: 5709 c73c fd87 da3b d099 63bd 893e 8fbd
000001f0: d844 36bd 3482 3c3d d832 003b cb6e a93c
00000200: ec12 d53b 5794 c5bd 2e1d af3d 8852 bdbc
00000210: ed59 fabc 390e 4b3d 2d08 a8bd 5995 1abe
00000220: cf0a aebd a09f 9f3d a5d3 37bd ecf6 c9bd
00000230: 5f41 c73d 9a88 69bb 36ea c93b 3345 3fbc
00000240: fda8 0f3d 4920 99bd f1cb 033e 52d0 8ebd
00000250: 9657 9cbd 5b94 ee3d 70b3 63bd 4013 ad3c
00000260: f6c3 87bc 1f39 303d 768f aa3d 89ba 05bb
00000270: f188 d3bd b2fc 9dbd 11f8 c8bd f5e3 7a3d
00000280: 208f a2bd c6ac 95bc c2ef 803d e42c 953c
00000290: d295 e73d 7c09 d0bc 67ea 993d 61f4 903d
000002a0: 498c 413c 1965 3abb 3654 25bc d5db 1d3d
000002b0: 5619 233b 8744 80bc 6444 983d cfa9 573d
000002c0: dcff 73bd a3f4 93bd f173 99bd a1c8 223d
000002d0: e17f 6c3c f10f c8bc ee3b 973c 5970 8cbd
000002e0: 1219 b73d 2812 88bd 59ef 143d 6bca cebc
000002f0: 80cd 7fbd 8722 783d 6255 3e3d a189 813d
00000300: 3c99 85bb 2e1f 6e3d ba7d 4bbd aee8 27bc
00000310: 5f48 2fbd 733b 34bb bb87 223d 92cb c8bd
00000320: f57f 5bbd c293 fe3c 1440 5e3d 08b6 b7bd
00000330: 4352 643d 8acc e03d b9da 873d e864 a7bd
00000340: 724a eebc 4640 23bd f2a7 e23c 4230 03bd
00000350: 3361 bfbc e801 be3c 1c57 5fbb 1b8e 4e3c
00000360: 021a cdbc d6ad 0cbc 6c4a b6bd f5f4 063d
00000370: ebe4 afbd b4f5 923c 4b0a 82bb c4c8 b6bc
00000380: 85a2 933d d100 9f3d d103 4a3c 4c53 dcba
00000390: c3fe 5d3d baba 9d3d 215c 2bbd 7dd0 70bd
000003a0: be5d 98bd 36ce 41bd 3fd1 8a3d 4d6a 98bd
000003b0: 3137 bd3d 95f9 7bbd 7ba4 5dbd a531 8fbd
000003c0: 214f 8cbc e9d9 c1bd 0988 90bd 16f6 b03d
000003d0: 408f b2bd 851a 62bc f820 aa3d 09db 5dbd
000003e0: b85a da3c 767c af3d 5074 24bd c59d 64bc
000003f0: f1b9 52bd 0f0f 8fbd 1877 a9ba 75a7 493d

shared_layers.5.bias f4 [128]
0.0835686 0.22408506 0.37933248 0.027684642 0.033648588 -0.096159674 0.5445829 0.35918325
0.39321336 0.0033095842 0.35627037 -0.13552964 0.33186764 0.3235687 -0.11576196 -0.17030664
0.15667146 0.18854417 0.35950407 0.42658 -0.09272943 0.3950277 0.33235154 -0.052917145
-0.041846257 0.16548783 0.4142125 0.15668347 0.11333558 0.4658344 0.087240525 0.26477265
0.36846414 0.35617775 0.15274999 0.41058478 0.38283136 0.38373908 0.34931356 0.24961764
-0.08179486 0.25104088 0.27872398 0.36195564 -0.09070327 0.4447576 0.3342254 0.29673102
0.44646347 0.42527327 -0.17991598 0.49316117 0.3601872 0.29679832 0.045295034 0.43821752
0.35736045 0.32853687 0.3343608 0.38553524 -0.15780823 0.34813097 0.36310187 -0.14441758
-0.12207683 0.4063602 0.34043828 0.04831855 0.3593181 -0.031921085 0.4178199 0.09612913
-0.03980435 0.4220088 -0.060216784 0.35538456 -0.15735397 0.45189634 0.0061368523 0.0054810843
0.3133991 0.3275395 0.051711172 -0.10413888 0.2666655 0.41741762 0.22753847 0.36702275
0.27767476 -0.0067518153 0.013712589 0.07443577 -0.03757486 -0.024864713 0.42185366 0.38191226
0.17322877 0.32059026 0.28995863 0.15918158 -0.016344361 0.32193494 0.19452544 0.39754444
0.36242574 -0.016520876 -0.09302721 0.3247298 0.351048 0.3509289 0.061087668 0.36489093
0.1562218 0.289216 0.09253905 0.01794213 0.36526072 -0.05936046 0.31836048 0.36099055
0.43093556 0.34054923 0.35364982 0.3806689 -0.14996153 0.3570197 0.4689244 0.3834282
00000000: 0426 ab3d 8e76 653e de37 c23e e7ca e23c
00000010: 1ad3 093d 5def c4bd c969 0b3f dee6 b73e
00000020: 4353 c93e 9ce5 583b 1269 b63e 48c8 0abe
00000030: 8eea a93e ccaa a53e 9b14 edbd dd64 2ebe
00000040: 7c6e 203e b911 413e eb10 b83e b268 da3e
00000050: ede8 bdbd 1241 ca3e fb29 aa3e a6bf 58bd
00000060: fb66 2bbd a475 293e a913 d43e a271 203e
00000070: 7c1c e83d d981 ee3e 29ab b23d 4890 873e
00000080: 55a7 bc3e ee5c b63e 7e6a 1c3e 2b38 d23e
00000090: 7902 c43e 7379 c43e 3ad9 b23e c49b 7f3e
000000a0: 1084 a7bd 6e88 803e e9b4 8e3e 4052 b93e
000000b0: a3c2 b9bd 45b7 e33e 971f ab3e 21ed 973e
000000c0: dc96 e43e 6bbd d93e e53b 38be 9f7f fc3e
000000d0: 756a b83e f3f5 973e 4987 393d 0c5e e03e
000000e0: f3f7 b63e fc35 a83e 5731 ab3e e064 c53e
000000f0: 7b98 21be 393e b23e 7de8 b93e 34e2 13be
00000100: 6b03 fabd 720e d03e ed4d ae3e ace9 453d
00000110: 8bf8 b73e afbf 02bd 7dec d53e 59df c43d
00000120: e309 23bd 8a11 d83e e0a5 76bd f7f4 b53e
00000130: 6621 21be f55e e73e a617 c93b ab9a b33b
00000140: d975 a03e 42b3 a73e 18cf 533d c446 d5bd
00000150: 6188 883e c3b7 d53e d8ff 683e 68ea bb3e
00000160: 632b 8e3e 553e ddbb c4aa 603c c871 983d
00000170: 19e8 19bd 15b1 cbbc 34fd d73e 018a c33e
00000180: e262 313e 6824 a43e 7575 943e 7f00 233e
00000190: 9ce4 85bc a8d4 a43e ad31 473e f28a cb3e
000001a0: de8f b93e ca56 87bc 0d85 bebd fc42 a63e
000001b0: 90bc b33e f4ac b33e 1037 7a3d fcd2 ba3e
000001c0: 9cf8 1f3e 1f14 943e 1d85 bd3d 60fb 923c
000001d0: 7403 bb3e f423 73bd 2500 a33e c1d3 b83e
000001e0: 96a3 dc3e 785c ae3e 9711 b53e 09e7 c23e
000001f0: 848f 19be 49cb b63e dc16 f03e b350 c43e

actor_head.0.weight f4 [128, 128]
-0.06838357 0.0016194369 0.028457467 -0.026279539 0.031627525 0.09012934 -0.046354033 -0.04248192
-0.11190877 0.027371507 -0.08134963 0.09559271 0.024746979 -0.04941861 -0.0079544475 0.0028480485
0.0030020368 0.041569263 0.026207676 -0.11825008 0.061051458 0.0043973825 -0.23616336 0.00921091
0.104704 0.10179164 -0.017051347 -0.14588146 0.09146556 -0.01873161 0.00013340941 -0.105582155
-0.1614875 0.053641494 0.09513373 -0.1761585 -0.09623325 -0.031031443 0.017778104 -0.012206837
-0.039554104 0.039922725 0.008485197 -0.07610561 0.094347395 0.09474064 -0.17521253 -0.11438623
-0.09708154 0.07399394 0.06068727 -0.110250525 -0.13635382 -0.2045468 0.08416397 -0.17384306
0.060614437 0.07791472 0.02003962 0.014818001 0.07966515 -0.06261751 0.08149666 0.023861047
-0.0051041073 -0.056739725 -0.04348062 0.027971517 -0.11482727 0.022855958 0.11675191 0.21614319
0.022782234 -0.17818144 0.07255837 -0.0068965 0.02998443 -0.013849615 0.1440164 0.05416163
-0.03344841 -0.105649166 -0.033653233 -0.023962371 -0.006238323 -0.05659224 -0.005016585 -0.07695935
-0.02997906 0.09876344 -0.022752065 0.024832292 -0.023226544 0.038853135 0.00012245358 -0.107286155
0.25628722 -0.08800092 0.091433726 0.11087554 -0.0021983942 0.063885115 0.024015604 -0.09885698
-0.058722366 0.07945408 0.0393546 0.09595791 -0.02445426 -0.08015244 0.079563946 -0.15972115
0.021405462 0.09844349 -0.06292267 0.09183841 -0.12251829 -0.06657188 -0.07334648 -0.06798495
0.008141448 -0.0387359 0.06299747 -0.018027224 -0.03411421 -0.051539645 -0.10730151 -0.034947917
-0.15159969 0.011697086 -0.04005522 -0.065864176 -0.006931384 0.017496899 -0.0073634703 -0.064073525
-0.011983529 -0.108866386 -0.17456792 0.029432895 -0.047209878 -0.083156064 0.023330102 -0.004377799
0.0036458694 -0.0143269785 -0.049105898 -0.087398365 0.019545808 0.060563944 -0.07520305 0.004917547
0.023953972 -0.0071800807 -0.059804764 0.00828727 0.09587787 0.050120767 0.075591505 -0.0967431
-0.016266435 0.009195676 0.067941375 -0.06787347 -0.0046658786 -0.001502589 -0.031186212 0.07655162
0.036940318 -0.10221786 -0.07041629 -0.12189397 0.04532086 0.068289265 0.014472712 -0.0147869885
0.033707067 -0.011116029 0.032477047 -0.07884443 -0.17020616 -0.1759517 0.18897888 -0.03911553
0.028095713 0.15048912 -0.033778656 -0.048149686 0.07537484 0.0965337 0.11797078 -0.07999662
0.11239877 -0.12279204 0.037937235 0.0034513315 -0.017803734 0.0250345 0.13011265 0.18728368
0.07158755 -0.08335063 0.117407165 -0.08671161 0.04035954 0.04869002 0.26193398 -0.022207085
-0.03163922 -0.004350139 -0.105545804 0.016282564 -0.08336636 0.0029844076 0.03476199 -0.023809657
-0.17353328 0.022822006 -0.021065189 0.051382333 0.05653429 0.0659526 -0.0075557316 -0.022962663
0.26556978 -0.0662529 0.081143074 0.20205115 -0.042255826 0.0027790195 -0.0035315533 -0.071740486
-0.063279204 0.033515573 -0.07299556 0.06528836 -0.111455865 -0.040122736 0.033391878 -0.15048951
-0.007916774 0.08662961 0.1031902 0.014563363 -0.14559732 -0.03473707 0.061213158 0.008079741
-0.023015074 -0.041492846 -0.08136121 -0.0706706 -0.04520263 0.06720032 -0.028073069 -0.008988434
00000000: af0c 8cbd 4943 d43a a21f e93c 3048 d7bc
00000010: dd8b 013d bb95 b83d badd 3dbd 8601 2ebd
00000020: 6d30 e5bd 363a e03c a39a a6bd 1cc6 c33d
00000030: 2dba ca3c 2b6b 4abd 5f53 02bc 53a6 3a3b
00000040: d2bd 443b 8844 2a3d 7bb1 d63c 192d f2bd
00000050: 1811 7a3d eb17 903b cfd4 71be 5be9 163c
00000060: 0d6f d63d 2378 d03d 44af 8bbc f361 15be
00000070: 4c52 bb3d 0973 99bc d1e3 0b39 753b d8bd
00000080: fb5c 25be 2fb7 5b3d 79d5 c23d e562 34be
00000090: f015 c5bd a735 febc 63a3 913c 2fff 47bc
000000a0: 7c03 22bd 0386 233d 7f05 0b3c 42dd 9bbd
000000b0: 3539 c13d 6107 c23d ea6a 33be 5443 eabd
000000c0: b0d2 c6bd 238a 973d 3793 783d 07cb e1bd
000000d0: 56a0 0bbe b774 51be 295e ac3d ea03 32be
000000e0: d846 783d c191 9f3d 212a a43c 33c7 723c
000000f0: 7b27 a33d 9c3d 80bd b9e7 a63d 3e78 c33c
00000100: 5b40 a7bb ea67 68bd bc18 32bd 8624 e53c
00000110: 8f2a ebbd 6b3c bb3c a01b ef3d a454 5d3e
00000120: cfa1 ba3c 3275 36be 7c99 943d 09fc e1bb
00000130: e8a1 f53c 7fe9 62bc 0979 133e 96d8 5d3d
00000140: 3301 09bd 975e d8bd f9d7 09bd bc4c c4bc
00000150: d96a ccbb 44cd 67bd 2a62 a4bb dd9c 9dbd
00000160: a596 f5bc 7d44 ca3d 8a62 babc 176d cb3c
00000170: 9845 bebc 7724 1f3d e266 0039 d8b8 dbbd
00000180: 1438 833e d439 b4bd 9b41 bb3d b712 e33d
00000190: ef12 10bb 33d6 823d 5fbc c43c 8775 cabd
000001a0: dd86 70bd d2b8 a23d 4a32 213d 9585 c43d
000001b0: 4d54 c8bc f626 a4bd 6cf2 a23d f18d 23be
000001c0: 825a af3c be9c c93d 9add 80bd c715 bc3d
000001d0: dfea fabd d656 88bd ae36 96bd b23b 8bbd
000001e0: b563 053c 89a9 1ebd d104 813d d4ad 93bc
000001f0: 58bb 0bbd 3c1b 53bd e5c0 dbbd 8c25 0fbd
00000200: f33c 1bbe 22a5 3f3c f110 24bd cce3 86bd
00000210: aa20 e3bb a855 8f3c 4449 f1bb fb38 83bd
00000220: 9056 44bc 57f5 debd efc1 32be 411d f13c
00000230: 255f 41bd ba4d aabd c51e bf3c a473 8fbb
00000240: 8aef 6e3b b4bb 6abc 4423 49bd eafd b2bd
00000250: 881e a03c e611 783d 0f04 9abd 6023 a13b
00000260: 1f3b c43c e246 ebbb d7f5 74bd 54c7 073c
00000270: 9e5b c43d 6f4b 4d3d b8cf 9a3d 3f21 c6bd
00000280: 3041 85bc 76a9 163c d924 8b3d 3f01 8bbd
00000290: 3ae4 98bb 85f2 c4ba 3a7a ffbc 19c7 9c3d
000002a0: bb4e 173d 9957 d1bd 6a36 90bd 8ca3 f9bd
000002b0: 5ea2 393d 3edb 8b3d f41e 6d3c 2045 72bc
000002c0: 6c10 0a3d 0120 36bc a706 053d 3079 a1bd
000002d0: 864a 2ebe af2c 34be ae83 413e 9b37 20bd
000002e0: fb28 e63c d219 1a3e 7d5b 0abd 9b38 45bd
000002f0: 205e 9a3d 76b3 c53d aa9a f13d 45d5 a3bd
00000300: 5431 e63d 657a fbbd 1364 1b3d bc2f 623b
00000310: 23d9 91bc 2715 cd3c 403c 053e 4bc7 3f3e
00000320: 7e9c 923d bcb3 aabd 2b73 f03d db95 b1bd
00000330: 0c50 253d 306f 473d 361c 863e a2eb b5bc
00000340: 2098 01bd 9c8b 8ebb 6628 d8bd 0363 853c
00000350: fbbb aabd 0d96 433b 9762 0e3d 780c c3bc
00000360: b5b2 31be 37f5 ba3c e790 acbc 4876 523d
00000370: 8090 673d 2812 873d 1296 f7bb 321c bcbc
00000380: c3f8 873e 9aaf 87bd 572e a63d 7fe6 4e3e
00000390: 7214 2dbd 3620 363b a271 67bb adec 92bd
000003a0: 8798 81bd a047 093d b27e 95bd e7b5 853d
000003b0: f942 e4bd bd57 24bd ecc5 083d ec19 1abe
000003c0: 5bb5 01bc dd6a b13d 6255 d33d 2c9b 6e3c
000003d0: 7717 15be 7548 0ebd a6ba 7a3d e460 043c
000003e0: 1c8a bcbc 67f4 29bd b5a0 a6bd bfbb 90bd
000003f0: 6526 39bd 52a0 893d 7ef9 e5bc 3a44 13bc

actor_head.0.bias f4 [128]
0.031742156 0.09181915 -0.07247469 -0.036782376 -0.07227311 0.14047502 0.115493745 -0.04141034
0.14993992 0.025909089 0.046737567 0.002217051 0.0565728 0.08059538 0.037297513 0.12115874
-0.11126112 -0.027922306 -0.059244953 -0.05640514 -0.076640524 0.1365857 0.022513822 0.13694367
-0.08620534 0.07545711 -0.062422875 -0.03705783 0.19603455 0.013119371 -0.008150218 -0.004929043
0.05666045 0.03649712 0.16513264 0.010557354 0.13070916 0.106617555 0.19690067 0.12615947
0.15672624 0.06471834 -0.018744286 0.12877323 -0.06810734 0.06787993 0.08031 0.04452633
0.039959885 0.051938314 -0.0781308 -0.025945565 0.19947955 -0.08381667 0.12905133 0.051813327
0.046032272 0.19787927 0.1269883 -0.0760827 0.15016131 -0.03281727 -0.100964814 -0.0964714
-0.003840548 -0.041507542 -0.10254742 0.016791278 0.06442539 0.08250281 0.06506955 0.032183185
0.13651794 -0.034460034 0.07795526 -0.010213983 -0.10549435 0.22881217 -0.03632449 -0.017147861
0.09331488 0.026156211 0.01960713 0.11171329 0.14514334 0.045085978 -0.07897221 0.2204369
-0.059398074 -0.018796064 -0.08966608 -0.047909707 0.10083841 -0.09717894 0.0007179348 0.13253278
0.054230977 0.06965063 -0.015439133 -0.03966674 -0.0019906845 0.04014922 0.08757999 0.06671132
0.010489534 0.14779149 0.023744315 0.07876001 0.045205615 0.13654314 -0.080447055 -0.062501945
0.09149243 0.17350997 0.036863867 0.11410974 0.07076537 -0.024053019 -0.042789176 -0.12195429
0.016414111 -0.027693117 0.06570374 0.033173222 0.022441735 0.12460253 0.09809384 -0.057781104
00000000: 1004 023d ae0b bc3d 9c6d 94bd 1ea9 16bd
00000010: ed03 94bd afd8 0f3e fc87 ec3d e49d 29bd
00000020: da89 193e 4c3f d43c e46f 3f3d f24b 113b
00000030: e1b8 673d 310f a53d 47c5 183d 1322 f83d
00000040: dfdc e3bd 52bd e4bc d6aa 72bd 1309 67bd
00000050: b5f5 9cbd 1fdd 0b3e e86e b83c f63a 0c3e
00000060: 6d8c b0bd 4289 9a3d 21af 7fbd f3c9 17bd
00000070: 48bd 483e a1f2 563c 7e88 05bc cf83 a1bb
00000080: ca14 683d 017e 153d 8818 293e c1f8 2c3c
00000090: 9fd8 053e 4e5a da3d 54a0 493e f32f 013e
000000a0: d87c 203e 0d8b 843d 9e8d 99bc 21dd 033e
000000b0: dc7b 8bbd a204 8b3d 9279 a43d 3e61 363d
000000c0: faac 233d 45bd 543d 0a03 a0bd cb8b d4bc
000000d0: 5e44 4c3e 13a8 abbd 0826 043e 363a 543d
000000e0: 568c 3c3d dda0 4a3e 3909 023e 3fd1 9bbd
000000f0: e3c3 193e 676b 06bd a4c6 cebd cc92 c5bd
00000100: b4b1 7bbb d003 2abd 6204 d2bd dd8d 893c
00000110: 75f1 833d 3cf7 a83d 2f43 853d 84d2 033d
00000120: 5ccb 0b3e f725 0dbd 02a7 9f3d 8d58 27bc
00000130: 6c0d d8bd bd4d 6a3e fdc8 14bd ac79 8cbc
00000140: df1b bf3d 8d45 d63c 229f a03c f0c9 e43d
00000150: 75a0 143e 13ac 383d 2fbc a1bd 36ba 613e
00000160: 654b 73bd 34fa 99bc daa2 b7bd f83c 44bd
00000170: 5e84 ce3d c105 c7bd ca33 3c3a acb6 073e
00000180: 4d21 5e3d fda4 8e3d 6bf4 7cbc 9779 22bd
00000190: 2576 02bb 8273 243d 235d b33d f29f 883d
000001a0: 4bdc 2b3c a756 173e 7083 c23c ee4c a13d
000001b0: 8629 393d f7d1 0b3e 6dc1 a4bd 0501 80bd
000001c0: 6260 bb3d 99ac 313e 91fe 163d 5eb2 e93d
000001d0: 6fed 903d d60a c5bc b443 2fbd 2cc3 f9bd
000001e0: e376 863c addc e2bc af8f 863d a5e0 073d
000001f0: bbd7 b73c 9c2f ff3d 6ce5 c83d e1ab 6cbd

actor_head.2.weight f4 [4, 128]
-0.08114451 -0.14773154 0.029948382 0.018685192 0.0019251934 0.022472568 0.02635781 -0.016703181
0.09950325 -0.09909704 0.048223533 0.006736985 0.095136836 0.062469985 0.054526225 -0.13239881
0.07732697 0.04936958 0.041679718 0.049146947 -0.024151962 0.05771661 0.0021743558 0.009079616
-0.016876623 0.04897216 0.038589727 -0.048889328 0.08898699 0.023182528 -0.0022808134 0.048798844
-0.009256396 -0.03447276 0.072193615 0.038353067 -0.012338404 0.01949039 0.07640888 0.086224
0.0671707 -0.02468503 0.054801863 0.07951227 -0.11038275 0.013603005 -0.13063703 0.07997448
-0.06749944 -0.06530365 0.019236967 0.04899226 0.07370865 -0.055057835 0.031505413 -0.09987366
-0.00032742383 0.097753644 0.07225008 -0.012154694 -0.00034858202 -0.050533902 0.019690486 -0.007454742
0.0560123 0.028915342 -0.027183097 0.011032002 0.08899477 -0.10623238 -0.034357816 -0.095782705
0.0114632845 -0.049737457 0.057626687 0.06688629 -0.036808047 0.07108181 0.0854663 -0.028014375
0.097627945 -0.0449203 0.0030131857 0.08988535 0.01100849 0.042349283 0.022097213 0.08642439
0.092189305 0.01698317 -0.029780034 0.038675036 -0.024606252 -0.006296545 0.030831642 -0.034799248
0.051773034 0.11904999 0.046662528 -0.028492497 -0.020123707 -0.025761845 0.10677085 -0.0064148605
-0.06837183 0.051025234 0.082911566 -0.022775529 0.092438474 -0.0038840878 -0.0031462845 -0.019452842
-0.0425198 0.09877119 -0.0062992983 0.027881147 0.05971178 -0.07345952 0.05243416 0.086268336
0.047466133 -0.05231429 0.1006384 0.019361649 0.021284755 -0.08783769 0.070560716 0.0019994688
0.097909786 0.049848758 0.05754527 -0.015174371 0.061165735 0.043587767 -0.0022316095 -0.0445767
0.09034035 -0.022877168 0.05008736 -0.0059013204 -0.08764771 0.06303203 0.069249496 0.121361844
0.06644044 0.056629036 -0.0049388735 0.102336854 0.004144647 0.006284956 -0.024414262 0.014456505
-0.044847738 -0.053259023 0.057170793 -0.011470956 0.09203791 0.064723246 0.043832596 -0.053607374
0.044801127 -0.076248094 0.08516719 -0.028249893 -0.0046574413 -0.010535189 0.07800561 0.04591612
0.062041968 -0.09709505 -0.051336445 0.09550596 0.09646695 0.011878405 0.048020203 0.11018516
-0.0063635283 -0.062195648 0.048728667 -0.02548359 0.070582874 -0.028239917 0.01643567 0.14634742
0.0025945478 0.09805483 0.074579984 0.0006215359 -0.004791252 0.00034740483 0.010424623 -0.056865998
0.09223839 0.077596284 -0.045662895 -0.028366864 0.09676967 0.10256169 -0.019706583 0.12347264
0.010333365 -0.02749673 0.06852208 0.036414593 -0.034162812 0.06916567 0.02501924 0.023966635
0.09532247 -0.045743167 0.022293748 -0.056786943 0.06971946 0.051221643 0.04559046 0.068501614
0.03153596 0.027378445 0.00594461 0.013174879 -0.0257317 0.035228014 0.06543906 -0.018052055
-0.012981886 -0.07929208 0.0018270683 0.10973217 0.00079029886 0.01048638 -0.064983174 -0.011307177
0.015760573 0.04255021 0.076754875 -0.026254857 0.08621005 -0.0018129287 0.061470058 -0.053824328
0.10550393 0.092520215 0.0021351187 0.06480914 0.031853363 -0.070364825 0.011596443 0.06337406
0.02845336 0.050723094 -0.17781977 -0.045053132 0.024340613 0.17140402 -0.00788231 0.060555656
00000000: 182f a6bd f046 17be 4f56 f53c b011 993c
00000010: c556 fc3a 6418 b83c 55ec d73c 1cd5 88bc
00000020: 5cc8 cb3d 64f3 cabd 0a86 453d edc1 dc3b
00000030: 1ad7 c23d 87e0 7f3d e456 5f3d 8e93 07be
00000040: 9a5d 9e3d c237 4a3d 5ab8 2a3d 4f4e 493d
00000050: 56da c5bc 4168 6c3d a37f 0e3b abc2 143c
00000060: d840 8abc 0897 483d 4310 1e3d 2d40 48bd
00000070: d03e b63d 49e9 bd3c b379 15bb 4ce1 473d
00000080: 24a8 17bc 4f33 0dbd 3fda 933d 1b18 1d3d
00000090: 0427 4abc 4faa 9f3c 427c 9c3d 3596 b03d
000000a0: cb90 893d 4338 cabc eb77 603d 54d7 a23d
000000b0: 5a10 e2bd 23df 5e3c b7c5 05be a9c9 a33d
000000c0: 253d 8abd ecbd 85bd d896 9d3c 1cac 483d
000000d0: 90f4 963d 5384 61bd d20b 013d 908a ccbd
000000e0: 15aa abb9 1033 c83d daf7 933d 7b24 47bc
000000f0: e3c1 b6b9 a3fc 4ebd f14d a13c e946 f4bb
00000100: 276d 653d dedf ec3c 16af debc 92bf 343c
00000110: e442 b63d 5d90 d9bd c8ba 0cbd b929 c4bd
00000120: 80d0 3b3c 81b9 4bbd f609 6c3d aefb 883d
00000130: 09c4 16bd 5793 913d f508 af3d 677e e5bc
00000140: 29f1 c73d 59fe 37bd de78 453b cf15 b83d
00000150: f45c 343c 7176 2d3d 3705 b53c 45ff b03d
00000160: bfcd bc3d 4a20 8b3c 42f5 f3bc b769 1e3d
00000170: 0d93 c9bc 3f53 cebb a492 fc3c a889 0ebd
00000180: f60f 543d 7bd0 f33d 3521 3f3d 1969 e9bc
00000190: 79da a4bc 810a d3bc adaa da3d c033 d2bb
000001a0: 8806 8cbd d6ff 503d 8acd a93d bf93 babc
000001b0: 6250 bd3d 2e8c 7ebb e531 4ebb 915b 9fbc
000001c0: 3e29 2ebd 8d48 ca3d 586a cebb 0167 e43c
000001d0: 5794 743d f271 96bd 34c5 563d 74ad b03d
000001e0: d96b 423d 8247 56bd 811b ce3d 529c 9e3c
000001f0: 5e5d ae3c 3fe4 b3bd 2382 903d 8509 033b
00000200: ed84 c83d 362e 4c3d 97b4 6b3d ed9d 78bc
00000210: ec88 7a3d 1689 323d 3240 12bb 0f96 36bd
00000220: 5d04 b93d e668 bbbc 6728 4d3d dd5f c1bb
00000230: a580 b3bd f016 813d aed2 8d3d 8f8c f83d
00000240: ed11 883d d9f3 673d 46d6 a1bb fc95 d13d
00000250: d2cf 873b 08f2 cd3b 6b00 c8bc fada 6c3c
00000260: 43b2 37bd 2226 5abd ec2b 6a3d adf0 3bbc
00000270: 5f7e bc3d 9f8d 843d cf89 333d 6893 5bbd
00000280: 6381 373d f627 9cbd 236c ae3d 526c e7bc
00000290: 739d 98bb c99b 2cbc 68c1 9f3d 8b12 3c3d
000002a0: b81f 7e3d c5d9 c6bd 2a46 52bd a198 c33d
000002b0: 7790 c53d a49d 423c d5b0 443d c2a8 e13d
000002c0: 2585 d0bb ddc0 7ebd b697 473d f6c2 d0bc
000002d0: c18d 903d 6657 e7bc 19a4 863c 19dc 153e
000002e0: 4a09 2a3b f9d0 c83d 64bd 983d 91ee 223a
000002f0: efff 9cbb e323 b639 0acc 2a3c 52ec 68bd
00000300: 7be7 bc3d cdea 9e3d 0409 3bbd a061 e8bc
00000310: 2d2f c63d dd0b d23d b36f a1bc 39df fc3d
00000320: 464d 293c d340 e1bc 4e55 8c3d 7827 153d
00000330: 4eee 0bbd bba6 8d3d 26f5 cc3c ad55 c43c
00000340: 6d38 c33d 305d 3bbd 61a1 b63c 6d99 68bd
00000350: 14c9 8e3d c9cd 513d 10bd 3a3d 934a 8c3d
00000360: da2b 013d c348 e03c 01cb c23b 73db 573c
00000370: 49cb d2bc 404b 103d ea04 863d e7e1 93bc
00000380: fab1 54bc e363 a2bd 3d7a ef3a 43bb e03d
00000390: 0f2c 4f3a 11cf 2b3c e615 85bd bd41 39bc
000003a0: 511c 813c 2149 2e3d a931 9d3d 6d14 d7bc
000003b0: e58e b03d cb9f edba 07c8 7b3d e676 5cbd
000003c0: 7212 d83d 3d7b bd3d 59ed 0b3b a8ba 843d
000003d0: ac78 023d 6f1b 90bd 02ff 3d3c 42ca 813d
000003e0: 0517 e93c 05c3 4f3d 6316 36be a289 38bd
000003f0: f765 c73c 8984 2f3e ce24 01bc 3509 783d

actor_head.2.bias f4 [4]
0.0012061094 -0.0095538 -0.09244551 -0.0880721
00000000: 5116 9e3a 8b87 1cbc 1254 bdbd 255f b4bd

critic_head.0.weight f4 [128, 128]
0.096731044 -0.010496805 -0.038951155 0.15206419 0.007010715 0.13500364 -0.044131268 0.0809892
-0.15173535 0.17344357 -0.09186058 0.08174869 -0.09954149 -0.030553205 -0.030832587 -0.007222054
0.08382684 0.15655187 0.05406821 0.097067036 0.10569814 -0.056314178 0.08197566 0.045843773
0.02429093 0.0026100948 -0.054386906 0.13603768 0.17937562 -0.0146527095 -0.022393228 -0.04307947
-0.20314033 0.01785546 0.050756007 0.07242476 -0.06988001 -0.05690681 0.015123327 0.13187656
-0.015090702 -0.10473858 0.03356665 -0.10015425 0.0945585 0.0039913203 0.029781131 0.009380183
-0.012189443 -0.07935229 0.031351324 0.0061258734 -0.017291566 -0.05078689 0.12607723 0.036663666
0.059159 0.031467568 -0.019216994 -0.010507347 0.06655121 -0.09750886 0.0807645 -0.055009264
0.038622767 -0.09350557 0.02154416 -0.010914875 0.0093273735 0.012043971 -0.03898424 -0.0646016
0.02137693 -0.09202284 0.10581769 -0.048784822 0.06833809 0.005321555 0.0243328 -0.013946946
-0.08961924 -0.22177774 0.06386475 0.06926429 -0.13402362 -0.06167914 -0.08540289 -0.0047958167
-0.14874445 0.121879525 0.05645835 0.014073178 0.008055948 0.051158037 -0.038615316 -0.073252775
0.024091776 0.017256584 -0.00037890967 0.10890826 0.06294395 -0.0042416775 0.07489197 -0.19023304
-0.03913949 0.037148602 0.059811454 -0.063496545 -0.13117288 -0.020626262 0.05406449 -0.09737657
0.18174787 0.043478712 0.10590665 0.031036003 -0.06064601 -3.7164205e-05 0.075987846 0.013082976
-0.0128757665 -0.15567258 -0.094922714 -0.047957364 0.10616809 0.061811488 -0.07615928 0.055137347
0.06345924 0.16401601 -0.028624615 -0.17725548 -0.14381458 -0.13986553 0.05403779 0.07604875
-0.035312522 -0.10458919 0.024258843 -0.05129214 -0.017980209 -0.054460675 -0.078937486 -0.10003627
-0.07546029 -0.18172881 0.06614698 0.075399734 -0.0131729655 -0.052211486 0.04163052 -0.0070892386
-0.03588888 0.105843365 0.01432136 -0.18286541 -0.19201404 -0.029079475 -0.1310977 0.0827825
0.06525521 0.0005559556 -0.021944506 0.02611276 0.0062674927 0.03712854 0.05453143 0.07693966
-0.09630746 0.034683224 0.057945926 0.050022516 -0.078245446 0.009879424 -0.0348501 0.0096685495
0.017001994 -0.0682368 -0.054251093 0.084401675 -0.001577829 -0.011340845 -0.06512944 -0.05831717
-0.038738187 0.02245856 -0.0392857 0.09929346 -0.02621448 -0.071840815 0.028640555 -0.019140115
-0.106756456 -0.033022676 -0.015039127 0.041529354 -0.034081608 -0.1065238 0.0660956 0.14248984
-0.01651703 0.061694555 -0.13390023 0.109201215 0.0036479402 0.026208937 -0.12596013 -0.080889754
0.024052488 0.040673107 0.033449806 -0.06753636 0.045604415 0.016998196 0.0018051843 0.056034118
0.10799155 -0.16941765 -0.00023725202 0.058691744 -0.013715796 -0.08943587 0.07712293 0.018137302
0.1316325 -0.061825372 0.06355329 0.05502874 -0.04076782 -0.060149577 0.05719362 -0.026279237
0.014555633 -0.06471853 -0.033325866 -0.012414468 0.09826676 -0.012212792 -0.16274115 0.09752657
-0.15908813 0.037674505 -0.054599497 -0.026247965 -0.007989768 -0.058966808 -0.03525688 -0.047578353
5.6336194e-05 0.0968113 0.048015144 0.12987001 0.026729101 0.08141254 0.1113807 0.04398927
00000000: ed1a c63d cbfa 2bbc 3f8b 1fbd b7b6 1b3e
00000010: 24ba e53b 653e 0a3e fdc2 34bd aadd a53d
00000020: 8360 1bbe 319b 313e 6621 bcbd db6b a73d
00000030: 69dc cbbd b74a fabc 9f94 fcbc fba6 ecbb
00000040: 68ad ab3d 224f 203e a176 5d3d 15cb c63d
00000050: 4478 d83d b2a9 66bd dbe2 a73d aec6 3b3d
00000060: c6fd c63c 200e 2b3b cec4 5ebd 764d 0b3e
00000070: 3eae 373e eb11 70bc 0172 b7bc 1974 30bd
00000080: 0504 50be 9d45 923c 88e5 4f3d 6f53 943d
00000090: 401d 8fbd 1d17 69bd d5c7 773c a60a 073e
000000a0: fe3e 77bc 2e81 d6bd 2f7d 093d ac1d cdbd
000000b0: e3a7 c13d 9fc9 823b 8ff7 f33c 57af 193c
000000c0: 3bb6 47bc 7483 a2bd 3f6a 003d 8dbb c83b
000000d0: 0ba7 8dbc ea05 50bd 641a 013e a42c 163d
000000e0: b550 723d 23e4 003d f56c 9dbc 0227 2cbc
000000f0: 004c 883d bab2 c7bd dc67 a53d 6551 61bd
00000100: e832 1e3d d97f bfbd 617d b03c 4ed4 32bc
00000110: d7d1 183c 1354 453c f0ad 1fbd d84d 84bd
00000120: ac1e af3c 7976 bcbd f2b6 d83d 98d2 47bd
00000130: d7f4 8b3d 7060 ae3b 9555 c73c bb81 64bc
00000140: 4b8a b7bd b419 63be 86cb 823d 70da 8d3d
00000150: 7d3d 09be 44a3 7cbd b6e7 aebd 3a26 9dbb
00000160: 7750 18be f99b f93d df40 673d 3093 663c
00000170: 18fd 033c 178b 513d 182b 1ebd 8d05 96bd
00000180: 1e5c c53c ae5d 8d3c 65a8 c6b9 4b0b df3d
00000190: c2e8 803d c5fd 8abb f660 993d 73cc 42be
000001a0: bb50 20bd 2229 183d dbfc 743d 7a0a 82bd
000001b0: 2f52 06be 68f8 a8bc ba72 5d3d 5e6d c7bd
000001c0: 1d1c 3a3e bc16 323d 96e5 d83d 373f fe3c
000001d0: f367 78bd c3e0 1bb8 849f 9b3d fb59 563c
000001e0: e1f4 52bc a268 1fbe d766 c2bd f16e 44bd
000001f0: a86e d93d 0b2e 7d3d 66f9 9bbd b3d7 613d
00000200: ebf6 813d d0f3 273e 2b7e eabc 7682 35be
00000210: 2144 13be e938 0fbe bb56 5d3d 72bf 9b3d
00000220: dda3 10bd db32 d6bd 7bba c63c b517 52bd
00000230: 3b4b 93bc 2812 5fbd faa9 a1bd d1df ccbd
00000240: ed8a 9abd 1e17 3abe 1178 873d 2d6b 9a3d
00000250: 6cd3 57bc b6db 55bd c484 2a3d d84c e8bb
00000260: 3800 13bd 68c4 d83d 23a4 6a3c 1241 3bbe
00000270: 549f 44be 1438 eebc 7a3e 06be df89 a93d
00000280: 86a4 853d 8cbd 113a f7c4 b3bc 6dea d53c
00000290: 8a5f cd3b 1914 183d 595c 5f3d 8a92 9d3d
000002a0: d83c c5bd ff0f 0e3d b558 6d3d 69e4 4c3d
000002b0: 263f a0bd 4fdd 213c fabe 0ebd d668 1e3c
000002c0: c447 8b3c bcbf 8bbd 6536 5ebd c9da ac3d
000002d0: 28cf ceba f4ce 39bc 9562 85bd fcdd 6ebd
000002e0: efab 1ebd 04fb b73c 0bea 20bd 5f5a cb3d
000002f0: c0bf d6bc 4721 93bd 999f ea3c bbcb 9cbc
00000300: 21a3 dabd c942 07bd ac66 76bc af1a 2a3d
00000310: 2899 0bbd 2629 dabd 215d 873d dbe8 113e
00000320: b94e 87bc 6eb3 7c3d 241d 09be e3a4 df3d
00000330: 4812 6f3b 20b4 d63c b1fb 00be 87a9 a5bd
00000340: b909 c53c d898 263d aa02 093d 8150 8abd
00000350: b2cb 3a3d cd3f 8b3c ef9b ec3a 0884 653d
00000360: ac2a dd3d d27b 2dbe dbc6 78b9 c166 703d
00000370: 38b8 60bc 272a b7bd a0f2 9d3d ae94 943c
00000380: acca 063e 9a3c 7dbd 3a28 823d d165 613d
00000390: 28fc 26bd 675f 76bd db43 6a3d 8e47 d7bc
000003a0: c07a 6e3c 268b 84bd b480 08bd 0e66 4bbc
000003b0: 1540 c93d 2a18 48bc 9ea5 26be 03bc c73d
000003c0: 00e8 22be 9550 1a3d b9a3 5fbd f905 d7bc
000003d0: 84e7 02bc 2e87 71bd 8569 10bd 85e1 42bd
000003e0: 874a 6c38 0145 c63d 87ab 443d a5fc 043e
000003f0: fdf6 da3c 9ebb a63d 901b e43d 182e 343d
