training/models/ppo_weights_ep_1000.pth (torch, 285417 bytes, 13 tensors)

shared_layers.0.weight f4 [128, 24]
000000 62 bf 25 be b9 52 97 3c 4c 69 4c 3d ce aa 4b be
       -0.16186288 0.018472062 0.049905106 -0.19889376
000010 f5 32 59 bd 72 cc 9e 3d df 2b fd bd 3e 34 28 3d
       -0.053027112 0.077538386 -0.12361883 0.041065447
000020 fe c2 a4 3c fa 3d 79 bd fd 1b 2f be 3f f5 57 bc
       0.02011251 -0.06085012 -0.1710052 -0.01318103
000030 fa a2 1a be 71 ac c1 3c e1 8a 18 3e 8d a6 37 be
       -0.15101233 0.023641797 0.14896728 -0.17934628
000040 c3 32 50 bd 90 10 b6 bd 15 aa 89 bd 32 6f 48 3e
       -0.05082966 -0.08889878 -0.06721894 0.19573668
000050 c5 1b a3 bd 20 09 42 be 5d eb b4 bd 96 58 05 3e
       -0.07964281 -0.18948793 -0.088339545 0.13022074
000060 2f 76 84 be 80 b2 24 3e a7 0e 05 be b7 c3 03 3e
       -0.25871417 0.16083717 -0.1299387 0.12867628
000070 a1 ec 50 3e 10 f3 a8 bd bf f0 4e 3e ad 27 ce bd
       0.20402767 -0.082494855 0.20209025 -0.10066161
000080 a0 c1 ae 3d f7 79 42 bd f7 5a 34 bd 6b 4b 2e 3e
       0.08533025 -0.047479596 -0.044032063 0.17020957
000090 2d a9 0b 3d 99 77 a4 bc b4 29 e7 bd f2 08 7e 3d
       0.034096885 -0.02007656 -0.11287251 0.06202025
0000a0 42 c3 df bd d4 cb 08 be 0d bb 7a 3b c2 de 8d 3d
       -0.10925914 -0.13359004 0.0038258464 0.06927253
0000b0 43 95 6e bd a4 aa 0e 3e f6 90 4f be a6 ee 46 be
       -0.058247816 0.13932282 -0.20270142 -0.19426975
0000c0 f9 68 9e be 00 b1 89 be 02 ae a2 3d 16 84 ce 3d
       -0.30939463 -0.26892853 0.079433456 0.10083787
0000d0 93 a6 f7 bd 62 ad 56 3d 45 1e ba bd fa cf 09 be
       -0.120923184 0.052411444 -0.09087805 -0.13458243
0000e0 c1 0d 3d 3e f5 7b 9c 3d 42 1f b8 3d 7e 7d 47 3e
       0.18462278 0.076408304 0.08990337 0.19481465
0000f0 ea f6 f4 bd 6f 98 c4 3d 9d c8 30 3e 82 a7 ae bd
       -0.119611576 0.09599387 0.17264028 -0.08528043
000100 62 88 c4 bd 06 ae 32 bd d7 7c a4 3d 60 64 27 3e
       -0.095963255 -0.043622993 0.08031624 0.16346884
000110 81 a4 56 3e a7 94 d5 3d 06 31 38 3e f0 e2 ec 3c
       0.20961191 0.10428744 0.17987451 0.028916806
000120 6b 36 5e be bb 1a 9b be 7a 55 87 bd 56 dd 36 3e
       -0.21700446 -0.3029383 -0.066081 0.1785787
000130 51 db 65 3d 55 4b 81 3e f8 77 28 be a0 61 0e bd
       0.05611736 0.25252786 -0.16452014 -0.03476107
000140 6f ef 47 3e d3 f4 16 3e 8c aa 57 bd c8 ed ec 3d
       0.1952493 0.1474183 -0.05265288 0.11568791
000150 79 ba ce 3d d7 25 30 3d 8a af f5 bd aa 97 29 3e
       0.100941606 0.043004837 -0.11996372 0.16561761
000160 99 1e 6a 3e b0 6e 56 bd b0 2a ad bd 67 f0 9a bc
       0.22863235 -0.052351654 -0.084554076 -0.01891346
000170 41 98 d6 3d 7a b2 f3 bd 43 e7 4b 3e ac bb 04 3e
       0.10478259 -0.11899276 0.19912438 0.12962216
000180 78 71 94 be 8f ef ce 3d 47 e6 1e be 5a df 01 3e
       -0.2899282 0.10104286 -0.15517531 0.12682858
000190 ba b9 59 be 59 7e be 3b f4 77 a3 3d 47 2a 1c 3e
       -0.21262255 0.0058134017 0.079818636 0.15250503
0001a0 5e 04 ec 3d 10 75 0b be 9e 4a a6 3d 65 e7 b3 bd
       0.115242705 -0.13618875 0.08119701 -0.087843694
0001b0 dc 2b c3 38 c4 2b c9 bc 78 20 60 be 42 0e fa 3d
       9.306494e-05 -0.024557002 -0.21887386 0.12209751
0001c0 6e 7c bb bd d2 2a f5 3d 9a 36 96 bd c2 5b 3b bd
       -0.091545925 0.11971058 -0.07334633 -0.045741804
0001d0 aa 11 6e 3e 0c cb 46 3c ff fb 77 3d d2 a0 0d be
       0.23248926 0.012133371 0.060543057 -0.1383088
0001e0 02 67 1c bd e8 6c 86 be b0 9d d3 bd 2c f9 f6 bd
       -0.038184173 -0.26254964 -0.10332811 -0.120592445
0001f0 c7 25 8a 3b ef 3b e0 bc 51 29 48 be ce 16 94 be
       0.004215929 -0.027372329 -0.19547011 -0.2892365
000200 52 0d 23 3e 78 53 2f 3d e2 df 51 3e eb a7 43 be
       0.1592305 0.04280421 0.20495561 -0.19107024
000210 48 06 37 bd 6e 44 60 be cc 96 6b 3e 5d 16 0b 3e
       -0.044683725 -0.21901104 0.23006743 0.1358275
000220 fc 30 56 be 01 84 10 be a8 41 0b 3d 20 dc 8c bd
       -0.20917124 -0.14112855 0.03399816 -0.06877923
000230 30 aa 98 bd bd 30 3b 3e 15 72 8c bc 93 af d6 bd
       -0.07454336 0.18280311 -0.017144242 -0.10482707
000240 ad 74 d9 bd 7b 89 b8 be b9 ac 4d be 7b a2 f4 3d
       -0.10617957 -0.3604239 -0.2008542 0.11945053
000250 93 f0 4e be 05 21 9a bd 57 c9 f7 bb 9a ea b8 3d
       -0.2020896 -0.07525829 -0.0075618434 0.09029122
000260 04 ff 82 be 69 9b c7 3d e5 4d db bd 4d 83 da 3d
       -0.25585186 0.09746439 -0.107082166 0.10669575
000270 f2 d4 71 3d 47 de 2b be 8c cd 14 3e db 52 c7 3d
       0.05904097 -0.16784011 0.14531535 0.097326
000280 3b 97 8c 3b e9 96 1d 3e e9 8d 96 3c 9c ae b9 3d
       0.004290489 0.15389599 0.018378215 0.09066507
000290 6f fd 11 3c 94 7a e9 bc 33 0d 96 3d da 90 ff bd
       0.008910521 -0.028500833 0.07326736 -0.124788
0002a0 23 fc f4 bd 50 ca 0e be ad e7 08 be 83 ce d4 3d
       -0.11962154 -0.13944364 -0.13369627 0.103909515
0002b0 0b f8 7c 3e 66 6e f8 bc ca f8 90 3d f7 2f c4 3d
       0.24703996 -0.03032608 0.07078703 0.09579461
0002c0 3d 7d 9a 3d 18 8b eb bd c3 c4 09 3e b8 dc a1 3d
       0.075434186 -0.115011394 0.13453965 0.07903427
0002d0 37 06 53 bd 63 da 86 bd 09 24 f3 bd f6 92 08 be
       -0.0515196 -0.06584623 -0.118721075 -0.13337311
0002e0 83 d9 05 be 5b 13 86 be 8d 83 36 be 1b 67 3a be
       -0.13071255 -0.26186642 -0.1782362 -0.18203394
0002f0 29 1b e6 bd 4c e4 01 3d ce bb a4 3c 12 52 ee bd
       -0.11235649 0.03171186 0.020109084 -0.116367474
000300 b9 94 eb 3b b8 f2 d4 3d 47 29 28 be ec d5 08 be
       0.00718936 0.103978574 -0.16421996 -0.13362855
000310 ad 78 2b 3e 48 88 23 3e 09 36 e6 bd ab d8 78 bc
       0.16745253 0.15969956 -0.11240775 -0.015188376
000320 23 61 c5 bd a6 87 0f be 79 48 2f be d7 77 44 bb
       -0.09637668 -0.1401659 -0.1711749 -0.0029978657
000330 0e b1 a3 3a 03 c7 01 3c 6c 51 9a bd 64 c8 a3 bd
       0.001248868 0.007920983 -0.07535061 -0.07997206
000340 1e 81 b6 bb 14 af 27 bd b1 ee a8 bc bf 8b fd 3d
       -0.005569591 -0.040938452 -0.02062163 0.1238017
000350 6e 9a aa 3d 35 36 85 bd dd 9c 3c be 25 45 40 be
       0.083302364 -0.0650448 -0.18419214 -0.18776377
000360 1d 3e b4 be e7 f0 b0 bd 9a b7 b5 bd 91 ae 77 3d
       -0.3520364 -0.086396985 -0.0887291 0.060469214
000370 26 9c 85 be 41 99 48 be d9 43 78 bd 12 33 16 3d
       -0.26095694 -0.19589712 -0.06061158 0.0366698
000380 08 df 19 3e f1 7d 4f be f7 1f 27 3e ef 93 76 be
       0.15026486 -0.20262887 0.16320787 -0.2407987
000390 bd b9 c6 bd 38 73 08 3e f2 ca de 3d 4e 72 27 3e
       -0.097033955 0.13325202 0.108785525 0.16352198
0003a0 c4 56 d0 bd 20 f4 08 be d0 c8 d4 3d 4a 1c 27 bc
       -0.10172799 -0.13374376 0.103898644 -0.010199616
0003b0 02 f4 84 3c 58 94 af bd e7 10 18 3e 2b 5a 0a 3e
       0.016229633 -0.08573216 0.14850198 0.13510959
0003c0 9f 97 b3 3d 28 a0 4e be 2e 52 40 bd 85 d2 20 be
       0.08769154 -0.20178282 -0.046953373 -0.15705307
0003d0 d8 61 e5 3d 54 d3 52 be 35 91 24 be e1 74 03 be
       0.11200303 -0.20588428 -0.16071017 -0.12837555
0003e0 3d 03 53 bd 2b 8f 49 be d0 cb 9f 3d 5c c9 15 3e
       -0.05151676 -0.1968352 0.07802546 0.14627594
0003f0 d1 a8 0e 3e 81 69 09 3e c6 4c 1a 3e 70 89 82 bc
       0.13931586 0.13419153 0.15068349 -0.015934676

shared_layers.0.bias f4 [128]
000000 9f d2 b2 3d cb 55 81 3c 8b 7a 95 3c c2 5e 0a be
       0.08731579 0.01578798 0.01824691 -0.1351271
000010 2f ef 11 3e 1b 68 d8 3d 4a 8a 75 bb ba 3e 23 3e
       0.14251398 0.105667315 -0.003746646 0.15941897
000020 2b 4d 5f bc 41 bb 6d 3d 8a e3 b5 3d a5 c0 5a be
       -0.013629238 0.058039907 0.0888129 -0.2136255
000030 7f 23 65 3c 85 b2 35 be 80 31 80 3e 0d 0b 14 be
       0.013985514 -0.17743881 0.25037766 -0.1445734
000040 cb 6d 47 bd 75 7b 1f 3d 3b d1 9a bd 3c 8b a6 bc
       -0.04868869 0.038936097 -0.07559439 -0.020330064
000050 50 fd e9 bd 95 87 c7 bc 94 08 c6 bc 2b f7 db bd
       -0.11425269 -0.024356643 -0.024174012 -0.10740503
000060 55 1d 52 3e 7d 64 57 3e d4 1b 05 3e 6d a6 67 be
       0.20519002 0.21034427 0.12998897 -0.2262208
000070 75 14 56 bc 40 d1 a7 3c 60 bc 9d 3d 7a a1 56 3e
       -0.013066401 0.02048552 0.07701945 0.20960036
000080 d4 dc 31 bd 66 23 f1 3d 77 68 33 3e 4f b5 c9 3d
       -0.04342349 0.1177433 0.17520319 0.09849035
000090 30 f1 70 be 52 8e 8d 3d d4 69 dd bb 8c a8 12 be
       -0.23529506 0.06911911 -0.0067570005 -0.14322108
0000a0 30 ea b0 bd df 1c 2a be 3a c6 32 3e ea b1 36 be
       -0.08638418 -0.16612576 0.1745843 -0.17841306
0000b0 47 71 46 be 9c 36 b0 bd 98 d8 fd bd a3 18 a2 3d
       -0.1937915 -0.08604166 -0.123948276 0.07914855
0000c0 74 68 07 3e 4e 58 dc bd bd 15 bb bd a1 51 07 be
       0.1322344 -0.1075903 -0.091350056 -0.13214733
0000d0 94 c9 86 3d a8 7f f2 3d e1 1f 1f 3e b1 5b 55 be
       0.06581417 0.11840755 0.15539505 -0.20835759
0000e0 18 ea 48 be c0 4d 87 3d 60 d5 bc 3d b2 27 29 be
       -0.1962055 0.066066265 0.092203856 -0.16519049
0000f0 a2 31 0f 3e 39 7c 46 bd 2f 91 09 3d 86 ad 0c 3e
       0.13983777 -0.04845831 0.033585723 0.13738069
000100 c2 b1 01 be 40 bf df 3d 55 06 97 3d b0 44 62 3d
       -0.12665465 0.1092515 0.073742546 0.055241287
000110 65 78 b3 bd c7 3e 63 3d 33 ab e6 bd ad 4a 9d 3d
       -0.08763198 0.05547979 -0.112631224 0.07680259
000120 d7 2e 67 3e 77 6f 32 3e ce 56 28 be da 3d 55 be
       0.22576462 0.17425333 -0.16439363 -0.20824376
000130 13 4d 07 be 46 01 fe 3d 4d 40 85 bc 37 54 22 be
       -0.13212995 0.12402587 -0.016266013 -0.15852438
000140 7a 0f 8d bd f9 1f 1d 3e 48 48 2d be a8 4e ea 3d
       -0.068877175 0.15344228 -0.16922104 0.11440784
000150 05 79 e0 3d 26 c5 10 be 6f 16 eb 3d 18 ae ff bd
       0.10960583 -0.14137706 0.11478888 -0.124843776
000160 74 ba ae 3d 8d 3a 1d be f9 62 f8 3d 44 c3 33 3e
       0.08531657 -0.15354367 0.121282525 0.17554957
000170 8d 0b 16 bd 7b fe 3f 3e 54 ad ea bd b3 a3 1c be
       -0.03663211 0.1874942 -0.11458841 -0.15296821
000180 5e be 0e be 4e e2 c6 bc 08 c8 0b 3e 5d 3b 0a bc
       -0.13939807 -0.024277832 0.13650525 -0.008437005
000190 0c 28 38 be 7a 13 be 3c 63 f1 fc bb be cc 67 be
       -0.17984027 0.023202647 -0.007719205 -0.22636697
0001a0 62 0f 65 bd 72 b8 b9 3c f7 42 62 3d 83 9a 28 3e
       -0.055922873 0.022670958 0.055239644 0.16465192
0001b0 7b b9 30 be 5b 78 b0 3d 5f 34 a0 bd d8 36 e4 3d
       -0.17258255 0.08616706 -0.07822489 0.11143273
0001c0 36 e8 83 3c ce b4 0f be b2 8f ba bd f7 a5 2c be
       0.016101938 -0.14033815 -0.09109439 -0.16860186
0001d0 f7 e6 07 be b6 69 61 be f6 f4 c5 3d 27 5f 22 3e
       -0.132717 -0.22012982 0.09665863 0.1585661
0001e0 46 b4 3c be c9 fc 2d bd 71 a9 19 3e e6 ad c1 bd
       -0.18428144 -0.042477403 0.15006043 -0.094569966
0001f0 d7 18 22 be 7d 0e a3 3b fa 2b 18 3e 05 c1 55 be
       -0.15829788 0.0049760924 0.14860526 -0.20874412

shared_layers.2.weight f4 [128, 128]
000000 97 2a d6 3c 77 55 2c 3e 88 5d d6 3c f1 09 9e 3c
       0.026143355 0.16829477 0.026167646 0.01929185
000010 31 a4 82 3d df 6d e2 3c a8 8e 78 bc af ed c0 bb
       0.06378973 0.027640281 -0.015170731 -0.005887709
000020 b6 32 2b bd 5c 99 02 3e d1 b6 24 bd 79 1e 09 bd
       -0.04179641 0.12753814 -0.04021341 -0.033476327
000030 6e c0 58 bd 28 e2 2f 3d cb 09 74 3d b6 72 89 3c
       -0.05291789 0.04294029 0.05957965 0.016778331
000040 f8 e2 6e bd d4 77 17 3e 3b 94 e1 bd 5b b2 31 3d
       -0.058321923 0.14791805 -0.11014601 0.043382984
000050 18 ee 09 bd ad 86 26 3e fa 34 0e bd 4e bb d2 3c
       -0.03367433 0.16262312 -0.03471849 0.02572408
000060 e4 85 00 be a0 dd d1 bd dd b5 04 bc 00 96 c3 3d
       -0.12551075 -0.1024735 -0.0081 0.095500946
000070 a1 72 a8 bc 11 55 dd 3d 3e 13 96 bd 77 d6 d8 3d
       -0.020562472 0.10807241 -0.07327889 0.10587781
000080 05 f3 1d 3c e8 7b f4 3b e2 e6 bb 3c 72 1e 1f bb
       0.00964046 0.00746106 0.022937242 -0.0024279621
000090 5c ec cb bc 3d 01 8d bd 85 79 09 3d 0c d1 8c 3c
       -0.024892978 -0.06885002 0.033563156 0.017189525
0000a0 55 eb b0 bd f6 36 85 3c c4 36 ba 3d d4 6b 9f 3d
       -0.08638636 0.016261559 0.09092477 0.077842385
0000b0 a7 d9 84 bd a0 a9 8c bd 91 68 ee 3c a2 4e d5 3c
       -0.064868264 -0.06868291 0.029102596 0.026038472
0000c0 0a 0a 60 3c d1 ff cf 3d 67 27 56 3c 0c 84 80 bc
       0.0136742685 0.10156215 0.013070918 -0.015687965
0000d0 45 a9 a3 ba ff fa 04 be 99 cf 34 3b 65 8d c2 bd
       -0.0012486359 -0.12986372 0.0027589558 -0.09499625
0000e0 cc a2 8e 3c 64 52 a3 3d fa 31 78 bc 51 77 54 3a
       0.017411612 0.07974699 -0.015148634 0.0008104938
0000f0 61 4c bf 3c c4 cc 31 3b c5 8c 33 bd de b2 1c bc
       0.02335185 0.0027130106 -0.04383542 -0.00956413
000100 79 85 08 3d da bd 55 bc e2 f4 a1 3c 58 52 96 3d
       0.033330414 -0.013045752 0.01977009 0.073399246
000110 91 01 84 bd 67 7e ac bd 1b b9 42 3d 2a 76 13 3c
       -0.06445611 -0.08422547 0.04753981 0.0090003405
000120 d9 54 1b be 28 8b 83 be 5d 68 a4 bc 2e ec 17 bc
       -0.15169086 -0.25692105 -0.020069296 -0.009272618
000130 da 27 64 bd df 5e a6 bd 4b 48 2d 3e 93 c3 58 bd
       -0.055702068 -0.08123564 0.16922109 -0.05292089
000140 26 b5 18 3d fd 01 cd bd ea 88 70 bd a3 f4 c9 3d
       0.03728213 -0.10010145 -0.05872432 0.09861114
000150 cb 23 d8 3d 30 a1 d4 bd d9 57 23 3d 53 6b b7 bd
       0.10553702 -0.103823066 0.0398787 -0.08956017
000160 65 72 9a bc db 67 fc 3d 78 13 4c 3c 80 ca 25 3d
       -0.018853376 0.12324496 0.012455814 0.040476322
000170 22 0b b9 bd 36 45 37 3d 7c 06 93 bd 9f 7f 44 3d
       -0.090353265 0.04474374 -0.07178971 0.04797327
000180 d3 9a 0a bd 8d 9c aa bd 6a fa cd 3c 81 aa f3 3c
       -0.033839058 -0.08330641 0.02514382 0.029744389
000190 d5 07 72 3e ae cb e7 bd aa 6f dc bc 50 39 88 bc
       0.236358 -0.11318146 -0.026908714 -0.016628891
0001a0 30 07 b3 3d 4a f7 97 3c d1 e5 6e bc 80 ef aa 3c
       0.08741605 0.018550534 -0.01458116 0.020866156
0001b0 0c 0c 18 be 03 55 7b bd 14 88 04 3e e6 9c 45 3d
       -0.14848346 -0.06136037 0.12942535 0.048245333
0001c0 23 7b e9 3d 69 00 c2 3a 45 3e 70 bd 8a 7d b4 bd
       0.114004396 0.0014801148 -0.058653135 -0.08813007
0001d0 a9 e4 b1 bc 71 b4 4b 3e 56 c5 1a be d7 e6 f0 bd
       -0.021715479 0.19893052 -0.1511434 -0.11762779
0001e0 ff 41 64 3d f0 a8 85 3b c6 b3 26 bd 09 02 71 3d
       0.055727 0.004078977 -0.04069879 0.05883983
0001f0 5c ce 4b bc ca 1d 54 bc 6f 98 b9 bd f7 35 d3 bd
       -0.012439337 -0.012946555 -0.090622775 -0.10313027
000200 6a 81 92 bc 37 4e 9e 3d 09 13 c7 bd 79 59 6c be
       -0.017883975 0.07729762 -0.097204275 -0.23081006
000210 4d 0a 07 3d 67 1d e3 3d e8 4f 89 bd 36 c1 05 3e
       0.032968808 0.110895924 -0.06704694 0.13061985
000220 f3 12 29 3d 31 3c 30 3d 8d a8 06 bc 9b 19 0c 3d
       0.041277837 0.043026153 -0.008218897 0.034204107
000230 1c 1b dd 3c 4e 94 75 3d e3 80 ad bc 54 6b eb 3d
       0.026990466 0.059955887 -0.021179622 0.114950806
000240 4c 00 b9 bd bb 6d c1 3d 9a 13 18 3d 24 8c 14 be
       -0.0903326 0.094447576 0.03712807 -0.14506584
000250 94 28 3c 3c 3f c4 33 bd 5e a8 6e bd 83 d2 4d be
       0.011484284 -0.043888327 -0.058266036 -0.20099835
000260 a5 e7 ea 3d a7 bf 99 3d f1 55 d9 bd d1 55 85 bd
       0.11469964 0.07507258 -0.10612095 -0.06510509
000270 42 3c de bd 1d 56 87 3d 3d 71 e0 bd 8f 45 19 3e
       -0.10851337 0.06608222 -0.109590985 0.14967941
000280 04 48 a7 bd 3b c2 f3 bd af 6d c4 bc 25 fe 28 3d
       -0.08168033 -0.11902281 -0.023978082 0.041257996
000290 91 05 8a 3b a3 4a a1 3d 02 10 a9 bd c2 b9 41 be
       0.0042120893 0.07875564 -0.082550064 -0.18918517
0002a0 9b 62 7f 3d 82 4a 67 3d e8 db 96 bd e0 e7 f6 bc
       0.062349897 0.05646754 -0.073661625 -0.030139863
0002b0 97 a1 f5 37 2f db 82 bd 12 3e 84 3d cc 97 96 3d
       2.9281522e-05 -0.06389462 0.064571515 0.07353172
0002c0 c3 e5 e5 3c 82 63 c2 3d c1 ca 01 bd 70 e2 01 3e
       0.02806366 0.09491636 -0.0316875 0.12684035
0002d0 ea 30 86 3c ec 9c 39 bd a9 b1 c2 3b 5c db ae 3d
       0.016380746 -0.045315668 0.005941589 0.08537933
0002e0 0b 77 3b bd 16 5e 86 3c c8 7c 0f 3e 07 ee 44 3e
       -0.045767825 0.016402286 0.14012444 0.19231425
0002f0 b2 17 b2 3c db 43 ef 3d 60 f1 ca bc 0e 0b 8c bc
       0.021739814 0.11682864 -0.0247733 -0.017095115
000300 aa 89 d4 bc 47 88 36 3d 2e 41 ae 3d 76 04 ff 3c
       -0.02594455 0.044563558 0.08508526 0.031130057
000310 2e be fb 3d b2 f6 c2 bd fe 9e 8a bd 96 7e 2c 3d
       0.12292133 -0.0951971 -0.067686066 0.04211291
000320 db ff 25 bd 23 6e 3a bd 17 da 95 bd 5d 53 2d 3d
       -0.040527206 -0.04551519 -0.07316988 0.04231583
000330 ac 2c 44 3d 42 5f cb bd ed 53 38 3d b5 3d 54 bd
       0.047894165 -0.09930278 0.045001913 -0.05181666
000340 87 3e ac 3d 56 fc b4 bd 31 88 35 3d f0 f4 2d bd
       0.08410364 -0.08837192 0.044319335 -0.04246992
000350 86 27 5b bc bd e9 1d be c1 6b 26 3d 6a 1e 58 3d
       -0.013376122 -0.15421195 0.040630106 0.05276338
000360 ad dc 6a 3c e8 4a 36 be 0c 74 19 3c 49 56 8f bd
       0.01433484 -0.17802012 0.009366047 -0.069988795
000370 6e 64 bf bd b3 50 25 3d 4c da dc 3c 6f b9 d4 3c
       -0.09345327 0.040360164 0.02695956 0.025967328
000380 fa ad c5 3b 03 90 41 bd 07 01 4a 3d e3 8a 75 3d
       0.0060327025 -0.04725648 0.049317386 0.059946906
000390 81 4a e1 3d 79 93 d3 3d 78 bf 93 3c 09 c4 08 3d
       0.110005386 0.103308626 0.018035635 0.03339008
0003a0 d5 cb ab bc 4f 1c c2 3d f4 fe c5 bc b9 fe ea 3c
       -0.020971218 0.09478056 -0.024169423 0.028685914
0003b0 55 e9 9d bd 46 d6 95 bd 97 1b fb 3d 64 8a 0d 3d
       -0.0771052 -0.0731626 0.12261122 0.034555808
0003c0 34 37 09 3e 6b 76 8a 3c e5 df 94 3d e2 b7 66 bc
       0.13399965 0.01690217 0.07269267 -0.014081927
0003d0 c3 a9 1c bd 61 55 4f bd 54 c9 69 bd 4c c9 8b bd
       -0.038247835 -0.050618533 -0.057076767 -0.06825504
0003e0 2e 1d 92 3c ce 9f 68 3d de f2 84 bb 6e 4b b3 3d
       0.01783618 0.056793027 -0.0040572723 0.087546214
0003f0 d6 8e 5a 3c b1 5e 3f 3d 3a d1 d9 bc dd 7a bb bc
       0.013339719 0.046721164 -0.026589025 -0.022885734

shared_layers.2.bias f4 [128]
000000 94 b0 9e bd 41 10 77 3d 1f 85 08 3d 0c ad a4 bd
       -0.07748523 0.060318235 0.03333008 -0.080408186
000010 75 ee 88 bb 2c 49 91 bd 49 8c c8 3c 02 87 a1 3b
       -0.004178817 -0.070940346 0.024480956 0.0049294243
000020 08 ac 55 bd 61 1e b2 3d 86 18 6d bd 0b c3 98 3d
       -0.052166015 0.086972006 -0.057884715 0.074590765
000030 c4 77 b9 3d 34 c1 f4 3c f2 aa ad 3d ce 4c 6a bd
       0.090560466 0.029877283 0.08479871 -0.057202153
000040 a3 c4 04 bd 14 e3 c9 bb 71 bf da 3c a7 69 e1 bc
       -0.03241409 -0.006161103 0.026702615 -0.0275162
000050 d0 58 9a 3d 8e 23 e7 bc a8 3f e6 bc 72 e2 9e bd
       0.07536471 -0.028215196 -0.028106526 -0.07758035
000060 6a ec 04 3d 1d 4e cc bc c6 94 43 3d f7 71 99 bd
       0.032452025 -0.024939591 0.047749303 -0.0749244
000070 79 f6 2b bd fb 03 c4 3b 23 c1 87 bd d4 e4 0e 3d
       -0.0419831 0.00598192 -0.06628635 0.034886196
000080 66 03 6a 39 1b 41 0f 3d b1 89 cf bd 00 c5 06 3d
       0.00022317245 0.0349742 -0.101336844 0.032902718
000090 0c 64 a7 bd fe 1d 45 bd 46 36 d2 bc d1 47 52 bc
       -0.08173379 -0.048124306 -0.025660645 -0.012834505
0000a0 b6 c5 c2 bc 72 48 d4 3b da d9 cd bb b4 c3 8e 3d
       -0.023775917 0.0064783627 -0.0062820734 0.06970921
0000b0 a5 83 11 bc 71 a3 ea bc 01 4e a5 3c 29 35 ce bd
       -0.008881484 -0.028642388 0.020178797 -0.10068733
0000c0 3d cd b8 3b d1 55 15 3c 37 3f c9 bd c5 b4 a6 3c
       0.0056397007 0.0091146985 -0.098265104 0.02034987
0000d0 12 b1 47 3b 05 c9 38 bd 6b 03 e2 3d a2 08 9e 3c
       0.0030470532 -0.045113582 0.11035808 0.019291226
0000e0 65 bb 33 3d f0 0e 18 bd 6f b7 99 bd 85 0b c6 bc
       0.043879885 -0.03712362 -0.0750569 -0.024175415
0000f0 74 23 ac bc 59 1f 4f bd fb 3b 68 bb 03 2f 2e bd
       -0.021013 -0.050567005 -0.0035436142 -0.042525303
000100 44 32 32 3c cb 2e 8d 3d 60 ec 46 3d 42 75 6b bc
       0.010876242 0.06893691 0.04856527 -0.014371218
000110 ef be c3 3d 49 5a e5 bc ca 59 ff 3c 27 6f 89 3d
       0.09557902 -0.027997153 0.031170744 0.06710654
000120 88 eb de bc fd a5 48 bb 39 21 88 bd 00 29 94 bd
       -0.02721192 -0.0030616515 -0.06646962 -0.07234383
000130 a7 6f 16 3d e8 02 cc bc 8a dd b6 bd 0f 7b a3 bd
       0.036727574 -0.02490373 -0.08928974 -0.07982456
000140 95 22 43 bc ee 4d f1 bd 65 64 13 bc 29 c7 65 bd
       -0.0119101005 -0.11782442 -0.008996104 -0.056098137
000150 7f d6 67 3c ab 53 41 bd ef f3 42 3d 99 0d 94 3d
       0.014150261 -0.047198933 0.047595914 0.07229156
000160 60 8e 07 bd 61 b5 80 bd fe a4 37 bd bc 09 f5 bc
       -0.033094764 -0.06284595 -0.044835083 -0.029911868
000170 b8 d0 cb bc 4a 2a 68 3d 69 7a 54 bc 50 ca 2d bd
       -0.024879798 0.056680955 -0.012968638 -0.04242927
000180 0c 2d 9c bd 33 c0 28 3b 60 39 a6 bc 92 f3 99 bd
       -0.076257795 0.0025749325 -0.02029103 -0.075171605
000190 cb a9 46 3d 05 27 8b bb 7e ff 5f 3d ff 47 94 3b
       0.04850177 -0.004246595 0.054687016 0.004525184
0001a0 3d 21 b5 bd bc 31 b0 bd 49 6d d8 3c f3 e3 9e bd
       -0.0884423 -0.08603236 0.026419299 -0.077583216
0001b0 f9 9a 02 3c 26 d4 20 3b a1 8d 97 3c 85 5e af bd
       0.007971519 0.0024540513 0.018500151 -0.0856295
0001c0 85 63 a2 3c 51 75 ed bc b1 a6 0e 3c 3d 55 f9 bc
       0.019822845 -0.028986605 0.0087067345 -0.030436153
0001d0 2b d1 62 3d 5f 37 14 3d ab 4c a1 3b 85 d5 31 3b
       0.05537526 0.03618562 0.0049224696 0.0027135324
0001e0 e7 ff 33 bd 97 62 70 bd 06 cf d9 3b 25 12 b5 3d
       -0.04394522 -0.058687773 0.0066469936 0.088413514
0001f0 fe 5f c3 3d 84 2a d9 3c 1d c0 71 bc d4 7a 9a bd
       0.095397934 0.02650953 -0.014755276 -0.07542959

shared_layers.5.weight f4 [128, 128]
000000 cf 80 ba bc 76 a3 0e be a4 3e 8b 3d 9e 4c 8e 3c
       -0.022766499 -0.13929543 0.06799057 0.017370518
000010 84 65 3c bd ef aa 29 3c 81 29 8c 3c a1 ac 7a bd
       -0.04599525 0.010355695 0.017109634 -0.061199788
000020 c1 ee a5 bc 6b dd 49 bd 8c 04 0b be 6e ac 38 be
       -0.020255448 -0.049283426 -0.13575953 -0.18034527
000030 3c 36 ec bb 14 71 19 be 53 bb 25 3d 21 a4 10 3e
       -0.0072086137 -0.14984542 0.04046185 0.1412511
000040 f4 c6 f2 bc 8d af a0 bd e5 b9 10 3d d5 4f 16 be
       -0.029635884 -0.07845984 0.035333533 -0.14678891
000050 80 54 3b 3d e8 ee e2 bd 06 d7 f7 bd 6d 70 b6 bc
       0.045734882 -0.11080724 -0.12101559 -0.022270406
000060 32 c3 e2 3d 3b 66 81 3c ab e9 37 3d 37 22 ac 3d
       0.11072387 0.015795818 0.044900578 0.084049635
000070 08 03 12 3d 9e 40 81 bd d7 81 f7 3d 94 ab ed 3d
       0.035647422 -0.06311153 0.12085312 0.116049916
000080 84 90 a4 3d f7 70 7c 3d 26 fe a2 3d 55 02 13 bd
       0.08035377 0.06163117 0.07958631 -0.035890896
000090 ab 01 c8 3c ab b5 92 3d 97 05 28 3c f9 c3 10 3d
       0.024414858 0.07163557 0.010255239 0.035343144
0000a0 85 8c 84 3b 67 0b b6 bc b4 9c 6d bd ba d5 00 be
       0.0040450715 -0.022222234 -0.058010772 -0.1258153
0000b0 d2 d2 89 bd 32 b0 3e bd e5 b4 06 be 54 29 9b bd
       -0.06729664 -0.04655475 -0.13154943 -0.07576242
0000c0 b4 76 0d bd e3 dd 91 bc fc 9a 83 3d 48 79 06 bd
       -0.034537032 -0.017806 0.06426045 -0.032830507
0000d0 a0 44 8a 3d 17 53 16 bd 94 36 94 bd d3 0c f5 bd
       0.067513704 -0.036700334 -0.072369725 -0.11965337
0000e0 9b 16 eb bd 16 20 ce 3c 9a b8 a0 bd bb f4 63 bd
       -0.11478921 0.025161784 -0.0784771 -0.055653315
0000f0 40 91 54 bd 7f 40 f1 bd 68 d7 22 bd df 80 44 bc
       -0.051896334 -0.1177988 -0.03975621 -0.011993616
000100 36 9f a5 3d 7d 2d df bd a6 46 5c bd 2f 63 94 bd
       0.08087008 -0.10897348 -0.053778313 -0.0724548
000110 41 da 32 be 10 6f be 3d 8f b2 8c 3d ef 27 58 3c
       -0.1746607 0.09298527 0.06869995 0.013193115
000120 d2 79 a1 bc 52 2e 8e bc 99 0a 42 3d cc e1 05 3d
       -0.019711409 -0.017356072 0.047373388 0.03268604
000130 cb a5 88 3d ec ae 70 bd 6e d0 91 3d 58 a7 84 3d
       0.066722475 -0.05876057 0.07119833 0.06477231
000140 bc 8e 8a bd c8 35 8f 3c 45 95 e5 3c 06 af c0 bc
       -0.06765506 0.0174817 0.028025279 -0.023520958
000150 cb b5 87 bd a6 53 46 3d bb 47 d3 bd 77 0e 76 bd
       -0.06626471 0.048419617 -0.10316416 -0.06007239
000160 a7 5e d6 bd a0 94 0f 3d c3 a8 8e bd 73 12 97 bd
       -0.10467272 0.03505385 -0.069657825 -0.07376566
000170 43 aa f2 3c 27 7a ed bc 95 04 81 3d 9f bc 2e bc
       0.029622203 -0.02898891 0.06299702 -0.010665088
000180 97 b3 12 bd 50 ea dc 3d 0a 8f 4a 3d d8 be 67 3d
       -0.0358158 0.10786879 0.04945282 0.056578487
000190 1d e0 fa 3c 78 a3 ea bc f6 37 9a bd 2c ea 9a bd
       0.030624444 -0.028642401 -0.07530205 -0.07564196
0001a0 ac 8d 7c 3d 0a 65 a8 bd 3d ec f2 3c a2 46 dd 3d
       0.061658546 -0.08222397 0.029653663 0.10804488
0001b0 2a f1 dc 3c 42 ac 55 bd 06 de f2 3c 48 c3 a5 3d
       0.026970465 -0.05216623 0.029646885 0.080938876
0001c0 7d f0 b5 3d fa 61 e5 bc d2 df b9 bd ef e6 aa 3d
       0.0888376 -0.02800082 -0.090758935 0.08344828
0001d0 13 36 0c be 79 49 07 be 25 45 d5 bd bb 9d 51 be
       -0.13692503 -0.13211621 -0.10413579 -0.20470326
0001e0 f4 85 3d bd 17 62 3e 3d 37 a8 5c 3c 09 38 0b be
       -0.046270326 0.046480265 0.01346784 -0.13595594
0001f0 c9 3b 35 bd 8e ec 1a be 84 6c 23 3c 07 e9 6b 3d
       -0.04424647 -0.15129301 0.009974603 0.05759528
000200 9b 65 64 3d e3 29 b3 bc d2 9a a4 3d a0 04 dc 3d
       0.05576096 -0.02187056 0.08037342 0.1074307
000210 ca c9 5f 3d 01 ad 38 bd 7c f8 9b 3d 1c 6b 29 bd
       0.0546358 -0.045086864 0.07615754 -0.041361913
000220 7d ed 22 bd a2 2f ff bc 17 e1 e3 3d cf c6 f2 bc
       -0.039777268 -0.031150643 0.11126917 -0.029635815
000230 ae 40 53 bd 14 d0 7b 3d 8a 5b b7 3c 9b 0f cd 3b
       -0.051575355 0.061477736 0.022382516 0.006257964
000240 77 1b e2 ba ec 4a e3 bd 13 b1 b3 3d e9 71 13 bd
       -0.0017250617 -0.110982746 0.087740086 -0.035997305
000250 83 f0 8f 3d 82 4e 36 bd 34 9e b2 bc e3 50 06 bd
       0.07028296 -0.044508465 -0.021803953 -0.032791983
000260 c1 18 31 bd 69 f4 43 bd 20 8a 17 be a5 67 b3 3c
       -0.043236498 -0.04784051 -0.14798784 0.021900008
000270 4a cf 2c 3d ab 81 da 3c 96 9f be 3c 66 99 02 3d
       0.042189874 0.026673159 0.023269456 0.031884573
000280 68 15 90 3d c2 9a d5 3d 06 e6 2b 3c 79 79 17 bd
       0.07035333 0.10429908 0.010491854 -0.03698108
000290 9e 48 e6 3c ee 8d 8a 3d ae 4f 94 bd c9 ac 3c 3c
       0.028110798 0.06765352 -0.0724176 0.011515805
0002a0 c7 65 8d 3d 67 e1 5b 3d b7 ce 1e 3d 0a 59 9d 3c
       0.06904178 0.053681757 0.038771357 0.019207496
0002b0 65 b8 d9 bd 03 47 c9 3c 9d 86 9f 3d 90 5f 69 bd
       -0.106308736 0.024569994 0.07789347 -0.0569759
0002c0 ac fc d0 3c 47 d7 c4 bc 75 2b 2d 3d 7b 91 03 bc
       0.025511108 -0.024028433 0.042277772 -0.008030291
0002d0 f6 5d cb 3d fd bc ac 3c 73 58 80 bd 69 bd c7 3d
       0.09930031 0.02108621 -0.0626687 0.09752924
0002e0 b2 55 ff bc c2 e9 6b 3d 1b b8 ab 3d ce 2e 60 bd
       -0.031168792 0.057595976 0.08384725 -0.054732136
0002f0 14 75 f5 3d 3a 9b e9 3a 09 29 78 bd 40 76 97 3c
       0.119852215 0.001782275 -0.06058601 0.018489003
000300 8b dd 10 3c 24 ea 20 bc 0b cf 51 bd d8 6d 9d 3d
       0.008841882 -0.0098214485 -0.051222842 0.07686967
000310 80 e9 5d 3d b0 75 57 bc 0b 7b d2 bc 55 b9 8c 3d
       0.05417776 -0.0131506175 -0.025693437 0.06871287
000320 27 11 89 3a 3b c9 37 3d 53 52 1c 3d 05 6e 55 3d
       0.0010457382 0.044869643 0.038164448 0.052106876
000330 65 3f 73 3c 33 a0 ed bc 4b 92 6a bc 50 0c 28 be
       0.014846657 -0.029007053 -0.0143171055 -0.16410947
000340 21 4b 4b bc 17 6a 80 bc f2 31 e5 3b da 98 2c bd
       -0.012408049 -0.015675588 0.0069944793 -0.042137958
000350 85 d7 2d bd c6 c9 41 bb 4e 5d 6f bd 46 44 4b 3d
       -0.042441864 -0.002956973 -0.05843859 0.049625657
000360 9b db a8 3d 5c cc 43 3d 3e 46 c2 bd f9 1c 50 bd
       0.082450114 0.047802314 -0.09486054 -0.05080888
000370 12 1b 20 3d 36 56 f8 3d b7 eb a2 3a 56 aa 95 3d
       0.039088316 0.121258184 0.0012429868 0.073078796
000380 bf 93 5a bc e2 2b 78 bd 29 7e 04 3e 18 bd 45 3c
       -0.0133408895 -0.060588725 0.12938751 0.012069009
000390 99 f0 9a bd b2 2b b0 bc 80 09 d4 3c b4 f9 92 3d
       -0.075654216 -0.02150521 0.025883436 0.07176533
0003a0 09 2d f0 3c a3 a1 88 bd ec b4 28 3d 9f 57 e4 3c
       0.02931835 -0.06671455 0.041188166 0.027873812
0003b0 51 35 69 bd 14 41 f4 3c 6b 99 61 3b ec a0 48 be
       -0.056935612 0.029816188 0.003442372 -0.19592637
0003c0 2f 39 39 3d 49 25 d3 bd 2d 30 54 bd 2c e0 b8 3d
       0.04522055 -0.10309846 -0.051803757 0.090271324
0003d0 f2 25 c6 3b c6 0c 9f bd 6b 9f a4 bd ca 1b de ba
       0.006047004 -0.07766108 -0.08038219 -0.0016945538
0003e0 0c e2 e6 bd a5 fd 98 3b 4a 57 89 3d 15 aa c7 bc
       -0.11273584 0.0046689087 0.06706102 -0.024373094
0003f0 47 dd 82 bd 84 00 fe bc 04 a2 0a 3d a7 5e 35 bc
       -0.063898616 -0.031006105 0.033845916 -0.01106993

shared_layers.5.bias f4 [128]
000000 36 ee c0 3d d9 19 0e 3e b2 23 97 3d ed f3 12 3e
       0.09420435 0.13877048 0.07379855 0.14350863
000010 9f a7 9d 3d aa 22 67 3d 03 01 8a 3d fc f5 06 3d
       0.07697987 0.056429543 0.06738474 0.032949433
000020 c0 1e 52 3e 08 8e ef 3d 4b 31 cd 3d 42 00 c7 3d
       0.20519543 0.11697012 0.100191675 0.09716846
000030 05 a2 58 bd ea 08 53 3e ca 85 02 3e cc 15 29 3d
       -0.05288889 0.20608869 0.12746349 0.041280553
000040 e5 d7 08 3e 45 50 f9 bb 36 d9 36 3e 65 a1 56 3e
       0.13363607 -0.007608446 0.17856297 0.20960005
000050 88 fc a7 3d 9e d7 ab 3c de 6e d6 3d fd 9e cc 3d
       0.082024634 0.020976838 0.10470365 0.09991262
000060 29 4c f8 3d fd 41 96 3d f9 0d d7 3c 3c 1c 8c 3d
       0.121239014 0.07336805 0.02625178 0.06841323
000070 ae 40 3c 3e c6 39 6c bd e9 a4 96 3d 5e 74 48 3e
       0.18384048 -0.057672285 0.07355673 0.1957564
000080 86 11 b7 bd d5 7a 71 3d db 38 82 3e 5a a4 c5 bd
       -0.08938889 0.058955032 0.25434002 -0.09650488
000090 32 2f 75 3d bd 81 25 3e 7d 41 e9 bc dc 5d a6 3b
       0.059859462 0.16162772 -0.02847361 0.005077107
0000a0 86 c9 89 3d f2 9d 86 3d a7 c4 28 3e d5 0f 84 bd
       0.06727891 0.065730944 0.16481267 -0.06448332
0000b0 2d 19 8a 3c eb 5b 81 3d a9 9a 11 3e 09 4f b8 3d
       0.016857708 0.0631636 0.14219154 0.0899945
0000c0 80 7c 6d 3e c1 3f 67 3d 91 86 14 bd 83 8b f2 3d
       0.23192024 0.056457285 -0.036261145 0.11843016
0000d0 b3 65 cc 3d 73 a0 8b 3d d9 34 37 3d 99 d4 fc 3d
       0.09980335 0.06817713 0.044728134 0.12345237
0000e0 76 c4 8f 3d ba bc d1 3d b7 72 35 3d 96 62 0e 3e
       0.07019894 0.10241075 0.044298854 0.13904795
0000f0 e6 0d 46 bd 43 a7 5f 3c ad 20 d5 bd 02 06 56 3e
       -0.0483531 0.013650718 -0.10406623 0.2090073
000100 d9 8e 8b 3d f3 ee 47 3d 4e 40 40 bd 90 9f d3 bd
       0.068143554 0.048811864 -0.046936326 -0.103331685
000110 9d a2 70 3e 17 96 81 3d 2a a3 43 3e cd 78 0c 3e
       0.23499532 0.063274555 0.19105211 0.13717957
000120 89 81 fe 3c e3 77 06 3e c8 71 3b bd 6a 89 15 3e
       0.031067627 0.1313167 -0.045762807 0.146032
000130 13 86 0d 3e 9f c6 6c bd 9f df 77 3d c0 30 e5 3d
       0.13820677 -0.057806607 0.060515996 0.11190939
000140 45 86 2a bc 1c a2 cb bd 6c e0 c2 3c 0a 6f a2 ba
       -0.010407989 -0.09943029 0.023788653 -0.0012392711
000150 e1 f4 00 3e 47 ce 45 3d a7 5b 0d 3d 57 b2 43 bd
       0.12593414 0.048292425 0.034511235 -0.0477775
000160 59 c6 13 3e 56 33 f8 3d d9 af 27 3e b1 cf 9c bd
       0.14431132 0.121191666 0.16375674 -0.076568015
000170 53 36 ad 3d 86 06 15 3e 92 a7 f2 3d fa 93 aa 3d
       0.08457627 0.1455327 0.11848368 0.083290055
000180 51 d4 da 3c 94 b0 34 3e 0d 00 f2 3d 1c cc 6a 3d
       0.026712568 0.17645484 0.11816416 0.05732356
000190 52 c9 49 3e 18 62 cd 3d 00 95 27 3e 1e 84 76 3d
       0.19705704 0.100284755 0.16365433 0.06018459
0001a0 05 17 05 3e 5d 75 85 3e ec 83 cf 3b 69 f4 5d 3d
       0.12997063 0.26066104 0.006332865 0.054188166
0001b0 85 4a 1e 3e 4b dc d1 3d b8 2e a1 3d b9 0f 66 3d
       0.15458114 0.10247096 0.07870239 0.056167338
0001c0 3b 3a 0d 3e 94 3d d3 3d 8c ac 12 3e 18 23 f9 3d
       0.13791744 0.103144795 0.14323634 0.12164897
0001d0 af 8c 04 3d d9 13 01 3e 1d 8b e3 3d 4a 98 fe 3c
       0.03236073 0.12605228 0.11110518 0.031078476
0001e0 34 16 5f 3d a7 0d d7 3d c0 91 7e 3d 29 36 16 3e
       0.054464534 0.10500651 0.062150717 0.14669098
0001f0 a7 9a 22 bd 83 b6 c8 bd 0e 12 1b 3e f6 0a df 3d
       -0.03969827 -0.09800436 0.15143606 0.108907625

actor_head.0.weight f4 [128, 128]
000000 94 e9 2c bd 3c 24 09 be e6 46 a2 bd 50 e3 47 bd
       -0.042214945 -0.13392729 -0.07923679 -0.048800766
000010 e1 49 e9 bd b8 83 87 bc 37 d9 bb 3d 2b ff 96 bd
       -0.113910444 -0.0165423 0.0917229 -0.07372888
000020 a5 30 a1 3b 6e 0c bf bd 75 a9 9d bd 03 43 00 bd
       0.004919129 -0.09328543 -0.07698337 -0.031313907
000030 3b 11 81 bd 5b 06 a8 bd e4 bb 02 bd 29 aa 0f bd
       -0.063021146 -0.08204337 -0.031917468 -0.035074387
000040 75 66 75 3c b1 b6 b1 bc c2 00 2e 3c b5 1c d3 bd
       0.014978041 -0.02169356 0.010620298 -0.1030821
000050 03 bb ff bc 4f 16 b4 bd c2 2a a1 3d 4f 04 cf bc
       -0.031217104 -0.087933175 0.078694835 -0.02527061
000060 da 85 09 3d 4d da bb 3b e5 fa 55 bd 1e 21 ab b9
       0.033574916 0.0057328106 -0.052241225 -0.00032640336
000070 80 7a 61 bd 8a 5a 9e bd 56 0c e5 bd 20 05 28 3d
       -0.055048466 -0.07732113 -0.111839935 0.041020513
000080 06 0e 70 3a 90 77 06 3c 21 21 51 bc 14 a6 ae bd
       0.0009157363 0.008207217 -0.012764246 -0.08527771
000090 36 25 50 bb bf 71 a3 bd 5d 5c 42 bd 27 02 71 bc
       -0.003176046 -0.0798068 -0.047451366 -0.014709986
0000a0 5b 5e 29 3e 7d 3f 8c 3d b2 1e 71 bd e0 9e 95 3d
       0.165399 0.06848047 -0.058867164 0.073056936
0000b0 ea 6a 89 bc ff 5a 9a 3d 26 38 f0 bc ee 63 6e bd
       -0.016774613 0.075368874 -0.029323649 -0.05820077
0000c0 aa 79 cb bd 97 57 c0 3b 10 e7 83 3d 51 fb 76 3d
       -0.09935315 0.0058698165 0.06440556 0.060298268
0000d0 0e a3 a2 3d 0e 72 c7 3d 05 dd 36 3d 00 b3 99 bb
       0.079412565 0.09738551 0.044644374 -0.004690528
0000e0 47 83 2f bd 8b a8 59 bc 98 f1 df bb 9f 3d 05 bd
       -0.042849805 -0.013284813 -0.00683422 -0.03252947
0000f0 bf 17 87 bd 92 6f 3b 3d 66 1e 3b bd 21 64 8c bd
       -0.06596326 0.0457607 -0.045683287 -0.068550356
000100 63 4f 80 3d b5 d0 9f bb ae 18 f1 bc dd a2 f9 bc
       0.06265142 -0.0048771747 -0.029430714 -0.030473167
000110 89 67 52 3c 4f 88 f1 bc 1e d3 9c bd 23 7d b2 bd
       0.0128420675 -0.029483942 -0.07657455 -0.08715274
000120 f1 86 9f bd 4e 41 14 bd fa ad 3a bd e4 57 01 be
       -0.0778941 -0.036195092 -0.045576073 -0.12631184
000130 91 30 51 bd 7f 63 6f 3d 2b 63 1e bc b7 42 8f 3d
       -0.051071707 0.058444496 -0.009667198 0.06995147
000140 0d 2a fd bb 4f a9 87 bd d6 92 b1 ba 89 b1 5d bd
       -0.00772596 -0.0662409 -0.0013547789 -0.05412439
000150 d5 aa d1 3a 29 e0 0e bd f3 02 f3 bc d2 0f 09 bc
       0.0015996346 -0.034881745 -0.029664492 -0.008365588
000160 ec ea 9d bc 13 c5 23 bd ef 27 01 be 36 2f 8b bd
       -0.019277059 -0.039982866 -0.1261289 -0.06796114
000170 8d 85 0e 3c 9f 1c b2 bb 48 ee 8c 3c ac 8b 78 3d
       0.008698833 -0.005435541 0.017203465 0.060680076
000180 20 97 68 bd 9b 84 3f 3c b8 87 54 bd cf 21 f2 3c
       -0.05678475 0.01168933 -0.051887244 0.029557137
000190 82 9e da bd cb e4 a5 bd dd 71 30 bd 50 02 09 bd
       -0.10674764 -0.081002794 -0.04307734 -0.03344947
0001a0 67 18 37 3d 8d a6 63 3c 27 62 0e bd e7 51 f6 3c
       0.044701006 0.013894689 -0.034761574 0.030068351
0001b0 1c 5e 8c bc 4f b1 b8 bc e9 68 73 bd 6f d4 be 3d
       -0.017134719 -0.022545485 -0.059426222 0.09317862
0001c0 85 25 fb bc a5 82 21 3d 48 ef 31 bd 87 b1 c7 bd
       -0.03065754 0.039431233 -0.043441087 -0.097506575
0001d0 ba cf dc bd 0a dd 7c bc e1 5e 82 3c 8e 55 5f 3c
       -0.10781808 -0.015433559 0.015914382 0.013631238
0001e0 81 16 9f 3d 24 1c 84 bd 22 9c a4 3d 2c 7a 9a 3c
       0.07767964 -0.0645068 0.080375925 0.018857084
0001f0 26 01 f1 3c 21 ba ba 3d 4f c1 da bd e1 24 79 3d
       0.029419493 0.091175325 -0.10681402 0.060826186
000200 98 4f b8 3c a3 c3 51 bc 56 32 9b bd 52 ff 3a bd
       0.02249889 -0.012802991 -0.0757796 -0.04565365
000210 4a e7 d2 bc 5c cf 53 bd 46 16 74 bc 36 9c 6f 3d
       -0.025745053 -0.051711425 -0.0148978885 0.058498584
000220 56 e2 76 3d 45 7f 8a bd be 6d e3 3c cc 6c b4 3c
       0.060274445 -0.06762556 0.02776229 0.022024535
000230 9a a5 69 bb fb 86 d7 bd 96 b0 59 3d 1f dc b0 bd
       -0.0035651685 -0.10523792 0.05314692 -0.08635735
000240 f9 2f 90 bd 70 cb ce bb 94 be 74 3b 56 0f c3 3b
       -0.070404 -0.0063108727 0.0037345039 0.005952756
000250 47 70 a1 bc 45 16 a0 bd 67 46 85 bd 7d e7 04 be
       -0.019706858 -0.078167476 -0.06507569 -0.12978931
000260 41 67 67 3c 76 2d a0 bc 0d c8 8c bd 3f dd b1 bd
       0.014123739 -0.019552927 -0.06874094 -0.086847775
000270 8c 0c 89 bd d7 62 33 bd bc 33 82 3c ea 36 27 3d
       -0.06691846 -0.043795433 0.01589381 0.040823855
000280 86 8e a8 3d 2d 78 f0 bd 49 24 c6 3c 56 6d a3 bb
       0.08230309 -0.11741672 0.024187224 -0.004987399
000290 20 f0 56 bd e2 88 54 bd 5b 51 53 bd 2d f7 84 3d
       -0.052475095 -0.051888354 -0.05159126 0.064924575
0002a0 f2 b6 00 bd 53 95 58 3d 56 95 8b 3c 3f 3a ec 3c
       -0.03142447 0.05287678 0.017038982 0.028836368
0002b0 3f 65 c2 bc 8b 95 e3 3c 9f 92 82 3d 70 9e b4 bd
       -0.023729919 0.027781269 0.06375622 -0.08819282
0002c0 8b ae 34 bd 6e 26 63 bc d0 73 c7 bd 1c 23 4f bd
       -0.04411177 -0.013864143 -0.09738886 -0.050570592
0002d0 b4 08 bd bd 07 e3 aa bd 35 bc 77 bd d3 1b 31 bd
       -0.092301756 -0.08344083 -0.060482223 -0.043239426
0002e0 42 0c 8c bd 11 38 d9 bc 9a 94 ed bc b6 5c 8c bd
       -0.068382755 -0.026515992 -0.029001523 -0.06853621
0002f0 6d bb 07 3d 9e f1 96 3d 5a 4e 6a bd b1 ee 94 bd
       0.033137728 0.073703036 -0.057203628 -0.07272089
000300 2b 37 75 bd c4 9c 66 3d 3f 27 42 bd 8c ba 8f bd
       -0.059867065 0.056301847 -0.04740071 -0.07018003
000310 12 f0 2c bd f4 4f 3e 3d c8 d5 30 3a a6 64 16 bd
       -0.042221136 0.046462968 0.0006745723 -0.03671708
000320 a9 44 7e 3c c6 7f 06 bb 48 1e 77 3d dc de 4c bc
       0.0155193 -0.0020522936 0.060331613 -0.012504306
000330 23 db 8f bb 99 d6 41 bc 51 cd 6c bd 75 1d 8a 3d
       -0.004390137 -0.011830949 -0.057812992 0.067439
000340 36 08 43 bd 13 83 ba bd 9a 72 bc bd 7a 10 a8 bd
       -0.047615252 -0.09107032 -0.09201546 -0.08206268
000350 a7 be 8f 3d c7 2b c2 bc 99 f2 8f bd 7c 81 70 bd
       0.07018786 -0.023702515 -0.07028694 -0.058717236
000360 17 3d e8 3c 8b 5a 51 3d b8 b8 14 bc 5f 18 87 3d
       0.028349442 0.05111174 -0.0090772435 0.06596445
000370 87 0e 8f 3b 87 d6 38 bd 7d c4 89 bc 80 6e 49 bd
       0.0043657455 -0.045126464 -0.016817326 -0.049177647
000380 72 0e 81 bc 88 d8 ee 3b 60 43 81 3d 04 8c 8f 3d
       -0.015753958 0.007288996 0.06311679 0.07009128
000390 6e c2 e0 3c 3f 51 bb 3c b8 47 48 3d fb 4d 62 bd
       0.027436461 0.02286589 0.04889652 -0.05525015
0003a0 12 b5 23 3d 63 ce 2a bd be b9 80 bd 29 ed f4 bb
       0.039967604 -0.041700732 -0.062854275 -0.0074745608
0003b0 66 78 71 3d 8a cf 11 3d 39 8d 3b bd 83 17 8c 3d
       0.05895271 0.035598315 -0.045788977 0.06840422
0003c0 cd 41 9c bc 86 b7 16 bd f8 45 9a bd ce 6f 6c 3d
       -0.019074345 -0.036796115 -0.07532877 0.057723813
0003d0 ed ce bf ba 15 73 a4 bd 87 bc 7e 3d 4f ff 94 3d
       -0.0014633812 -0.08029763 0.062191512 0.07275259
0003e0 12 79 4d 3d f7 72 3a bd 52 95 db 3c 2e bd 98 bc
       0.05016429 -0.045519795 0.0268046 -0.018644895
0003f0 6e 25 aa bc 1c 22 2e 3d fc db 05 3c 17 66 4e 3d
       -0.020769801 0.042512998 0.008170124 0.05039033

actor_head.0.bias f4 [128]
000000 8a d4 61 bd 88 84 95 3c 3f 74 87 3b 2d 13 66 bd
       -0.055134334 0.018251672 0.0041337307 -0.05617063
000010 8c fd 8c 3d b1 77 4f bd 0f 5b 36 3d 6c 71 20 3e
       0.06884298 -0.050651256 0.044520434 0.15668267
000020 44 be 54 bd a6 67 44 bd 67 09 6e 3d f1 e4 14 bd
       -0.051939264 -0.04795041 0.058114436 -0.036351148
000030 95 dc 93 bc dd cf d8 bd e2 4a 88 bd 74 a7 c6 bb
       -0.018049518 -0.10586522 -0.06654908 -0.0060624424
000040 75 c0 03 bc 8e 83 87 3d bc 8a b6 3d d0 9f 99 3d
       -0.008041491 0.06616889 0.0891318 0.07501185
000050 82 ee 36 3e ed 7b 20 bd a3 20 41 3d c1 6a d1 bd
       0.17864421 -0.039180685 0.047150265 -0.1022544
000060 71 ef 4e 3e cd 00 97 bd 1d 81 14 3e 82 6d 6e 3d
       0.20208527 -0.073731996 0.14502378 0.058209904
000070 1c b3 07 3d 2f 2d cd bc 12 2e 25 3e f1 62 cb 3c
       0.033129796 -0.02504596 0.16130856 0.024827452
000080 24 76 16 bc 85 6a 12 3e 23 82 d1 3c 27 fa 18 3e
       -0.00918344 0.14298446 0.02557475 0.14939176
000090 cf 31 be 3d 1d 30 87 3d 02 3f a8 bd 00 a2 ff 3c
       0.09286844 0.06600974 -0.08215143 0.031205177
0000a0 ca 0d e5 bb 8c 0e 0e 3d 53 81 34 3d 07 f3 12 3d
       -0.006990169 0.03468184 0.044068646 0.0358763
0000b0 97 d9 59 3d ee b7 54 3d c6 73 3d 3d 0a 51 05 bd
       0.053186025 0.05193322 0.04625299 -0.032547988
0000c0 58 db a4 3d a9 eb 04 3d d7 60 05 bd 6a 8f 2e 3d
       0.08049649 0.032451306 -0.032563057 0.04261724
0000d0 1a 86 56 3d 6c 3a 13 3e d9 91 95 3c c2 b0 6f bd
       0.052373983 0.14377755 0.018258022 -0.05851818
0000e0 6d f8 fd bc e8 1a c0 3c cb 27 07 3e 6f 03 5d 3d
       -0.031002248 0.02345033 0.13198774 0.053958353
0000f0 20 a4 63 3b 52 a8 c1 bd fe 1a bd bd a3 af a3 bd
       0.0034735277 -0.09455933 -0.09233664 -0.079924844
000100 46 b9 d7 bd ed 88 8f bd 1f 0f 33 3d 14 1a ec 3d
       -0.10533385 -0.070085384 0.043715592 0.115284115
000110 97 d3 2f bc d0 36 3c 3d dc fe 2a bd 71 dc 89 3c
       -0.010731599 0.04595071 -0.04174696 0.016828747
000120 9c 71 ef 3d 36 fe c1 3d 3a c7 92 3d 06 45 b6 bd
       0.11691591 0.09472315 0.07166906 -0.08899884
000130 1e 70 8f 3d b4 68 05 3e df 02 96 3d 54 47 3e 3d
       0.070038065 0.13028222 0.07324766 0.046454743
000140 c2 56 06 3e a3 12 98 3d fd 60 34 bc ef ac c4 bd
       0.13119033 0.0742543 -0.011009452 -0.09603297
000150 c1 8c b0 3c 78 8c 1c 3d 3b 5e 21 b8 ad 0b ad bd
       0.021551492 0.0382199 -3.847315e-05 -0.084494926
000160 11 1d 1a bb d1 54 83 3d 6f eb e8 bd ea 36 2d bd
       -0.002351586 0.06412662 -0.113730304 -0.0422887
000170 17 36 d1 3d 44 d6 5c 3b 25 3d fb 3d 26 0d b5 3d
       0.10215395 0.0033697048 0.12267522 0.088403985
000180 c5 01 83 bd a4 59 66 3d 4f 98 d7 3c 37 da bc 3d
       -0.06396822 0.05623783 0.026317744 0.09221309
000190 83 79 02 3e ac 42 70 bd fd 59 e1 bd af c4 8c 3d
       0.12741666 -0.058657333 -0.11003492 0.06873452
0001a0 a5 86 9b bd 96 0e fa 3d e2 8c 32 bc 6a 39 e5 3b
       -0.07594041 0.12209813 -0.010897847 0.0069953697
0001b0 4a ff 08 3e dc b0 68 3d 1d b9 29 3e a8 84 9b bd
       0.13378635 0.05680929 0.16574521 -0.075936615
0001c0 e2 10 49 3d 0d 5e 84 3d 3b a7 ab bd a1 60 03 bd
       0.049088366 0.06463251 -0.08381506 -0.032074574
0001d0 a5 a5 16 3e 0f 47 d6 3d e4 f2 b4 bd 2d d5 bc 3c
       0.14711626 0.10462772 -0.0883539 0.023050869
0001e0 07 51 e7 3d 8b 61 87 bc e6 0c cc 3c 11 69 93 bd
       0.112947516 -0.016526004 0.024908494 -0.07197774
0001f0 3e 63 4f bd 46 31 84 bd 6d ba 8e 3c f3 b5 3f bd
       -0.050631754 -0.06454711 0.01742288 -0.04680438

actor_head.2.weight f4 [4, 128]
000000 d0 7a 55 bc 03 3b ea bc 12 a9 8b 3d e8 a3 92 bd
       -0.013029769 -0.028592592 0.06819357 -0.07160169
000010 f9 7f f1 bd fa d9 d6 bc dd 42 3d bd 09 4b a4 3d
       -0.11791987 -0.026226986 -0.046206344 0.08022124
000020 e3 45 35 bc 5b 64 75 bd 6c 80 b2 3c 4c 26 93 3d
       -0.011064026 -0.05991016 0.021789752 0.07185039
000030 a3 da 0e bd 8d 00 bd bc 51 f0 54 ba ed 98 88 bd
       -0.034876477 -0.023071552 -0.0008122968 -0.06669793
000040 3e 78 51 3d 65 0e 1e bd 2b 6b ff 3d 75 23 36 3d
       0.051140063 -0.038587946 0.124716125 0.04446741
000050 fa cd 9f 3d 67 98 85 bc 03 ae 9f 3d c5 80 11 3d
       0.07802959 -0.016308023 0.07796862 0.035523195
000060 5e f2 d1 3d 7a b2 8f 3d 3b 2a 03 3e b5 66 d4 3c
       0.10251306 0.070164636 0.12809078 0.02592788
000070 2c 4c 28 3e 23 cb f8 bc 29 db f9 3d 00 7e 91 bd
       0.16435307 -0.0303703 0.122000046 -0.07104111
000080 1d 5d 2c bc 3e a8 cc 3d d2 cf 14 3d 9d 2d 11 3d
       -0.010520247 0.09993027 0.036331005 0.03544389
000090 5a 39 03 3e eb 2a 94 3d a7 f5 fa 3c d8 79 14 bd
       0.12814847 0.072347485 0.030634714 -0.03624901
0000a0 0e d5 04 3d 97 99 42 bd b6 56 11 bd bc 92 40 bd
       0.032429747 -0.047509756 -0.035483085 -0.047014937
0000b0 ad bf f1 bc 58 91 4d 3d 6f 2b 78 3b eb a5 5b bd
       -0.029510343 0.05018744 0.0037867685 -0.05362503
0000c0 3d d5 92 3d 09 3e 87 bd 5f 8f 8a 3c 36 ea ed 3d
       0.07169578 -0.06603629 0.016914068 0.11616938
0000d0 12 2c 4d bd fb 22 d5 3d 85 ad cc bb 3c ea 98 bb
       -0.050090857 0.104070626 -0.006246271 -0.004666595
0000e0 33 dd 2f bd f6 2f 85 bd 64 e8 8c 3c 49 64 0f be
       -0.04293556 -0.065032884 0.017200656 -0.140031
0000f0 0c 45 4f 3d f9 38 21 bd 5a f2 1a 3a e2 9c e1 3c
       0.050602958 -0.039360974 0.0005910747 0.027540628
000100 a1 35 0e 3d f7 62 73 3d ea ef 63 3d 33 ae 6a 3d
       0.034719113 0.059420552 0.05564872 0.057295036
000110 30 0c 9b bd 5a eb 1e b9 5f 6a f9 bd 01 f4 0f 3d
       -0.07570684 -0.0001515573 -0.12178492 0.03514481
000120 0f 0f 3c 3d 36 6d c2 3d ae 4b 2e 3d bc a0 0d bd
       0.0459128 0.094934866 0.042552643 -0.034577116
000130 94 63 74 3d d2 3c b2 3d fe 36 be 3d d5 48 a0 3d
       0.059665278 0.08703007 0.09287833 0.078263916
000140 1b 1f df 3d bf 27 be 3b 00 08 86 bc a2 e2 1a bc
       0.10894605 0.005803078 -0.016361237 -0.009453448
000150 2a d0 40 bd 95 c9 5a 3d df 4c a1 3c 51 19 b1 bd
       -0.04707352 0.0534149 0.019689975 -0.08647407
000160 dd 32 2d bd 15 86 c6 bd 57 54 52 3d ba fc 9f bd
       -0.042284835 -0.09693543 0.051349964 -0.07811876
000170 28 16 39 bd 42 e9 d5 bb 26 eb d5 bc 30 3a a8 3b
       -0.045187145 -0.0065280506 -0.026113104 0.0051338896
000180 77 8e 66 bd 02 82 8c 3a 1b 6c 83 3c 7f 65 05 3d
       -0.05628821 0.0010719898 0.01604276 0.032567497
000190 ee 02 85 3d 7c eb 71 bd 3f dd 91 bd 52 78 08 bd
       0.064946994 -0.059062466 -0.071222775 -0.03331787
0001a0 a3 21 70 3d a5 72 3d 3d 0e 92 6d bd 10 88 83 3c
       0.05862583 0.04625191 -0.058000617 0.01605609
0001b0 27 a1 1f 3e ba a6 9a 3c 3b 45 93 3d 91 f6 f0 3c
       0.15588818 0.01887833 0.07190939 0.029414447
0001c0 41 32 c3 3c b2 eb 59 3d fa 8b b3 bc 3e 5c 87 bd
       0.023827674 0.053203292 -0.021917332 -0.06609391
0001d0 ba fa c0 3d 20 4f a4 3d 8b 1b c7 b9 d3 ac df 3d
       0.09422822 0.080229044 -0.0003797676 0.109216355
0001e0 e8 7c 4f 3d 7d 95 98 bd e9 8f ec 3c 29 ea 96 bd
       0.05065623 -0.074503876 0.028877215 -0.07368881
0001f0 00 0c 03 bd c4 24 a1 3d 43 64 2b bd 89 ad 38 3d
       -0.031993866 0.078683406 -0.041843664 0.04508737
000200 70 63 84 3d 08 21 6e bd 93 67 73 bd 67 ba 95 bd
       0.06464279 -0.05813697 -0.059424948 -0.07310944
000210 55 82 08 3e 18 fd 3a bd fe 0c 90 bc 37 cb b2 3d
       0.13330968 -0.045651525 -0.01758432 0.087301664
000220 c5 93 c6 bc f3 b9 9f bc a4 cf a4 3c e3 c4 98 3d
       -0.024240384 -0.019497847 0.020118542 0.07459428
000230 b7 a4 ec 3d 00 fe 8a bd 66 de 82 bd bc 26 f2 bb
       0.11554854 -0.06786728 -0.063900754 -0.0073898714
000240 38 fd 35 bc 75 b7 83 bb f1 97 84 bd 6b 33 37 3d
       -0.011107735 -0.0040196725 -0.06474293 0.04472677
000250 4e 69 48 3c 53 96 b3 3c b5 45 db 3d 5e 1c 53 bd
       0.012232138 0.021922266 0.10706655 -0.051540725
000260 04 fa 73 3d 1a 65 ca 3b ce 2f dc 3d de a7 9a 3c
       0.059564605 0.006176603 0.107513055 0.018878873
000270 a5 1e 58 bb 71 32 4a bb 13 29 88 3d 67 8d 70 3d
       -0.003297725 -0.003085282 0.06648459 0.0587286
000280 e3 a7 09 3b ce f9 f9 bd b5 28 43 3d c9 2a 1b 3d
       0.002100461 -0.122058496 0.047646243 0.0378826
000290 0b d2 13 3d 1e 9b 45 3d a0 da 05 3d 24 ca dc 3c
       0.036088984 0.048243634 0.0326792 0.026951857
0002a0 12 e4 2f bd 50 e5 94 3d fe f7 ce bc 82 97 d1 3d
       -0.042942114 0.072703004 -0.025264736 0.10233976
0002b0 b6 1b 3e 3a 10 b9 5d 3d e7 3e 35 bd 74 8d 07 bd
       0.0007252054 0.054131567 -0.04424944 -0.033093885
0002c0 13 80 34 3d d2 24 91 3b cd 7f 9b 3c fe 8d a6 bd
       0.044067454 0.004429438 0.018981839 -0.081325516
0002d0 ff f9 b7 bc cc b5 3b 3d b4 4d 8b 3d 31 7b a9 bc
       -0.022458075 0.045827672 0.0680193 -0.020688625
0002e0 ea 40 5f 3d cf 26 10 bd 09 c0 04 3e 99 a1 80 3d
       0.054505266 -0.03519326 0.1296388 0.06280822
0002f0 78 b0 61 3d c7 df 47 bc aa 2a af 3d e5 61 12 3c
       0.055099934 -0.012199349 0.085530594 0.008934473
000300 db f1 37 bc d5 f0 bd bc b9 d7 f2 3d e5 89 0b bd
       -0.011227096 -0.023186127 0.11857552 -0.034067053
000310 8c 13 7f 3d 15 76 d2 bb 7d 7b 5e 3c ef ed 25 3d
       0.0622745 -0.006422768 0.013579247 0.040510114
000320 01 a7 c5 3d 58 5c cf 3d 99 81 05 3e ab 49 24 3d
       0.09650994 0.10125035 0.13037719 0.040109318
000330 85 22 75 3d fd 53 ac 3d 0b 5f bc 3d a2 0a b9 3d
       0.059847374 0.08414457 0.091978155 0.09035231
000340 cb 66 7f bc de a2 b6 3d 3f ff 87 bd 35 d6 6d 3d
       -0.015588473 0.08917783 -0.06640481 0.058065612
000350 97 38 0d bd dd 6a 53 bd 44 68 e7 3d 5d 3a 0f 3d
       -0.034477796 -0.051615585 0.11299184 0.03496777
000360 9d a9 b6 3b 9c 9a 15 3d eb 9a c2 3c 05 5a dd bb
       0.0055744187 0.0365244 0.023755511 -0.006755116
000370 a7 9d 91 3d 2e b6 59 bc fe d4 c9 3d 7f 97 e8 3c
       0.07110148 -0.013288064 0.09855078 0.028392551
000380 6c 4f 4b bd 2f 37 24 bd 72 b8 40 3c 24 9b 23 3d
       -0.04963629 -0.04009169 0.011762725 0.039942876
000390 20 95 7f 3d d7 29 f0 bc a8 b8 ed 3c 42 38 fc bc
       0.062398076 -0.029316826 0.029018715 -0.030788545
0003a0 42 03 6a bd ad 8c 0b 3e 21 75 82 bd 37 c5 06 3d
       -0.057132013 0.13627882 -0.06369997 0.032902922
0003b0 4e a5 3b bd 9e 90 c5 3c 2c 1b e1 3c 6e 1f 90 3c
       -0.045811944 0.02411681 0.027478777 0.017593112
0003c0 8d f7 17 3d 38 8e 31 3d 47 ef a1 bd f4 aa b4 bc
       0.037101317 0.04334852 -0.07906967 -0.022054173
0003d0 5b c8 6c 3d 0e 59 62 bd 79 8b 5d 3d e1 af d4 bd
       0.05780826 -0.05526071 0.05408809 -0.10385109
0003e0 b7 cc 67 3d 69 20 19 bd 03 05 85 3c 45 56 6b bd
       0.056591716 -0.037384424 0.016237741 -0.05745532
0003f0 45 f7 a0 3c 06 6e 74 bc f1 30 b3 bc 4f 50 86 3d
       0.019649157 -0.01491881 -0.021873923 0.065582864

actor_head.2.bias f4 [4]
000000 9f e5 19 3d 41 e8 5d 3d 3e c7 1e be 76 bb 0a be
       0.0375725 0.054176573 -0.15505692 -0.13548073
